Unfolded/Results/Unf_2lay_sim/sim_2lay_sim_Unfolded_Model_al0.50_Tr2400_epoch50_lr2.00e-03.pkl (torch_old, 11779 bytes, 24 tensors)

filter.0.conv1.convR.weight f4 [1, 1, 5, 5, 1]
00000000: 6e1d 64bd b0cc 373d 26d7 94bd ddc3 f73d
00000010: 0aea e7bd 18f1 3a3e cc69 c8bd 75d0 fabd
00000020: c780 90bd aad5 1e3e b1cb 49bd ba00 e13d
00000030: 34b2 19be 3650 a3bd 8c3c b9bc e3a9 30bd
00000040: fe77 1abe a385 e73d 3a91 2dbd 2472 ab3d
00000050: 5981 8c3d 88a3 23bd 177a 43bd 5d14 e83d
00000060: fa76 16be
-0.05569213 0.04487294 -0.07267599 0.12097905 -0.11323936 0.18256032 -0.09785804 -0.12246791
-0.07055812 0.15511194 -0.04926652 0.10986467 -0.15009385 -0.079742834 -0.022611879 -0.043130767
-0.15084836 0.11304786 -0.042374827 0.0837138 0.068606086 -0.039950877 -0.047723856 0.11332009
-0.14693823

filter.0.conv1.convI.weight f4 [1, 1, 5, 5, 1]
00000000: 2a6f 44ba 0e75 eb3d e72b 8b3e fa82 41be
00000010: 60dc 163e a607 673d e01d 3dbd 36b9 be3d
00000020: 0866 893d 1d07 f0bd 356f 1c3d bd34 5f3d
00000030: 5d12 c33d 814b fe3d 32df b13d 1f80 debc
00000040: a4ab eabc 0197 8d3e 65a1 28bd a026 3c3c
00000050: cbf2 3ebc 6006 a5bc 8811 5f3e b3b5 703d
00000060: fc72 1d3d
-0.00074933714 0.11496936 0.27181932 -0.1889762 0.14732504 0.05640378 -0.04617107 0.0931267
0.06708914 -0.11720107 0.038191993 0.054493655 0.09524987 0.12416745 0.08685149 -0.027160702
-0.028646298 0.2765427 -0.041169543 0.011483818 -0.011654566 -0.020144641 0.21784031 0.058767032
0.038439736

filter.0.conv2.convR.weight f4 [1, 1, 5, 5, 1]
00000000: 5829 413d fa3d 9e3d 40b8 d3bc ca57 3ebe
00000010: 304d fdbd 79d0 2e3e a0dd 433c 2ee7 25be
00000020: d835 013d 6f38 293e 3389 41be 22e1 09be
00000030: 2d21 a3bd d085 033c c00f 3fbd b00b b4bc
00000040: 52a8 47be a2ce bf3d 07c3 333e fe5c fa3d
00000050: 8806 11be 0817 25be 5e16 aa3d 402f 933b
00000060: 62e8 a73d
0.04715857 0.07726665 -0.025844693 -0.18588176 -0.12368238 0.17071714 0.011954695 -0.1620147
0.03154549 0.16525434 -0.18899994 -0.13464788 -0.07965312 0.008027509 -0.04664588 -0.02197823
-0.19497803 0.09365584 0.17554866 0.12224768 -0.14162648 -0.16122067 0.083050475 0.0044917166
0.081986204

filter.0.conv2.convI.weight f4 [1, 1, 5, 5, 1]
00000000: 605f 43bc 156f 103e a204 be3d 0052 ef3b
00000010: 0012 213d b01f 9bbc 3a36 e1bd 9dc9 9abd
00000020: 2770 f9bd d91b 2a3e be65 e13d 123f 8f3d
00000030: 280d 1dbe 3507 1e3e 566d 803d f7ad 0d3e
00000040: f021 a1bd f8aa 2d3d 8ff6 473e b7c2 093e
00000050: b93f 243e 0005 2cbd 4f08 1c3e ed67 20be
00000060: 18b4 8d3c
-0.011924595 0.14104874 0.092782274 0.0073034763 0.039323807 -0.018936008 -0.10996671 -0.07557986
-0.121795945 0.16612186 0.11005734 0.069944516 -0.1533705 0.15432437 0.06270854 0.13835894
-0.07867801 0.042399377 0.19527648 0.13453184 0.16039933 -0.041996956 0.15237544 -0.15664645
0.01729779

filter.0.conv3.convR.weight f4 [1, 1, 5, 5, 1]
00000000: c80c 3fbd 88cb 51bd d02a 753c 8965 3a3e
00000010: 52c9 ca3d 001a 5eba 5960 113e dde6 d1bd
00000020: 9e18 d33d e8ee 97bc b88c 0ebd 28d0 bf3c
00000030: 88e5 1cbe 4054 bd3c 1eb9 893d 0b17 2f3e
00000040: 600d 7fbd a277 933d 39b3 4c3e aab4 afbd
00000050: 6bae 423e f75c cbbd b28c b43d fa75 a03d
00000060: 5cd3 643d
-0.04664305 -0.051219493 0.014963821 0.18202795 0.0990168 -0.0008472502 0.1419691 -0.10249112
0.1030743 -0.018546537 -0.03480217 0.023414686 -0.15321934 0.023111463 0.067247614 0.17098634
-0.062268615 0.072005525 0.19990243 -0.08579381 0.19011848 -0.09929841 0.08815898 0.07835002
0.05586563

filter.0.conv3.convI.weight f4 [1, 1, 5, 5, 1]
00000000: b78b a5bd 244d 573d 801e 933a e209 1abe
00000010: c8e9 46bd 2ac5 08be 5a1b b53d 1849 933c
00000020: 5881 a03c 7485 78bd 001b 7c3a 78ce 7ebd
00000030: c462 6b3d 43e5 463e 582b f83c 5a6b b5bd
00000040: f731 fabd b079 7a3c 1bee 17be 1ef0 19be
00000050: b44c 05be 561e 8bbd 608a 723c 1507 0d3e
00000060: 7aa7 9e3d
-0.08083289 0.0525638 0.00112243 -0.15042832 -0.048562795 -0.13356462 0.088431075 0.01797919
0.019592926 -0.060674146 0.00096170604 -0.062208623 0.057467237 0.19423394 0.030294105 -0.08858366
-0.12216561 0.015287802 -0.14836924 -0.15033004 -0.13017541 -0.067928955 0.014803499 0.13772233
0.07746787

filter.0.conv4.convR.weight f4 [1, 1, 5, 5, 1]
00000000: 1662 b9bb e0f0 973d 013d 1dbd ff0b c13d
00000010: 6150 33bd 5716 b73d 1132 9bbe 5b95 773d
00000020: 19c9 f3bc 34bf c8bc f474 393e ac63 6b3e
00000030: 41ea 693e 1f37 683e be05 133e 583c 7bbe
00000040: 4742 acbe 49d7 9ebe eddf d3be 3361 44be
00000050: bbcd 213e d3cf bbbb 7a0d 1e3e 67a4 9f3d
00000060: ce02 553e
-0.0056574447 0.0741899 -0.038388256 0.09426116 -0.043777827 0.08939808 -0.30311635 0.06044517
-0.029758977 -0.024505235 0.1811102 0.2298724 0.22843267 0.22677277 0.14357659 -0.24534738
-0.33644316 -0.31023625 -0.4138178 -0.19177704 0.15801136 -0.0057315617 0.15434828 0.07795029
0.20801851

filter.0.conv4.convI.weight f4 [1, 1, 5, 5, 1]
00000000: 7be6 1f3d 8fb1 89bd 8039 13bb 7d7d b33d
00000010: 9f17 54bd 12d1 e6bd 4fed 053e 11a4 a3bd
00000020: 7100 0a3d 2227 acbc c871 89ba 2d27 3d3e
00000030: d2b3 d1bd 0ac9 723c 81c0 193e 90fc eabd
00000040: a020 133e c3c7 babd f6f6 4cbe 79f3 0bbe
00000050: 3086 0d3e 54f0 e83c 6a73 e3bd 7094 783d
00000060: 4e56 a43d
0.039038163 -0.0672332 -0.0022464693 0.08764169 -0.05178034 -0.11270346 0.13078807 -0.079902776
0.033691827 -0.021014754 -0.001048618 0.18471976 -0.10239376 0.014818439 0.1501484 -0.11473954
0.14367914 -0.09120133 -0.20016083 -0.13667096 0.1382072 0.02843491 -0.11105998 0.060688436
0.08024274

filter.0.conv5.convR.weight f4 [1, 1, 5, 5, 1]
00000000: 9817 efbc 257f 033e f49a 64bd d095 9ebc
00000010: 266c a83d a5e8 00be 0c59 5b3d 5423 35bd
00000020: 6a79 c43d 8331 debd c035 f23b 9848 a03c
00000030: 08c8 24be 32eb 14be 4a16 9d3d f86e 6ebd
00000040: 9242 f33d 7350 4abe 1d7a cabd 9baf 28be
00000050: 9e9f a33d 60ff bdbb 60cc 18bd 984a 08bd
00000060: ea14 20be
-0.029186055 0.1284147 -0.055811837 -0.019358546 0.08223753 -0.12588747 0.05355172 -0.044223145
0.095934704 -0.10849287 0.0073916614 0.019565865 -0.16091931 -0.14542845 0.07670267 -0.058211297
0.11877932 -0.19757251 -0.098865725 -0.16473238 0.07989429 -0.0057982653 -0.037304282 -0.033274263
-0.15632978

filter.0.conv5.convI.weight f4 [1, 1, 5, 5, 1]
00000000: a05a a33b cb55 0dbe a220 9a3d a0b8 83bb
00000010: 6312 46be 0655 dc3d fa16 db3d 7858 1abd
00000020: d866 0dbe 5090 033c b789 1a3e 2b76 3b3e
00000030: 5095 1abe ed00 b9bd 5976 1f3e 1e34 c83d
00000040: 368c fd3d 3adf cbbd 3971 303e ee5b 28be
00000050: 00d7 1dbc 6012 883b 6899 093d ee89 1abe
00000060: a9e5 3b3e
0.0049851686 -0.13802259 0.075257555 -0.0040198117 -0.19342951 0.107584044 0.10697742 -0.037682027
-0.13808763 0.008030012 0.15091597 0.18306796 -0.1509602 -0.0903338 0.1557249 0.097755656
0.12380259 -0.099546865 0.17230691 -0.16441318 -0.0096337795 0.004152581 0.033593565 -0.15091679
0.18349327

filter.0.conv6.convR.weight f4 [1, 1, 5, 5, 1]
00000000: b86f 0dbe 6018 f23b ad2d dabd 2b61 443e
00000010: 7e6b e43d b636 f13d 8a23 843d 281d a3bc
00000020: 62a1 e63d 4031 5f3b 2a63 95bd d67a d33d
00000030: fa88 803d 4844 54bd b881 60bd dd1c 35be
00000040: cc8e 60bd 4def a5bd 8340 dfbd a8fa 38be
00000050: 396a 203e 2d07 37be d54e 4b3e 33d8 d6bd
00000060: d0e0 7bbc
-0.13812149 0.0073881596 -0.10653243 0.19177692 0.11153315 0.117780134 0.06452091 -0.019911364
0.1126125 0.0034056455 -0.07294305 0.103261635 0.06276126 -0.05182293 -0.05481121 -0.17686792
-0.05482368 -0.081022836 -0.109009765 -0.18064368 0.1566552 -0.17873831 0.19854291 -0.104904555
-0.015373424

filter.0.conv6.convI.weight f4 [1, 1, 5, 5, 1]
00000000: b621 873d 8ce1 69bd 2be0 24be 9777 a7bd
00000010: 3bed 243e 40ab 9abd 41af 2a3e 6c14 0dbd
00000020: 70f3 d0bc f279 a33d b0bc f0bc 00c5 dcba
00000030: d3d7 0d3e 3ee3 883d 606e 02bc d6fc 9b3d
00000040: 8b5e 323e ac78 4e3d 6c3b 70bd d236 863d
00000050: c057 8fbc 181e 20be 8328 9ebd aa4a ba3d
00000060: 60eb d63b
0.06598227 -0.057099864 -0.16101138 -0.08177107 0.16106121 -0.075521946 0.16668417 -0.034443304
-0.025506705 0.079822436 -0.029386848 -0.0016843379 0.13851862 0.06683968 -0.007960886 0.07616584
0.17418878 0.05040805 -0.05865042 0.06553425 -0.017497897 -0.1563648 -0.07722571 0.09096272
0.0065588206

filter.1.conv1.convR.weight f4 [1, 1, 5, 5, 1]
00000000: 8f7a 28be 95bc cc3d af2f 8cbd cfb3 e03c
00000010: 2ebe d6bd 8bdc 02be 96a9 563d d253 dc3c
00000020: 02cf 99bd 492b 08bd b83d 3d3e 986f 323e
00000030: def0 943e 0b2f 3fbd a7c8 523e 2eaa 2a3d
00000040: 7a6d 05be 6d0a b83d 8d72 b33d 08f3 7abd
00000050: 2158 c1bd fcad 203e 0f3b 013d 7d73 7f3c
00000060: e620 d0bd
-0.16453002 0.09996907 -0.068450324 0.02742949 -0.10485493 -0.12779443 0.052407824 0.026895437
-0.07510187 -0.033244405 0.18480575 0.17425382 0.29090017 -0.046675723 0.20584355 0.041666202
-0.13030043 0.089863636 0.08762083 -0.06126693 -0.094406374 0.1569137 0.031550463 0.015591499
-0.10162525

filter.1.conv1.convI.weight f4 [1, 1, 5, 5, 1]
00000000: b299 1c3e 259c 5e3d 52bc 83bd 19aa c53d
00000010: e9d9 fabd e698 2ebe e807 3cbe 515a a23d
00000020: 24b3 93bd a58d e83d 445d d83d 2075 183c
00000030: 776d cf3d 2e4c d2bd 69a6 ce3d 0a65 0abe
00000040: 5db1 80bd 1925 ab3d fd79 0dbe 8561 cf3d
00000050: 4f4e ab3b 0826 48bd b18a fb3d 3fb9 fa3d
00000060: 04db ecbd
0.15293005 0.05434813 -0.064324036 0.09651584 -0.12248594 -0.17050514 -0.18362391 0.07927383
-0.07211903 0.113551416 0.10564664 0.0093052685 0.10128301 -0.10268436 0.10090334 -0.13515106
-0.06283829 0.08356685 -0.13816066 0.10126022 0.005227841 -0.048864394 0.12282313 0.12242364
-0.115652114

filter.1.conv2.convR.weight f4 [1, 1, 5, 5, 1]
00000000: bd16 f6bc d22c 983d 7e6f 26bc f2c7 113d
00000010: 9184 d33b f3e5 35be 605c b13d 104e 0abe
00000020: 384b 993d ac36 4b3d a405 c4bd d3af 37bd
00000030: 9c36 d8bc f316 cd3a 9de8 6bbe 5241 573d
00000040: 9c87 d23d 3a75 b43d e605 9a3d 3a51 8c3c
00000050: 0fdb ecbd 05dc 293e 3149 0fbe 3481 c4bd
00000060: e727 093d
-0.03004014 0.07430424 -0.010158418 0.035591073 0.006455012 -0.177635 0.08660197 -0.13506341
0.0748505 0.049612686 -0.09571388 -0.044845413 -0.026393227 0.0015647098 -0.23037954 0.05255253
0.10279772 0.08811422 0.07520656 0.017128576 -0.115652196 0.16587837 -0.13992764 -0.09594956
0.03348532

filter.1.conv2.convI.weight f4 [1, 1, 5, 5, 1]
00000000: 0791 a23d cd6f a93d 1b55 62be ba4d 38bd
00000010: d830 0e3e d647 39bd b85a a7bc 8417 2f3c
00000020: e390 fbbd 1613 f9b9 b70a 343d 8677 58be
00000030: 154a edbe 9494 45bd 2b7e 41be 8d5f f9bd
00000040: 900e ca3d 0a3e a8be 332d e63c b634 c23d
00000050: 9068 043e 6bce d63d 2743 0cbe 24c9 443e
00000060: d582 293d
0.07937818 0.082732774 -0.22102778 -0.044996 0.1388582 -0.045234524 -0.020429 0.010686759
-0.12283494 -0.000475072 0.04395553 -0.21139345 -0.46345583 -0.0482374 -0.18895786 -0.12176428
0.09866059 -0.32859832 0.028097725 0.0948271 0.12930512 0.1048859 -0.13697492 0.19217354
0.041384537

filter.1.conv3.convR.weight f4 [1, 1, 5, 5, 1]
00000000: 6abb bb3e 0e79 c13e 63ff da3e d8eb fb3e
00000010: 5167 f63e 9cc7 7d3e 0260 a03e 0553 653e
00000020: b3e8 963e baae c23e d00f 1e3e 3cb2 883e
00000030: 8caf 643e 5269 ca3e e241 483e c8c3 863d
00000040: 2d07 313e d8c9 133e f2be 003e 9b3e 733e
00000050: ebb9 343b ac25 fa3c 9987 0d3e c65f 0ebd
00000060: 92a9 393e
0.36666423 0.3778767 0.4277297 0.49203372 0.481257 0.24783176 0.31323248 0.2239495
0.2947441 0.3802393 0.1543572 0.26698482 0.22332591 0.39533478 0.19556382 0.06580311
0.17287894 0.14432466 0.1257284 0.23754351 0.0027576636 0.030535541 0.13821258 -0.034759305
0.18131092

filter.1.conv3.convI.weight f4 [1, 1, 5, 5, 1]
00000000: 2620 fbbd b4ea 8dbe 8f47 d43d 4586 8bbe
00000010: 8eec 383c 1278 8abd fbaf dabd 5e1f 483e
00000020: e21f c1bd 544b 06be 9970 b7bc 478e 023c
00000030: c41e 96bc 3091 16bd c255 14be 80ca f93d
00000040: c971 1abe 6eda 043e e169 513d a605 41be
00000050: 869d dc3b 0bed 7abd 1fad 133e 3f13 c5bd
00000060: 8e7a 703d
-0.12261991 -0.27718127 0.10365211 -0.27250877 0.011286868 -0.06761183 -0.10678097 0.19543216
-0.09429909 -0.13114673 -0.022392558 0.007968492 -0.018325217 -0.036759555 -0.14485839 0.12196827
-0.15082468 0.1297395 0.051126365 -0.18849811 0.0067326454 -0.061261218 0.14421509 -0.096228115
0.058710627

filter.1.conv4.convR.weight f4 [1, 1, 5, 5, 1]
00000000: 3e7d 6abd a20e 363e a72c 50bd 876d 323d
00000010: bf54 ee3b 3d63 85bd 354a 1cbd 72fc b03d
00000020: 3175 f23c 372a 9e3b f380 903b 68a2 9e3e
00000030: 9f2a b73e 756a 9b3d 8845 033a 8b78 a93d
00000040: fe4a b0bd 48b7 363e 08e9 363c c3ad 103e
00000050: ba13 8abd 7459 80bd 88f4 e3bd 705a 46bd
00000060: 7de0 02be
-0.057248347 0.1777902 -0.050823834 0.043561485 0.007273286 -0.06513069 -0.038156707 0.086419
0.029596897 0.0048268097 0.004409903 0.3098328 0.35774705 0.075886644 0.00050076144 0.08274945
-0.086080536 0.17843354 0.011163957 0.14128785 -0.06742044 -0.06267062 -0.11130625 -0.04842609
-0.12780948

filter.1.conv4.convI.weight f4 [1, 1, 5, 5, 1]
00000000: 49d9 133c bc6d 99bc 83c0 863c 1811 85bc
00000010: 719e 10bc 3742 433d 3cbb 93bc 3415 be3c
00000020: 577a 3fbd d1aa 45bc dd33 c7bd 1322 11bd
00000030: f90c 67bd d33b d53d dd2c 043e cf09 0e3e
00000040: 70ed 313d 8066 19bd 1b81 6ebb 300e 3abe
00000050: 0bfe a03d 9b66 b2bd a824 eebc 0fd2 003d
00000060: 5734 a03b
0.009023973 -0.018729083 0.016449219 -0.016243502 -0.008826838 0.04767057 -0.018033616 0.02320347
-0.04674753 -0.012064652 -0.09726689 -0.035432886 -0.056408856 0.10411801 0.12907739 0.13870929
0.04343933 -0.037451267 -0.003639287 -0.18169475 0.07860955 -0.08710977 -0.029070213 0.031450327
0.004889052

filter.1.conv5.convR.weight f4 [1, 1, 5, 5, 1]
00000000: a409 0abc eb4a 26bb 7c54 cb3c 3257 243c
00000010: 7620 ddbc ae73 aa3d 6904 5ebd 8f1f e7bd
00000020: 0f2e c43d c57e ec3c 8bc8 4c3d 49f4 8d3d
00000030: 284c 203e ba69 bdbd ea32 a43c 691a 26be
00000040: e504 b23d a5f0 963a 1f45 b9bd 8ba8 793d
00000050: 710c d33d 33b7 88bd de3d 1abc 9e9c 933d
00000060: c57e d4bc
-0.00842515 -0.0025374244 0.024820559 0.010030555 -0.026993018 0.083228454 -0.054203425 -0.11285316
0.095790975 0.028869042 0.04999594 0.06931359 0.15654051 -0.09248681 0.020043809 -0.16221012
0.0869234 0.001151581 -0.09046387 0.06095175 0.103051074 -0.066755675 -0.009414164 0.07207607
-0.025939355

filter.1.conv5.convI.weight f4 [1, 1, 5, 5, 1]
00000000: fe4c 7abd fc22 08be c6f8 4b3e 8805 8f3c
00000010: 304a 9bbd 4da6 14be 3a3c 013e 4839 ee3d
00000020: 1794 48be 6cb1 173e 534a 553e 24fb 7f3e
00000030: 79fa af3e 3109 583e 29b2 fc3d 3a0b 8d3d
00000040: eb50 1bbe 37f7 eb3b cdca 413d bb00 d2bc
00000050: 5100 a7bd 1491 9d3c 4c01 ab3d 6d7d d23a
00000060: 6cb0 5fbe
-0.06110858 -0.13294595 0.19919118 0.017458692 -0.075825095 -0.14516564 0.12620631 0.11632019
-0.19587742 0.14813775 0.20829134 0.24998146 0.34370783 0.21097256 0.12338669 0.06886907
-0.15167587 0.007201101 0.047312547 -0.025635114 -0.08154357 0.019234218 0.08349857 0.0016059108
-0.21844643

filter.1.conv6.convR.weight f4 [1, 1, 5, 5, 1]
00000000: 99d1 0abe 1da0 a9be 93e4 fdbd 4abf 473b
00000010: b75c 6fbe 7954 f5bd d4b5 39be f026 64bd
00000020: 71b6 5bbe 5542 1abe 78f9 013c 05cb 80be
00000030: c822 3fbe 560b 8cbb 4df1 6cbe 2be0 ecbc
00000040: 016e 93be 9f15 02be c23b 03be 8bc6 7dbe
00000050: 75eb 98bd 2884 c1bb 024b b139 32ac 26be
00000060: 2f91 b9bd
-0.13556518 -0.3312997 -0.12397113 0.0030479007 -0.23375212 -0.119790025 -0.18135768 -0.055701196
-0.21456315 -0.15064366 0.007933013 -0.25154892 -0.18665612 -0.0042738123 -0.23138924 -0.028915485
-0.28794864 -0.1270356 -0.12815765 -0.2478277 -0.07466785 -0.005905647 0.00033815956 -0.16276625
-0.09060895

filter.1.conv6.convI.weight f4 [1, 1, 5, 5, 1]
00000000: a786 63bd 86cb 07bd 92fd a53d ce15 1c3d
00000010: 6e3e 393e 5d04 32be 9d5f 15bd 9f1e 6b3e
00000020: 463d 8c3c 429d 8c3d a68e 153c eb00 293d
00000030: bc58 2e3c 7476 3d3d b087 6ebd ff3c b53d
00000040: 92de 24bd ea6c 10bd 0ca5 263d 8e95 c33d
00000050: d7fc 68bd e372 413d 0fe9 203d e736 efbc
00000060: 821d 983c
-0.055548336 -0.03315308 0.08105005 0.038106732 0.18090221 -0.17384477 -0.036468137 0.229609
0.017119061 0.06865932 0.009128248 0.04126064 0.010641273 0.046255544 -0.05823487 0.08849525
-0.040251322 -0.03526012 0.040684745 0.0955001 -0.056881752 0.047228705 0.039284762 -0.029200984
0.018568758
