Unfolded/Results/Unf_1lay_sim/sim_1lay_sim_Unfolded_Model_al0.50_Tr2400_epoch50_lr2.00e-03.pkl (torch_old, 5663 bytes, 12 tensors)

filter.0.conv1.convR.weight f4 [1, 1, 5, 5, 1]
-0.08879994 0.066836186 0.23027441 0.12330202 -0.111099795 0.088418014 -0.15010938 0.102017015
-0.14720617 0.089244604 0.14456072 0.32816517 0.3384943 0.10383335 0.17952098 -0.11049833
-0.18821648 0.35190716 -0.123361446 0.022492737 0.02556046 -0.02306636 0.26327044 0.10224129
-0.14180721
00000000: bedc b5bd 69e1 883d 0ecd 6b3e c585 fc3d
00000010: 4a88 e3bd 8114 b53d 46b6 19be 4cee d03d
00000020: 37bd 16be e0c5 b63d ba07 143e 4405 a83e
00000030: 204f ad3e 94a6 d43d 59d4 373e f34c e2bd
00000040: d2bb 40be 2d2d b43e eda4 fcbd b042 b83c
00000050: 2b64 d13c aaf5 bcbc 62cb 863e e263 d13d
00000060: e935 11be

filter.0.conv1.convI.weight f4 [1, 1, 5, 5, 1]
-0.10017512 0.070703536 0.067374684 -0.23149674 0.13133466 0.09407382 0.01952476 -0.012889825
0.11277982 -0.061523844 -0.04693516 -0.010039877 -0.14114016 0.039880004 0.004902216 -0.0012109797
-0.00039439704 0.14079206 -0.044617794 -0.0028206955 -0.005675164 -0.036815446 0.037768938 0.0014891358
-0.024115155
00000000: 9d28 cdbd 04cd 903d bdfb 893d 7b0d 6dbe
00000010: 987c 063e c6a9 c03d 64f2 9f3c d82f 53bc
00000020: 1bf9 e63d 6d00 7cbd 153f 40bd 4c7e 24bc
00000030: 0c87 10be 3759 233d c5a2 a03b bcb9 9eba
00000040: 13c7 ceb9 cb2b 103e 26c1 36bd 6bdb 38bb
00000050: baf6 b9bb cbcb 16bd 9ab3 1a3d 1b2f c33a
00000060: 258d c5bc

filter.0.conv2.convR.weight f4 [1, 1, 5, 5, 1]
0.04715857 0.07726665 -0.025844693 -0.18588176 -0.12368238 0.17071714 0.011954695 -0.1620147
0.03154549 0.16525434 -0.18899994 -0.13464788 -0.07965312 0.008027509 -0.04664588 -0.02197823
-0.19497803 0.09365584 0.17554866 0.12224768 -0.14162648 -0.16122067 0.083050475 0.0044917166
0.081986204
00000000: 5829 413d fa3d 9e3d 40b8 d3bc ca57 3ebe
00000010: 304d fdbd 79d0 2e3e a0dd 433c 2ee7 25be
00000020: d835 013d 6f38 293e 3389 41be 22e1 09be
00000030: 2d21 a3bd d085 033c c00f 3fbd b00b b4bc
00000040: 52a8 47be a2ce bf3d 07c3 333e fe5c fa3d
00000050: 8806 11be 0817 25be 5e16 aa3d 402f 933b
00000060: 62e8 a73d

filter.0.conv2.convI.weight f4 [1, 1, 5, 5, 1]
-0.011924595 0.14104874 0.092782274 0.0073034763 0.039323807 -0.018936008 -0.10996671 -0.07557986
-0.121795945 0.16612186 0.11005734 0.069944516 -0.1533705 0.15432437 0.06270854 0.13835894
-0.07867801 0.042399377 0.19527648 0.13453184 0.16039933 -0.041996956 0.15237544 -0.15664645
0.01729779
00000000: 605f 43bc 156f 103e a204 be3d 0052 ef3b
00000010: 0012 213d b01f 9bbc 3a36 e1bd 9dc9 9abd
00000020: 2770 f9bd d91b 2a3e be65 e13d 123f 8f3d
00000030: 280d 1dbe 3507 1e3e 566d 803d f7ad 0d3e
00000040: f021 a1bd f8aa 2d3d 8ff6 473e b7c2 093e
00000050: b93f 243e 0005 2cbd 4f08 1c3e ed67 20be
00000060: 18b4 8d3c

filter.0.conv3.convR.weight f4 [1, 1, 5, 5, 1]
-0.04664305 -0.051219493 0.014963821 0.18202795 0.0990168 -0.0008472502 0.1419691 -0.10249112
0.1030743 -0.018546537 -0.03480217 0.023414686 -0.15321934 0.023111463 0.067247614 0.17098634
-0.062268615 0.072005525 0.19990243 -0.08579381 0.19011848 -0.09929841 0.08815898 0.07835002
0.05586563
00000000: c80c 3fbd 88cb 51bd d02a 753c 8965 3a3e
00000010: 52c9 ca3d 001a 5eba 5960 113e dde6 d1bd
00000020: 9e18 d33d e8ee 97bc b88c 0ebd 28d0 bf3c
00000030: 88e5 1cbe 4054 bd3c 1eb9 893d 0b17 2f3e
00000040: 600d 7fbd a277 933d 39b3 4c3e aab4 afbd
00000050: 6bae 423e f75c cbbd b28c b43d fa75 a03d
00000060: 5cd3 643d

filter.0.conv3.convI.weight f4 [1, 1, 5, 5, 1]
-0.08083289 0.0525638 0.00112243 -0.15042832 -0.048562795 -0.13356462 0.088431075 0.01797919
0.019592926 -0.060674146 0.00096170604 -0.062208623 0.057467237 0.19423394 0.030294105 -0.08858366
-0.12216561 0.015287802 -0.14836924 -0.15033004 -0.13017541 -0.067928955 0.014803499 0.13772233
0.07746787
00000000: b78b a5bd 244d 573d 801e 933a e209 1abe
00000010: c8e9 46bd 2ac5 08be 5a1b b53d 1849 933c
00000020: 5881 a03c 7485 78bd 001b 7c3a 78ce 7ebd
00000030: c462 6b3d 43e5 463e 582b f83c 5a6b b5bd
00000040: f731 fabd b079 7a3c 1bee 17be 1ef0 19be
00000050: b44c 05be 561e 8bbd 608a 723c 1507 0d3e
00000060: 7aa7 9e3d

filter.0.conv4.convR.weight f4 [1, 1, 5, 5, 1]
-0.016748197 -0.0028404433 -0.32213938 -0.084328696 0.015169311 0.009910488 -0.10921685 0.26436973
0.055980198 -0.059011262 -0.15229984 0.2502072 0.39281175 0.19923635 -0.13990061 -0.10553987
0.09815467 0.20177014 0.012405458 -0.05115558 0.06232524 -0.16741627 -0.2162328 -0.1189345
0.034635764
00000000: 8433 89bc bb26 3abb 74ef a4be 86b4 acbd
00000010: b488 783c 995f 223c 15ad dfbd 785b 873e
00000020: 7e4b 653d cbb5 71bd 7df4 1bbe 281b 803e
00000030: 9f1e c93e 9d04 4c3e 1b42 0fbe 4a25 d8bd
00000040: 5105 c93d d59c 4e3e 4340 4b3c 8388 51bd
00000050: c048 7f3d 2c6f 2bbe 226c 5dbe ee93 f3bd
00000060: 3bde 0d3d

filter.0.conv4.convI.weight f4 [1, 1, 5, 5, 1]
0.043058705 -0.09358425 0.021810425 0.039287373 -0.006004108 -0.033166718 0.08974766 -0.019839264
-0.008776851 -0.036608484 0.011327487 0.008500769 -0.06636088 -0.023689477 0.0713 -0.08242754
0.051715646 0.09435745 -0.042949907 -0.031888064 0.07848088 -0.07618556 -0.030897753 0.041950505
-7.143927e-05
00000000: 535e 303d 19a9 bfbd c7ab b23c cceb 203d
00000010: 1cbe c4bb d3d9 07bd 9fcd b73d f485 a2bc
00000020: c8cc 0fbc c7f2 15bd ed96 393c cf46 0b3c
00000030: 37e8 87bd 6f10 c2bc bc05 923d c5cf a8bd
00000040: c9d3 533d 7b3e c13d 3eec 2fbd 0f9d 02bd
00000050: 95ba a03d 2d07 9cbd 491d fdbc 4bd4 2b3d
00000060: abd1 95b8

filter.0.conv5.convR.weight f4 [1, 1, 5, 5, 1]
-0.029186055 0.1284147 -0.055811837 -0.019358546 0.08223753 -0.12588747 0.05355172 -0.044223145
0.095934704 -0.10849287 0.0073916614 0.019565865 -0.16091931 -0.14542845 0.07670267 -0.058211297
0.11877932 -0.19757251 -0.098865725 -0.16473238 0.07989429 -0.0057982653 -0.037304282 -0.033274263
-0.15632978
00000000: 9817 efbc 257f 033e f49a 64bd d095 9ebc
00000010: 266c a83d a5e8 00be 0c59 5b3d 5423 35bd
00000020: 6a79 c43d 8331 debd c035 f23b 9848 a03c
00000030: 08c8 24be 32eb 14be 4a16 9d3d f86e 6ebd
00000040: 9242 f33d 7350 4abe 1d7a cabd 9baf 28be
00000050: 9e9f a33d 60ff bdbb 60cc 18bd 984a 08bd
00000060: ea14 20be

filter.0.conv5.convI.weight f4 [1, 1, 5, 5, 1]
0.0049851686 -0.13802259 0.075257555 -0.0040198117 -0.19342951 0.107584044 0.10697742 -0.037682027
-0.13808763 0.008030012 0.15091597 0.18306796 -0.1509602 -0.0903338 0.1557249 0.097755656
0.12380259 -0.099546865 0.17230691 -0.16441318 -0.0096337795 0.004152581 0.033593565 -0.15091679
0.18349327
00000000: a05a a33b cb55 0dbe a220 9a3d a0b8 83bb
00000010: 6312 46be 0655 dc3d fa16 db3d 7858 1abd
00000020: d866 0dbe 5090 033c b789 1a3e 2b76 3b3e
00000030: 5095 1abe ed00 b9bd 5976 1f3e 1e34 c83d
00000040: 368c fd3d 3adf cbbd 3971 303e ee5b 28be
00000050: 00d7 1dbc 6012 883b 6899 093d ee89 1abe
00000060: a9e5 3b3e

filter.0.conv6.convR.weight f4 [1, 1, 5, 5, 1]
-0.13812149 0.0073881596 -0.10653243 0.19177692 0.11153315 0.117780134 0.06452091 -0.019911364
0.1126125 0.0034056455 -0.07294305 0.103261635 0.06276126 -0.05182293 -0.05481121 -0.17686792
-0.05482368 -0.081022836 -0.109009765 -0.18064368 0.1566552 -0.17873831 0.19854291 -0.104904555
-0.015373424
00000000: b86f 0dbe 6018 f23b ad2d dabd 2b61 443e
00000010: 7e6b e43d b636 f13d 8a23 843d 281d a3bc
00000020: 62a1 e63d 4031 5f3b 2a63 95bd d67a d33d
00000030: fa88 803d 4844 54bd b881 60bd dd1c 35be
00000040: cc8e 60bd 4def a5bd 8340 dfbd a8fa 38be
00000050: 396a 203e 2d07 37be d54e 4b3e 33d8 d6bd
00000060: d0e0 7bbc

filter.0.conv6.convI.weight f4 [1, 1, 5, 5, 1]
0.06598227 -0.057099864 -0.16101138 -0.08177107 0.16106121 -0.075521946 0.16668417 -0.034443304
-0.025506705 0.079822436 -0.029386848 -0.0016843379 0.13851862 0.06683968 -0.007960886 0.07616584
0.17418878 0.05040805 -0.05865042 0.06553425 -0.017497897 -0.1563648 -0.07722571 0.09096272
0.0065588206
00000000: b621 873d 8ce1 69bd 2be0 24be 9777 a7bd
00000010: 3bed 243e 40ab 9abd 41af 2a3e 6c14 0dbd
00000020: 70f3 d0bc f279 a33d b0bc f0bc 00c5 dcba
00000030: d3d7 0d3e 3ee3 883d 606e 02bc d6fc 9b3d
00000040: 8b5e 323e ac78 4e3d 6c3b 70bd d236 863d
00000050: c057 8fbc 181e 20be 8328 9ebd aa4a ba3d
00000060: 60eb d63b
