Unfolded/Results/Unf_9lay_sim/sim_9lay_sim_Unfolded_Model_al0.50_Tr2400_epoch50_lr2.00e-03.pkl (torch_old, 51789 bytes, 108 tensors)

filter.0.conv1.convR.weight f4 [1, 1, 5, 5, 1]
00000000: 9f22 57bd 448b 033d 8391 97bd 160d d73d
00000010: 0851 07be f069 2e3e c060 00be f3f8 0dbe
00000020: abdf cebd 852e ff3d 5823 79bd a651 a53d
00000030: 23fe 29be 08f9 e7bd 2d8f 65bd 0f60 f1bc
00000040: c965 1cbe 7165 013e 7b35 4bbd c146 8f3d
00000050: 92d0 1a3e 9766 143d 8a8b 433d 6ab5 3e3e
00000060: 805c b6bd
-0.05252325 0.032115236 -0.07400801 0.10500543 -0.13214505 0.170326 -0.12536907 -0.13864498
-0.10101255 0.12460045 -0.060824722 0.08072214 -0.16600852 -0.11326796 -0.056044746 -0.02946475
-0.15273203 0.12636353 -0.04961155 0.06995917 0.15118626 0.03623065 0.047740497 0.18623891
-0.08904362

filter.0.conv1.convI.weight f4 [1, 1, 5, 5, 1]
00000000: e9d7 0bbe 5249 df3d 5f46 fe3d ff18 5dbe
00000010: 58b8 173e 908c 623d bfa6 7e3d 6fd1 6b3d
00000020: 5a67 153e c5bf 1dbd 0440 58be c356 aebd
00000030: 9215 2dbe f80f 3cbc fc58 61bd d75d 09be
00000040: b393 11bd ead9 2d3e e6db 08bd 481b cabb
00000050: ef9b a0bd 5cd3 ecbb 7551 0c3e 8268 aa3d
00000060: 4e53 183d
-0.13656582 0.109026566 0.12415766 -0.21591567 0.14816415 0.055309832 0.06217074 0.05757278
0.14590207 -0.038512964 -0.2111817 -0.08512642 -0.1690276 -0.011478417 -0.055016503 -0.13414703
-0.035541248 0.16977659 -0.033412836 -0.006167803 -0.07842242 -0.0072273444 0.13702948 0.083207145
0.03718882

filter.0.conv2.convR.weight f4 [1, 1, 5, 5, 1]
00000000: 5829 413d fa3d 9e3d 40b8 d3bc ca57 3ebe
00000010: 304d fdbd 79d0 2e3e a0dd 433c 2ee7 25be
00000020: d835 013d 6f38 293e 3389 41be 22e1 09be
00000030: 2d21 a3bd d085 033c c00f 3fbd b00b b4bc
00000040: 52a8 47be a2ce bf3d 07c3 333e fe5c fa3d
00000050: 8806 11be 0817 25be 5e16 aa3d 402f 933b
00000060: 62e8 a73d
0.04715857 0.07726665 -0.025844693 -0.18588176 -0.12368238 0.17071714 0.011954695 -0.1620147
0.03154549 0.16525434 -0.18899994 -0.13464788 -0.07965312 0.008027509 -0.04664588 -0.02197823
-0.19497803 0.09365584 0.17554866 0.12224768 -0.14162648 -0.16122067 0.083050475 0.0044917166
0.081986204

filter.0.conv2.convI.weight f4 [1, 1, 5, 5, 1]
00000000: 605f 43bc 156f 103e a204 be3d 0052 ef3b
00000010: 0012 213d b01f 9bbc 3a36 e1bd 9dc9 9abd
00000020: 2770 f9bd d91b 2a3e be65 e13d 123f 8f3d
00000030: 280d 1dbe 3507 1e3e 566d 803d f7ad 0d3e
00000040: f021 a1bd f8aa 2d3d 8ff6 473e b7c2 093e
00000050: b93f 243e 0005 2cbd 4f08 1c3e ed67 20be
00000060: 18b4 8d3c
-0.011924595 0.14104874 0.092782274 0.0073034763 0.039323807 -0.018936008 -0.10996671 -0.07557986
-0.121795945 0.16612186 0.11005734 0.069944516 -0.1533705 0.15432437 0.06270854 0.13835894
-0.07867801 0.042399377 0.19527648 0.13453184 0.16039933 -0.041996956 0.15237544 -0.15664645
0.01729779

filter.0.conv3.convR.weight f4 [1, 1, 5, 5, 1]
00000000: c80c 3fbd 88cb 51bd d02a 753c 8965 3a3e
00000010: 52c9 ca3d 001a 5eba 5960 113e dde6 d1bd
00000020: 9e18 d33d e8ee 97bc b88c 0ebd 28d0 bf3c
00000030: 88e5 1cbe 4054 bd3c 1eb9 893d 0b17 2f3e
00000040: 600d 7fbd a277 933d 39b3 4c3e aab4 afbd
00000050: 6bae 423e f75c cbbd b28c b43d fa75 a03d
00000060: 5cd3 643d
-0.04664305 -0.051219493 0.014963821 0.18202795 0.0990168 -0.0008472502 0.1419691 -0.10249112
0.1030743 -0.018546537 -0.03480217 0.023414686 -0.15321934 0.023111463 0.067247614 0.17098634
-0.062268615 0.072005525 0.19990243 -0.08579381 0.19011848 -0.09929841 0.08815898 0.07835002
0.05586563

filter.0.conv3.convI.weight f4 [1, 1, 5, 5, 1]
00000000: b78b a5bd 244d 573d 801e 933a e209 1abe
00000010: c8e9 46bd 2ac5 08be 5a1b b53d 1849 933c
00000020: 5881 a03c 7485 78bd 001b 7c3a 78ce 7ebd
00000030: c462 6b3d 43e5 463e 582b f83c 5a6b b5bd
00000040: f731 fabd b079 7a3c 1bee 17be 1ef0 19be
00000050: b44c 05be 561e 8bbd 608a 723c 1507 0d3e
00000060: 7aa7 9e3d
-0.08083289 0.0525638 0.00112243 -0.15042832 -0.048562795 -0.13356462 0.088431075 0.01797919
0.019592926 -0.060674146 0.00096170604 -0.062208623 0.057467237 0.19423394 0.030294105 -0.08858366
-0.12216561 0.015287802 -0.14836924 -0.15033004 -0.13017541 -0.067928955 0.014803499 0.13772233
0.07746787

filter.0.conv4.convR.weight f4 [1, 1, 5, 5, 1]
00000000: 07ed f4bd 4f3d 223c ced2 49be c5db b33d
00000010: 3cdb 3d3c 361a 503e 18d9 14be dcc6 133e
00000020: a08a 143e 696a 093e 9f9c eb3c 7ab8 293e
00000030: 2117 cf3d a917 da3d 3de9 7abd e2ca 15be
00000040: f481 6cbc 25e6 d63b 9b7f 37be b0a7 24be
00000050: 111a 26be 268d 73bd 0f37 2a3e da93 603c
00000060: 1bb0 14bd
-0.11959272 0.009902312 -0.19709322 0.08782152 0.011587914 0.20322499 -0.1453594 0.14431328
0.14506006 0.13419499 0.028761206 0.16574278 0.10111833 0.10649044 -0.06125759 -0.14628175
-0.01443528 0.006558197 -0.17919771 -0.16079593 -0.16220881 -0.05946078 0.16622566 0.013707126
-0.03630076

filter.0.conv4.convI.weight f4 [1, 1, 5, 5, 1]
00000000: 843c ed3d bc49 f6bd e52f adbd ec03 03bd
00000010: 187f 99bd 742d c83d 178d 413e 8d62 11be
00000020: 2b7b 21be 2216 3abe 1c3d 663d e6e2 453e
00000030: f263 fcbd c5d0 d2bd bffc 453d cb2f 22be
00000040: 065e 473e 7f82 8c3d 69d0 9dbd 0aa0 c5bc
00000050: 842d b53d e258 793b 6c0d aabd f499 093d
00000060: 65ee bc3c
0.11583808 -0.120257825 -0.08456401 -0.031986162 -0.07494944 0.097742945 0.18901478 -0.1419775
-0.15769641 -0.18172505 0.056210622 0.19324836 -0.123237506 -0.10293726 0.04833674 -0.15838544
0.19469461 0.06860828 -0.07705767 -0.024124164 0.08846572 0.0038047363 -0.08303341 0.033594087
0.023062894

filter.0.conv5.convR.weight f4 [1, 1, 5, 5, 1]
00000000: 9817 efbc 257f 033e f49a 64bd d095 9ebc
00000010: 266c a83d a5e8 00be 0c59 5b3d 5423 35bd
00000020: 6a79 c43d 8331 debd c035 f23b 9848 a03c
00000030: 08c8 24be 32eb 14be 4a16 9d3d f86e 6ebd
00000040: 9242 f33d 7350 4abe 1d7a cabd 9baf 28be
00000050: 9e9f a33d 60ff bdbb 60cc 18bd 984a 08bd
00000060: ea14 20be
-0.029186055 0.1284147 -0.055811837 -0.019358546 0.08223753 -0.12588747 0.05355172 -0.044223145
0.095934704 -0.10849287 0.0073916614 0.019565865 -0.16091931 -0.14542845 0.07670267 -0.058211297
0.11877932 -0.19757251 -0.098865725 -0.16473238 0.07989429 -0.0057982653 -0.037304282 -0.033274263
-0.15632978

filter.0.conv5.convI.weight f4 [1, 1, 5, 5, 1]
00000000: a05a a33b cb55 0dbe a220 9a3d a0b8 83bb
00000010: 6312 46be 0655 dc3d fa16 db3d 7858 1abd
00000020: d866 0dbe 5090 033c b789 1a3e 2b76 3b3e
00000030: 5095 1abe ed00 b9bd 5976 1f3e 1e34 c83d
00000040: 368c fd3d 3adf cbbd 3971 303e ee5b 28be
00000050: 00d7 1dbc 6012 883b 6899 093d ee89 1abe
00000060: a9e5 3b3e
0.0049851686 -0.13802259 0.075257555 -0.0040198117 -0.19342951 0.107584044 0.10697742 -0.037682027
-0.13808763 0.008030012 0.15091597 0.18306796 -0.1509602 -0.0903338 0.1557249 0.097755656
0.12380259 -0.099546865 0.17230691 -0.16441318 -0.0096337795 0.004152581 0.033593565 -0.15091679
0.18349327

filter.0.conv6.convR.weight f4 [1, 1, 5, 5, 1]
00000000: b86f 0dbe 6018 f23b ad2d dabd 2b61 443e
00000010: 7e6b e43d b636 f13d 8a23 843d 281d a3bc
00000020: 62a1 e63d 4031 5f3b 2a63 95bd d67a d33d
00000030: fa88 803d 4844 54bd b881 60bd dd1c 35be
00000040: cc8e 60bd 4def a5bd 8340 dfbd a8fa 38be
00000050: 396a 203e 2d07 37be d54e 4b3e 33d8 d6bd
00000060: d0e0 7bbc
-0.13812149 0.0073881596 -0.10653243 0.19177692 0.11153315 0.117780134 0.06452091 -0.019911364
0.1126125 0.0034056455 -0.07294305 0.103261635 0.06276126 -0.05182293 -0.05481121 -0.17686792
-0.05482368 -0.081022836 -0.109009765 -0.18064368 0.1566552 -0.17873831 0.19854291 -0.104904555
-0.015373424

filter.0.conv6.convI.weight f4 [1, 1, 5, 5, 1]
00000000: b621 873d 8ce1 69bd 2be0 24be 9777 a7bd
00000010: 3bed 243e 40ab 9abd 41af 2a3e 6c14 0dbd
00000020: 70f3 d0bc f279 a33d b0bc f0bc 00c5 dcba
00000030: d3d7 0d3e 3ee3 883d 606e 02bc d6fc 9b3d
00000040: 8b5e 323e ac78 4e3d 6c3b 70bd d236 863d
00000050: c057 8fbc 181e 20be 8328 9ebd aa4a ba3d
00000060: 60eb d63b
0.06598227 -0.057099864 -0.16101138 -0.08177107 0.16106121 -0.075521946 0.16668417 -0.034443304
-0.025506705 0.079822436 -0.029386848 -0.0016843379 0.13851862 0.06683968 -0.007960886 0.07616584
0.17418878 0.05040805 -0.05865042 0.06553425 -0.017497897 -0.1563648 -0.07722571 0.09096272
0.0065588206

filter.1.conv1.convR.weight f4 [1, 1, 5, 5, 1]
00000000: 8dc3 d7bd 08f2 6c3e e939 09bd e129 0c3e
00000010: b3b1 48bd 68cd afbd 09ae fe3d 1cda 09bd
00000020: 50e0 aebd 96cb d1bd cb03 373e 6862 323e
00000030: 0818 2c3e 13cc e0bd 5a00 c63d 99db ad3d
00000040: ac2c b8bd ad7e 3b3d 65b9 d73d 7c54 a9bd
00000050: 2ad5 84bd b12f 333e dfdd a0bc cafe a33c
00000060: 5ad0 07be
-0.10535345 0.23139203 -0.033502493 0.1368785 -0.048997592 -0.085841 0.12435538 -0.03365527
-0.08538878 -0.10243909 0.1787254 0.17420352 0.16806042 -0.10976424 0.09668036 0.084891506
-0.089928955 0.045775104 0.10533408 -0.08268067 -0.0648597 0.17498662 -0.019637046 0.020018954
-0.13263074

filter.1.conv1.convI.weight f4 [1, 1, 5, 5, 1]
00000000: 275f 213e ec97 fe3c 1ca5 dbbd e82e c43d
00000010: 1269 21be 6227 31be 0bd9 5bbe 2f50 0f3d
00000020: f134 9fbd ee49 993d f5ab 473e 439f 8c3d
00000030: c0f3 153e 9762 b6bc 10ab 193e 2803 d2bd
00000040: ab00 6bbd 08a0 953d f6f3 d9bd cda9 ef3d
00000050: 2100 d33c a612 55bd a1b0 ca3d 6c56 173e
00000060: 9d47 cbbd
0.15758954 0.031078301 -0.107248515 0.09579259 -0.15762737 -0.1730018 -0.21469514 0.03498858
-0.0777377 0.07484804 0.1949919 0.06866314 0.14643764 -0.022263808 0.15006661 -0.10254508
-0.057373684 0.07305914 -0.10642235 0.11702309 0.025756897 -0.052019738 0.098969705 0.14779061
-0.099257685

filter.1.conv2.convR.weight f4 [1, 1, 5, 5, 1]
00000000: d21a 813d e41d 1f3e 7d9d 833d 8874 b83d
00000010: 8d1a bb3d 7fb1 1dbe 5dbc ea3d 03ab cdbd
00000020: a401 e53d dac6 033e f6e2 abbd b42b b8bc
00000030: 92ea 2d3c d1a2 423d b247 0fbe b5a0 043d
00000040: 6530 d53d 5bca d13d 7cd7 c93d 6a91 9f3d
00000050: 28fc 4bbe faac e03d b2db 40be a376 0dbe
00000060: 033c aa3c
0.06303944 0.15538746 0.06426523 0.090066016 0.091359235 -0.1539974 0.11461709 -0.100423835
0.111819535 0.12868825 -0.08392899 -0.022481777 0.010615008 0.047518555 -0.13992193 0.032379825
0.10409621 0.10243674 0.098555535 0.077914074 -0.19920409 0.10970493 -0.18833807 -0.13814788
0.020780569

filter.1.conv2.convI.weight f4 [1, 1, 5, 5, 1]
00000000: 5765 303e cb14 95bd dc8a 00be b4a9 d8bd
00000010: 337f 01bd f99d aebd 7ad8 80be 754c 6b3c
00000020: a023 92be c306 8fbe bddb 503e 2826 2ebe
00000030: 8f6f 5cbe f04f 373c 5512 85be b96a 863d
00000040: 63cd 573e 42a8 8cbd e6f2 bb3d 8509 e13c
00000050: e403 7f3e 011b 123e 5a69 993c bcae 043e
00000060: 7221 3abe
0.17226158 -0.072793566 -0.1255297 -0.10579243 -0.031615447 -0.08526225 -0.2516516 0.0143614905
-0.28542805 -0.27934846 0.20396324 -0.17006743 -0.21526931 0.011188492 -0.2599055 0.065633245
0.21074443 -0.0686803 0.091771886 0.02747036 0.24903828 0.14268114 0.018726993 0.12957281
-0.18176821

filter.1.conv3.convR.weight f4 [1, 1, 5, 5, 1]
00000000: 60e3 babd 6802 c63d 813c 3a3c df6d 373e
00000010: 6b4a 283e 9550 9e3c 08ee 003e 7b33 20be
00000020: 6812 2ebe 6522 29be 88d6 f93d a9a2 3f3e
00000030: 0315 98bd 5879 ef3d cdf3 12be afd5 033d
00000040: b179 9f3c a7e9 7cbd d57d a8bd 527e e13d
00000050: e83d a93d d510 f03c 60e0 343e c8a2 d9bd
00000060: 594b 303e
-0.091253996 0.09668428 0.011366964 0.17913006 0.16434638 0.019325534 0.12590802 -0.15644638
-0.16999209 -0.16517027 0.12199122 0.18714394 -0.07425883 0.11693066 -0.14350815 0.032186206
0.019467207 -0.061746266 -0.082271256 0.11010422 0.08263761 0.029304901 0.17663717 -0.10626751
0.17216243

filter.1.conv3.convI.weight f4 [1, 1, 5, 5, 1]
00000000: 9ba3 48bc 9347 a8bd 6218 d33d 1bb4 edbd
00000010: 71c2 153e b2f7 aebd 9883 98bd 9173 da3d
00000020: 96cf 28bd a583 11be 3773 c33a ce2b 873d
00000030: 895b 9f3c 33bc 7f3d 97ed 1ebe 96ed a03d
00000040: b800 10be 9d4b 413e d93f c93d ca0f 73be
00000050: 9046 4dbe ba3d 04be 83a2 403e c5a2 92bd
00000060: 94d3 813d
-0.012246038 -0.08216777 0.10307385 -0.11606618 0.14624955 -0.08543338 -0.074469745 0.10666574
-0.041213594 -0.14210375 0.0014911656 0.06600152 0.019452827 0.06243534 -0.15520321 0.07857816
-0.14062774 0.188765 0.09826631 -0.23736492 -0.20046449 -0.12914172 0.18811993 -0.07159952
0.063391834

filter.1.conv4.convR.weight f4 [1, 1, 5, 5, 1]
00000000: 3d63 dfbd 9662 243e d8b8 14be 9708 3abc
00000010: d555 1ebd 3168 06be d1d0 08be 7745 16be
00000020: e43e c0bd 99c1 55bd 899b 1cbd bba5 123e
00000030: f460 25bb 6d4d 16be 5e7a b5bd 76a4 123e
00000040: 470f 43be 8eb8 b8bd 29ba 15be b423 1f3e
00000050: 12ab 123e 5fff e83c 9f76 a9bd 6377 eaba
00000060: b7bd a43d
-0.109076 0.16053233 -0.14523637 -0.011354587 -0.038656075 -0.13125683 -0.13360907 -0.14674936
-0.093869954 -0.052186582 -0.038234267 0.14321034 -0.002523479 -0.14677973 -0.0886123 0.1432055
-0.19048797 -0.09019576 -0.14621796 0.15540963 0.1432307 0.028442083 -0.08274578 -0.0017888363
0.08043998

filter.1.conv4.convI.weight f4 [1, 1, 5, 5, 1]
00000000: c7b0 123d 3cde b8bd 8ae7 aabc a09a bf3b
00000010: e914 873b e4b3 9e3d b7f5 d7bd a8de 31bd
00000020: 9018 bfbc 0be6 743d 8725 1fbe 4a5f 4bbe
00000030: 62bf 65be cfac 673d 751a 093e 4803 3d3e
00000040: 0852 533d 4a14 a0bd 653c 163d 4e0f 40be
00000050: b76b 043c e143 b8bd 45b9 66bd 282a e33d
00000060: 9666 54bd
0.03581312 -0.09026763 -0.02086236 0.00584729 0.0041223657 0.07749155 -0.10544913 -0.043425232
-0.023327142 0.0597897 -0.1554166 -0.19860569 -0.22436288 0.056561287 0.13388999 0.18458283
0.051591903 -0.0781637 0.03667869 -0.18755838 0.008082322 -0.08997322 -0.05632903 0.11092025
-0.051855646

filter.1.conv5.convR.weight f4 [1, 1, 5, 5, 1]
00000000: b993 9eba 5774 98bd 79cb e3bd 2564 b6bd
00000010: 77a2 20be 6974 123e d650 d1bc 57b2 14be
00000020: 0b67 a13d 4682 ffbc 035f c03d 6f14 013e
00000030: 4ad4 2c3e 0e44 babd 7aea 2ebd 6c80 0fbe
00000040: 6478 1b3e d18f 023d 5d44 9abd 1d1b 63ba
00000050: fe72 163e 33e9 d13c dd5e 243d 653d eb3d
00000060: 3c62 9abd
-0.0012098468 -0.07444065 -0.11122794 -0.0890582 -0.15686975 0.1430222 -0.02555124 -0.14521156
0.07880982 -0.031190049 0.09393122 0.12605451 0.16877857 -0.09095012 -0.042704083 -0.14013833
0.15182644 0.031875435 -0.075325705 -0.0008663403 0.14692304 0.025623893 0.04012953 0.114863195
-0.07538268

filter.1.conv5.convI.weight f4 [1, 1, 5, 5, 1]
00000000: 6cd8 533d 2bc3 44be 32b3 a83d 0907 993c
00000010: 9ae1 ba3c d976 ab3c 6f18 343e 061c 953d
00000020: 7ed3 22be 1ca1 603e 7747 073e 4fd1 c43d
00000030: 56f8 bc3d 6cd7 0c3d 8ee4 a3bd f1a6 033e
00000040: 8a10 2bbe c487 01be bf90 b9ba b5d4 10be
00000050: cce0 2c3e 6577 2c3e bd07 a43d 9a51 d63d
00000060: 8ed1 48be
0.051720068 -0.19215076 0.08237304 0.018680112 0.022812653 0.020930694 0.17587446 0.07280736
-0.1590099 0.21936458 0.13210855 0.09610235 0.09227054 0.03438513 -0.08002578 0.12856652
-0.16705528 -0.12649447 -0.0014157518 -0.14143641 0.16882628 0.1684242 0.080092885 0.10464783
-0.19611189

filter.1.conv6.convR.weight f4 [1, 1, 5, 5, 1]
00000000: c0f2 3d3d 9ee1 f0bd 8bea 08be 43cc 433d
00000010: 0b6f d43d 1be3 f7bc 6890 e3bc 543c b2bc
00000020: 08fe 35be 8f4f 0d3e 51e4 5b3c d986 1dbe
00000030: 69c2 f9bd 82a2 b53d 2b3b 2fbe 25de 243e
00000040: a248 16be 6ad6 383c dcef 9b3d bc17 9ebd
00000050: b97c cbbd ae0e 943b 4526 793d ffb6 39bc
00000060: 8748 e93d
0.046374083 -0.11761783 -0.13370721 0.04780222 0.10372742 -0.03025966 -0.02777882 -0.021757282
-0.17772686 0.1379988 0.013421134 -0.15383472 -0.12195284 0.088688865 -0.17112415 0.16100366
-0.14676145 0.011281589 0.07614109 -0.07719371 -0.09935898 0.0045183515 0.060827512 -0.011335134
0.113907866

filter.1.conv6.convI.weight f4 [1, 1, 5, 5, 1]
00000000: bf66 8f3d 3e62 383e 63b8 b7bd b9cf 06be
00000010: 8fe5 8c3d abce 343d a118 523e 706a 6c3e
00000020: 4235 dd3d 3444 f83d 1b9d c53d b0e6 053c
00000030: 51ff 0ebe 7f89 55bd edd7 32be 0980 333e
00000040: d0df 2fbd fe09 7abd e586 583d 9d09 3b3e
00000050: aadd cd3d 9a1d 043e 3946 a73d 2002 c4bd
00000060: 3bc9 6bbd
0.07002019 0.18006226 -0.08970716 -0.13165177 0.06879722 0.044142406 0.20517208 0.23087478
0.10801174 0.12122384 0.09649106 0.008172676 -0.13964583 -0.05213308 -0.17465182 0.1752931
-0.042938054 -0.061044686 0.05286302 0.18265386 0.10052045 0.12901917 0.08167691 -0.09570718
-0.057564955

filter.2.conv1.convR.weight f4 [1, 1, 5, 5, 1]
00000000: 44fc b0bd 615f fe3d 3d6c 11be b9cf 8fbd
00000010: 0fd4 323e fffb d63d 4999 473d 984c d93d
00000020: 7c47 90bd 1fc2 0abe a622 8d3d 0ade e73c
00000030: 303b abbd 8b16 013e df0c 29be f840 58bd
00000040: d5ac f53d 7a3c ef3c 667e 49be 1c7c 5aba
00000050: 1f7c 99bd 7114 403d d553 b13d 3df7 2dbe
00000060: 3f95 b7bd
-0.08641866 0.12420536 -0.14201446 -0.07022042 0.17463706 0.10497283 0.04873017 0.10610312
-0.070448846 -0.13550614 0.06891374 0.028304119 -0.083608985 0.12606256 -0.16508816 -0.052796334
0.11995856 0.029203642 -0.19677123 -0.0008334534 -0.07494377 0.046894494 0.08658568 -0.16988845
-0.08964013

filter.2.conv1.convI.weight f4 [1, 1, 5, 5, 1]
00000000: 7c2c 52be 4d21 a1bd 45c3 02be 39e1 0cbd
00000010: 7ea1 d4bc 651e 0e3e 9288 283e 7908 a0bd
00000020: 1f70 803d a715 44be 48c7 87bc 01ae 2f3d
00000030: 66cf f8bb 7d97 7c3d 23ef b4bc 477a dabb
00000040: f798 453e a4e7 a5bd 500e 283e 709c 923d
00000050: d6d9 003c 21e9 73bd 3d22 b63d cb62 d439
00000060: 2894 0cbe
-0.20524782 -0.0786768 -0.12769802 -0.034394477 -0.025955912 0.13878782 0.16458347 -0.07814116
0.062713854 -0.19148885 -0.016574517 0.042890552 -0.007593083 0.061667908 -0.022086686 -0.0066674086
0.19296633 -0.081008226 0.1641171 0.07158744 0.007864436 -0.0595485 0.08893249 0.00040509398
-0.13728392

filter.2.conv2.convR.weight f4 [1, 1, 5, 5, 1]
00000000: 7e16 42bd c6d2 2c3e 1781 49be 0b69 333d
00000010: 74bf 58be 0413 07be 08b2 b2bc badb 373e
00000020: 7e06 9bbd 7bb9 0bbe 695c d4bc 6051 073c
00000030: df1e d2bd 8325 633d 8e35 053e fc6e 01be
00000040: 5d78 26be 8a56 07be 46a3 c33d 0789 10bd
00000050: 872f ca3d 8f8c 07bd eb88 15bb 93c3 1d3e
00000060: 2c01 173d
-0.04738473 0.16877279 -0.1967815 0.04380135 -0.21166784 -0.13190848 -0.021813408 0.17954913
-0.07569598 -0.13644974 -0.02592297 0.008259147 -0.102597944 0.055455696 0.1300871 -0.12639993
-0.16256852 -0.13216606 0.09552626 -0.03528693 0.09872346 -0.03309303 -0.0022817205 0.15406637
0.036866352

filter.2.conv2.convI.weight f4 [1, 1, 5, 5, 1]
00000000: de43 373d d013 80bb e5f3 03be 1243 3b3e
00000010: e95e 9e3d 7251 93bd bcdf 30be 0ec6 ae3d
00000020: 4930 2abe fffa 8f3c 26ab d2bd 2d92 4b3d
00000030: 3d97 4d3d e069 ea3d 56a6 8ebd cdf4 4e3d
00000040: 2841 5bbd 04a5 8f3d 96c0 9e3d 6da2 5d3e
00000050: 2b37 713e dfa0 073c 8b66 17bd 8415 263d
00000060: 0341 a8bd
0.044742458 -0.003908612 -0.12886007 0.18287304 0.077329464 -0.07193269 -0.17272848 0.0853387
-0.16619982 0.017575739 -0.1028655 0.04969995 0.05019306 0.11445975 -0.0696532 0.05052643
-0.053528935 0.07013896 0.077515766 0.21643992 0.23556201 0.008278101 -0.036963027 0.040547863
-0.08215525

filter.2.conv3.convR.weight f4 [1, 1, 5, 5, 1]
00000000: 6749 a9bd 0bb8 bbbd 6bd3 463e 14b2 b63d
00000010: b8d0 42bd daa9 1dbe b155 f33d 92bc bfbd
00000020: 01bd 30be bfb8 30be 3f5b c93d e27d 7f3d
00000030: ffe0 a73c 30a9 39be 8a86 8f3d ed23 0ebe
00000040: ef63 373d e181 163d b595 07be c715 c8bb
00000050: 47c0 fcbd 1331 3e3e 9665 82bd 143a c23d
00000060: 0aff 2fbe
-0.082659535 -0.09165963 0.19416587 0.089206845 -0.04756233 -0.15396824 0.11881579 -0.09362139
-0.172596 -0.17257975 0.09831857 0.06237591 0.020493029 -0.18130946 0.07008083 -0.13880892
0.04477304 0.036744956 -0.13240702 -0.0061061117 -0.123413615 0.18573408 -0.06367032 0.09483734
-0.17187133

filter.2.conv3.convI.weight f4 [1, 1, 5, 5, 1]
00000000: 763b 34be 84c1 21bd 379c 713c 3d91 1cbd
00000010: f899 db3d e877 303e c1b7 2abe f5f7 e33d
00000020: 0a6d 0abe 1863 a6bd 6778 643b 2244 333e
00000030: 63a0 093e 3503 073d 0ddf 8abb 6c96 123b
00000040: 37cd 64bd c7e9 023e 9c0e 633d 9e63 673d
00000050: 0ab9 88bd 5e28 413d 0013 093e fd33 183e
00000060: 9951 7a3d
-0.17600808 -0.03949119 0.014746717 -0.038224448 0.107227266 0.1723324 -0.16671659 0.111312784
-0.13518158 -0.081243694 0.0034861804 0.1750646 0.13440089 0.032962043 -0.0042380155 0.002236749
-0.05585977 0.12784491 0.055433854 0.056491487 -0.066759184 0.047157638 0.13386154 0.14863582
0.061112974

filter.2.conv4.convR.weight f4 [1, 1, 5, 5, 1]
00000000: 6975 093d 31fc 693e 1888 713e 19ff 543e
00000010: c565 473d b383 2dbe ed66 9f3d 36ba aebd
00000020: 8d25 d2bd de8e 03be 71a9 18be a8d5 96be
00000030: 136f 0b3e 7b4a dbbd d5bb 133e b943 213e
00000040: a291 763d b905 233e 563e df3c 21d9 06be
00000050: a9f6 d93d a1b3 59be f2a3 713d 0182 c1bd
00000060: 7187 033e
0.033559237 0.2285011 0.23587072 0.20800437 0.04868104 -0.1694477 0.077833034 -0.08531611
-0.102610685 -0.12847468 -0.14908387 -0.29459882 0.1361659 -0.107075654 0.14427121 0.1574849
0.06019748 0.15920152 0.027251404 -0.13168766 0.1064275 -0.21259929 0.05899424 -0.094486244
0.12844636

filter.2.conv4.convI.weight f4 [1, 1, 5, 5, 1]
00000000: 6e91 3cbd d322 85bd 70fc 543e 18e7 8dbc
00000010: 7995 1dbd 0a19 48be fadb 4abe 1ada 433e
00000020: af8d 3d3e 9290 793d bfb9 bb3d ebdb 153e
00000030: ba21 f8bc ba18 433d a1ec 303d 3a4e 68bd
00000040: ce23 c4bd 2054 b4bd 2926 93bd 916d f9bc
00000050: 68a8 ecbd b15c 2bbe 835d 44bd 7a84 9abc
00000060: 99ef 7b3c
-0.04603713 -0.06500783 0.20799422 -0.017322108 -0.038472626 -0.19540802 -0.19810477 0.19126168
0.18511079 0.06092889 0.09166288 0.14634673 -0.03028952 0.047631003 0.043194417 -0.056715228
-0.09577142 -0.08805108 -0.07185013 -0.030447753 -0.115555584 -0.16734578 -0.047940742 -0.018861998
0.015376949

filter.2.conv5.convR.weight f4 [1, 1, 5, 5, 1]
00000000: c362 d13c 7957 63be f309 9abd 07c1 093e
00000010: 6ba4 07be 54cb 283e 3c8f 3ebe b183 94bd
00000020: 72ba 5d3d 4661 2a3e ee9c eabd 88fd 60bc
00000030: 2be9 5dbe fa35 3dbe 37a0 883d 7417 23be
00000040: 9696 2cbe 1a8c bbbe 7a66 b73a 8bdc a1be
00000050: 15d3 d23d 06f9 98bd 21e0 3cbe cccf ef3d
00000060: 28e6 ec3d
0.025559789 -0.22201337 -0.07521429 0.1345254 -0.13246314 0.16483814 -0.18609327 -0.07251681
0.054132886 0.1663867 -0.11455713 -0.013732322 -0.21670978 -0.18477622 0.066711836 -0.15926915
-0.16854319 -0.36630327 0.0013992332 -0.31613573 0.10294167 -0.074693725 -0.18444873 0.11709556
0.11567336

filter.2.conv5.convI.weight f4 [1, 1, 5, 5, 1]
00000000: c37a a53d d865 023e bd5a c73d 406b b63d
00000010: 05c2 febd 4536 3d3e 2268 543d 5292 143e
00000020: 05d9 093e 6731 963e e3dd 3cbd acf5 7ebd
00000030: 5865 9bbb 5a41 a33e 61a4 933d ab38 743d
00000040: 126e 72bd 34ba 54be 2703 debd dfe6 edbc
00000050: e24f b9bd bc0c 19be 283a 2bbd 4714 883e
00000060: 5b5e eb3c
0.080800556 0.12734163 0.09734104 0.08907175 -0.1243935 0.18477733 0.05185712 0.14508942
0.13461693 0.29334566 -0.046110045 -0.06224601 -0.0047423057 0.31885797 0.07209087 0.059624355
-0.059187002 -0.20774156 -0.10840445 -0.029040752 -0.090484396 -0.14946264 -0.04180351 0.2657797
0.028731516

filter.2.conv6.convR.weight f4 [1, 1, 5, 5, 1]
00000000: dc44 52bd 096e 843d b841 863d df16 c13c
00000010: c522 ed3d c72a 9b3d a43f 44be 0d49 e33c
00000020: be32 cbbd 0ed4 32bc 8944 403e b72a 873d
00000030: 481d 6dbe 46fa 81bd 3ae7 603d 4128 23be
00000040: 4fd5 323e 9569 46be be21 83bd a58f e33c
00000050: 771f efbd d211 07be bc7e f8bc c171 d8bd
00000060: cbde 1dbc
-0.0513352 0.064663 0.065555036 0.023570476 0.115788974 0.075765185 -0.19164902 0.027744794
-0.09921788 -0.010914816 0.18776144 0.06599944 -0.23155701 -0.06346564 0.054908015 -0.15933324
0.17464183 -0.19376214 -0.0640292 0.027778456 -0.11675923 -0.13190392 -0.03033387 -0.10568572
-0.0096356375

filter.2.conv6.convI.weight f4 [1, 1, 5, 5, 1]
00000000: 77a3 3e3d c6c6 4dbe 9d12 4dbd dc5c 1dbe
00000010: 8e1e fabd af0d 8b3d 0778 333d 1f0b 5a3e
00000020: 74e2 b93d 6746 efbd 1e2e 553d 78db e0bd
00000030: dedf 15be d5ca 0fbe 88ca 593e 2e5b f3bd
00000040: f4cf 253e db3f d4bd 9f09 443e e59c fdbd
00000050: 06e7 1c3d 56b4 39be 6c67 32bd 6df4 24bd
00000060: 6f20 88bc
0.04654261 -0.20095357 -0.05006658 -0.15367454 -0.12212859 0.06789719 0.04381564 0.21293305
0.09076396 -0.1168335 0.052045934 -0.1097936 -0.1463618 -0.14042218 0.21268666 -0.118826255
0.16192609 -0.10363742 0.19144295 -0.12383441 0.03830626 -0.18135199 -0.043555662 -0.040272165
-0.016617028

filter.3.conv1.convR.weight f4 [1, 1, 3, 3, 1]
00000000: b858 df3c 3ff8 073d 3474 4b3e de3e 5bbe
00000010: 25f8 34be 605b d93d d71a 803c 8717 bfbc
00000020: 0579 a9bc
0.027263984 0.03319573 0.19868547 -0.214107 -0.17672785 0.106131315 0.015637798 -0.023326648
-0.02068759

filter.3.conv1.convI.weight f4 [1, 1, 3, 3, 1]
00000000: 3d49 99be 8617 2a3e f252 b73d 61b7 6bbe
00000010: 8c58 44be e913 52be 7b55 f2bd ff0f 98be
00000020: 940e 493e
-0.2993869 0.16610536 0.089513674 -0.23019172 -0.19174403 -0.20515408 -0.1183271 -0.29699704
0.19634467

filter.3.conv2.convR.weight f4 [1, 1, 3, 3, 1]
00000000: e6cc 8cbc cec2 143e 537a 2f3e bfae 983d
00000010: 727d a03e eec3 7e3d 1637 00bf 2af8 803e
00000020: eb15 e0bd
-0.017187547 0.14527437 0.17136507 0.07455205 0.31345707 0.06219857 -0.50084054 0.25189334
-0.109416805

filter.3.conv2.convI.weight f4 [1, 1, 3, 3, 1]
00000000: 28bd 113e 5b56 2ebe b2e3 85bd 6fa2 bf3d
00000010: b694 e4bd 5ba2 6abe 4c5b 4f3d 2ba4 a33e
00000020: bad9 ac3c
0.14232314 -0.1702513 -0.0653757 0.093571536 -0.11161177 -0.22913496 0.050624177 0.31961188
0.021099914

filter.3.conv3.convR.weight f4 [1, 1, 3, 3, 1]
00000000: 6b8a 03bd 15b3 d3be 1857 82be f065 78be
00000010: 5697 06bd cad9 cc3d 55ac 113f 19f1 ab3d
00000020: d5cc 32be
-0.032114428 -0.41347566 -0.25457072 -0.24257636 -0.03285917 0.100024775 0.5690358 0.08395595
-0.1746095

filter.3.conv3.convI.weight f4 [1, 1, 3, 3, 1]
00000000: 6230 3d3e 4e63 1c3d 2a7b acbe 9e67 933e
00000010: 7d38 97be 31b1 bb3d e3ff 913e 9d95 23be
00000020: 3820 6abd
0.18475488 0.03818064 -0.33687717 0.2878999 -0.29535285 0.09164656 0.2851554 -0.15975042
-0.057159632

filter.3.conv4.convR.weight f4 [1, 1, 3, 3, 1]
00000000: 5235 88bd c2b7 123e ac4b 993c 5bf1 243c
00000010: 105f 00bd 8199 3fbe ac04 92bc 95f5 71be
00000020: f5cb 9c3e
-0.06650795 0.1432791 0.018712841 0.010067309 -0.03134066 -0.18710901 -0.017824493 -0.23628838
0.30624357

filter.3.conv4.convI.weight f4 [1, 1, 3, 3, 1]
00000000: 82bd 7c3e e854 483e f8c5 7b3e 9ae5 b6bc
00000010: 4e12 8cbe 15b3 babd 8984 4cbe 5286 bebd
00000020: e8d7 37be
0.24681666 0.19563639 0.24587238 -0.02232628 -0.27357715 -0.091161884 -0.19972433 -0.09302963
-0.17953455

filter.3.conv5.convR.weight f4 [1, 1, 3, 3, 1]
00000000: 08e4 df3d bb63 9a3e 0ec2 83bc ce79 713e
00000010: 6a15 4c3e 43d7 823e 7d8f 213c fef6 473e
00000020: 66e4 86be
0.109321654 0.30154213 -0.016083743 0.23581621 0.19930044 0.25554857 0.00986087 0.19527814
-0.2634613

filter.3.conv5.convI.weight f4 [1, 1, 3, 3, 1]
00000000: c6ab b13d 1e27 21be d9e9 a23e 981c c33c
00000010: 24c1 e7bd 1edf 8f3e 8d64 9b3e f145 7f3e
00000020: ee3b 553e
0.08675341 -0.15737578 0.31819037 0.023817345 -0.113161355 0.28099912 0.30350152 0.24929024
0.20823643

filter.3.conv6.convR.weight f4 [1, 1, 3, 3, 1]
00000000: e10e 033e 10e5 773d e3f6 debd b2f3 65be
00000010: 1211 923e 18b7 bdbe af3a 0b3e 89f7 10be
00000020: 701c 94be
0.12798645 0.060521185 -0.10886934 -0.22456244 0.2852865 -0.37053752 0.13596605 -0.14156927
-0.28927946

filter.3.conv6.convI.weight f4 [1, 1, 3, 3, 1]
00000000: 6472 44be b4db e43d b3aa f2bd 288a 8d3e
00000010: 9244 933d 8a37 593c ef59 ed3d 9313 b8bd
00000020: 4a6b 1b3e
-0.19184262 0.111747175 -0.118489645 0.27644467 0.07190813 0.01325787 0.11589419 -0.089881085
0.15177646

filter.4.conv1.convR.weight f4 [1, 1, 3, 3, 1]
00000000: 3a56 203c 3bd7 a3be 9e46 0e3e 8971 b1be
00000010: dfa0 a0bd 68e9 0bbf b215 9cbd 8448 3fbe
00000020: a456 64bd
0.009786183 -0.32000145 0.13894126 -0.34656933 -0.07843184 -0.54653025 -0.076213256 -0.18680006
-0.05574669

filter.4.conv1.convI.weight f4 [1, 1, 3, 3, 1]
00000000: 5bc9 48be 8007 55bd e034 cebd eb27 9abe
00000010: c0f1 523e 8d1f 9dba 5f45 643e 7dcb 3e3e
00000020: cacf ddbd
-0.19608061 -0.052009106 -0.10068679 -0.3010858 0.20600033 -0.0011987552 0.22292088 0.18632312
-0.10830648

filter.4.conv2.convR.weight f4 [1, 1, 3, 3, 1]
00000000: 00f6 67be fa08 8c3e 69ae 4a3e 994a f1bc
00000010: 2fa3 8dbd 55ff 953e d42c 4fbd 7864 bfbd
00000020: 4c1c f33d
-0.22652435 0.273506 0.19793095 -0.029454516 -0.069158904 0.29296365 -0.05057986 -0.09345335
0.118706316

filter.4.conv2.convI.weight f4 [1, 1, 3, 3, 1]
00000000: de5e 9c3b 1f10 9e3e c2cc 84be d3cb 263e
00000010: 62b7 2cbe bd9e fcbd cd2f c43d b9c8 533d
00000020: cb80 ff3d
0.0047720512 0.30871674 -0.25937468 0.1628869 -0.1686683 -0.123349644 0.0957943 0.051705096
0.12475737

filter.4.conv3.convR.weight f4 [1, 1, 3, 3, 1]
00000000: 331c 663e 8b9a 8dbe 090f 753d 86b0 4ebe
00000010: 1f03 36be c0f7 373e fae0 c5be 0d14 be3d
00000020: 5699 bf3c
0.22471695 -0.2765697 0.05982879 -0.20184526 -0.17774628 0.17965603 -0.38648206 0.09281168
0.023388546

filter.4.conv3.convI.weight f4 [1, 1, 3, 3, 1]
00000000: d8d2 373e d511 873e 2f7e 46be 1d3b 4e3e
00000010: cd11 61be c414 22be 9369 653e 34e6 3b3e
00000020: 6a24 103e
0.17951524 0.26380792 -0.19384073 0.20139737 -0.21979447 -0.15828234 0.22403555 0.18349534
0.14076391

filter.4.conv4.convR.weight f4 [1, 1, 3, 3, 1]
00000000: 8ce5 443e a2b5 143e 12b4 663e a393 5a3e
00000010: cec5 4d3e 77a4 db3e af44 41be b477 a0be
00000020: 7ed5 d4bd
0.1922819 0.14522412 0.22529629 0.21345381 0.20094988 0.42898914 -0.18873857 -0.31341326
-0.10392283

filter.4.conv4.convI.weight f4 [1, 1, 3, 3, 1]
00000000: aeed 0d3e 9b0e 44bd 823e f0bd a509 fdbd
00000010: 3cff 11be 7e9f 8a3e 039d 4e3e b5cc 9ebe
00000020: 4e13 1a3e
0.13860199 -0.04786549 -0.117306724 -0.12355355 -0.1425752 0.27074808 0.20177083 -0.31015554
0.15046427

filter.4.conv5.convR.weight f4 [1, 1, 3, 3, 1]
00000000: 6d89 1a3e 7375 88be 8b88 883e 6f4f 6dbe
00000010: c8bf 62be d612 4a3e a877 ea3c bab6 83bd
00000020: dd2b 4a3e
0.15091486 -0.26652107 0.26666674 -0.23174833 -0.22143471 0.19733748 0.02862151 -0.06431337
0.19743295

filter.4.conv5.convI.weight f4 [1, 1, 3, 3, 1]
00000000: c609 47be 6b2a 52be 0103 863d f9ab 9ebe
00000010: c69a 6dbe b32f 9cbe 0fbc 853e b67c a3be
00000020: 3347 923d
-0.19437322 -0.20523994 0.06543542 -0.3099058 -0.23203573 -0.30505142 0.2612004 -0.31931084
0.071424864

filter.4.conv6.convR.weight f4 [1, 1, 3, 3, 1]
00000000: 05e1 d7bd b3b4 b4bd 2fd4 3c3e 80ed 9dbe
00000010: c2c7 903d f31b 5f3e 95e8 2fbe cf7c 04bc
00000020: 6746 683d
-0.10540966 -0.08823528 0.18440317 -0.3084526 0.07069351 0.21788006 -0.17178567 -0.008086397
0.056707766

filter.4.conv6.convI.weight f4 [1, 1, 3, 3, 1]
00000000: 4996 b63e 5c70 293c f176 553e 9b77 173e
00000010: d79f 31be b931 8dbd cac5 b0bd a921 5c3e
00000020: c3e3 9abe
0.35661533 0.01034173 0.20846154 0.1479172 -0.1734613 -0.068942495 -0.08631475 0.21497215
-0.30251893

filter.5.conv1.convR.weight f4 [1, 1, 3, 3, 1]
00000000: 4dbd ad3e d766 983d 0886 21be 39b3 083e
00000010: 6c94 cebe e312 923c a75d 63bd 175e a1bd
00000020: 92ac 80be
0.33933488 0.0744149 -0.15773785 0.13349618 -0.40347612 0.017831272 -0.055509236 -0.07879274
-0.2513166

filter.5.conv1.convI.weight f4 [1, 1, 3, 3, 1]
00000000: 37d2 94be de7a a33e ddc5 983d 8f80 98be
00000010: b782 07be 3629 803e d372 0b3e 97a9 51be
00000020: e0ff 34bc
-0.2906663 0.31929678 0.074596144 -0.29785582 -0.13233458 0.2503144 0.1361802 -0.2047485
-0.0110473335

filter.5.conv2.convR.weight f4 [1, 1, 3, 3, 1]
00000000: 7dc7 8cbe c579 263e 21f3 5bbe 3388 c0bd
00000010: cc14 c93b adc2 383e 297e 71be 4b4e 593e
00000020: a148 1c3e
-0.27495947 0.16257389 -0.21479465 -0.09400978 0.0061365124 0.18043013 -0.23583283 0.21221273
0.1526208

filter.5.conv2.convI.weight f4 [1, 1, 3, 3, 1]
00000000: 8447 a1bc 8dc8 2bbd a4ba 453e 76e1 90be
00000010: 2f4b 48be 2209 00be d259 86be ac70 11be
00000020: b01c 87be
-0.019687422 -0.041939307 0.19309479 -0.28297013 -0.1955993 -0.12503484 -0.26240402 -0.14203137
-0.26389074

filter.5.conv3.convR.weight f4 [1, 1, 3, 3, 1]
00000000: dc71 20bd 053c 3e3e 89e2 933d d154 11be
00000010: 2f71 4e3d 3921 983e cc93 0a3d 64e4 653e
00000020: 4ec0 953e
-0.039171085 0.18577583 0.072209425 -0.14192511 0.05040091 0.29712847 0.033832356 0.22450405
0.2924828

filter.5.conv3.convI.weight f4 [1, 1, 3, 3, 1]
00000000: ec97 063e c78e a7bd 6bd2 88bd d0b6 18bc
00000010: 8961 123e 9cd2 1a3e 6b3b 583d 5f37 66be
00000020: 6a13 c2bd
0.13143891 -0.081815295 -0.06680759 -0.00932093 0.14295019 0.15119404 0.05279104 -0.2248206
-0.09476359

filter.5.conv4.convR.weight f4 [1, 1, 3, 3, 1]
00000000: d79d 3f3e 2e7e 8f3e 03cb 683d bfe0 433e
00000010: b333 71be 8822 a7be 6907 f2bd ae16 833e
00000020: 622a 27be
0.18712555 0.28025955 0.056834232 0.19128703 -0.23554878 -0.32643533 -0.118178196 0.2560324
-0.16324762

filter.5.conv4.convI.weight f4 [1, 1, 3, 3, 1]
00000000: 2da3 dcbd 9f25 71be 4c30 38bd 0b15 8bbe
00000010: cab9 80be 3093 ae3e a86f 83be 479a 7f3d
00000020: 8844 8a3e
-0.10773311 -0.23549508 -0.044967934 -0.27164492 -0.25141746 0.3409667 -0.25671124 0.06240299
0.2700541

filter.5.conv5.convR.weight f4 [1, 1, 3, 3, 1]
00000000: 1e4f 13bd 2a56 b8bd bf58 b9bb 4030 593e
00000010: 1496 6c3d 5854 a5be 94d3 00be 30d6 5e3e
00000020: b7a8 0c3e
-0.035964124 -0.090008095 -0.0056563313 0.21209812 0.057760313 -0.32290912 -0.1258071 0.21761394
0.13736235

filter.5.conv5.convI.weight f4 [1, 1, 3, 3, 1]
00000000: ad61 9bbd ca62 453e 7fc6 84be 7e22 6cbe
00000010: cc2b e4bd acab 1abe 8a0c 71be 4e08 033e
00000020: ab81 923e
-0.075869896 0.19275966 -0.2593269 -0.23060033 -0.11141166 -0.1510455 -0.2353994 0.12796137
0.28614554

filter.5.conv6.convR.weight f4 [1, 1, 3, 3, 1]
00000000: 60e8 c33b 6f0e ac3e f131 20bd fbb9 e53c
00000010: 88e7 0bbe 89c0 1f3e f076 80bc 8c54 263e
00000020: 465f b03e
0.005978629 0.33604762 -0.039110128 0.028042784 -0.13662541 0.1560079 -0.015681714 0.1624319
0.34447688

filter.5.conv6.convI.weight f4 [1, 1, 3, 3, 1]
00000000: 6646 5abe 1e7a 19be 6120 d3bd 32a0 b3be
00000010: 7d2d e8bb a361 a5bd 1898 82be 7634 21bd
00000020: 7e92 bfbe
-0.21315917 -0.1498799 -0.1030891 -0.35083157 -0.0070855008 -0.08075263 -0.25506663 -0.03935667
-0.37416452

filter.6.conv1.convR.weight f4 [1, 1, 3, 3, 1]
00000000: 383f 9ebe d112 0b3e c05a 913c b79e febe
00000010: a485 f4be 4f20 ddbc 4991 633e a899 bc3d
00000020: 907e 163e
-0.30907607 0.13581397 0.017743468 -0.49730465 -0.4775821 -0.026992945 0.2222339 0.09208995
0.14696717

filter.6.conv1.convI.weight f4 [1, 1, 3, 3, 1]
00000000: 7326 603e 08f6 bb3e 6c6b 3fbe 7e26 82bd
00000010: e10f 63be 0220 c7bd 1ba9 bfbe 8633 9bbe
00000020: e5c9 463e
0.21889667 0.36711144 -0.18693322 -0.06354998 -0.22174026 -0.09722902 -0.37433705 -0.30312747
0.19412954

filter.6.conv2.convR.weight f4 [1, 1, 3, 3, 1]
00000000: d125 153e 8f46 91be 2e67 a5bd 4f7e 5e3e
00000010: 32af 563e 2950 893e 387d 993e ef06 8dbe
00000020: 6f3f 01be
0.14565207 -0.28374144 -0.080763206 0.2172787 0.20965269 0.2681897 0.29978347 -0.27544352
-0.12621854

filter.6.conv2.convI.weight f4 [1, 1, 3, 3, 1]
00000000: 5761 6b3e 8ab8 96bd d3ba f8bd c8b9 c43d
00000010: 7b16 9e3d c046 273e 9a82 d2bd c49e 54be
00000020: 5ebd 9e3d
0.22986351 -0.07359417 -0.12145009 0.096057475 0.077191316 0.16335583 -0.102788165 -0.2076369
0.07750963

filter.6.conv3.convR.weight f4 [1, 1, 3, 3, 1]
00000000: 76f3 6f3e 91a2 3abd e147 173e 70eb 89bd
00000010: c59c 76bd 37f9 b43c ba19 d23d deba ac3b
00000020: cf6c a73e
0.23432717 -0.04556519 0.14773513 -0.06734359 -0.0602081 0.022091491 0.10258813 0.0052712997
0.32700202

filter.6.conv3.convI.weight f4 [1, 1, 3, 3, 1]
00000000: 3aaf 133e 6cf6 563e d6b2 89be f781 623e
00000010: 3411 31be 26a4 a73e 62c0 8e3e 8076 2f3e
00000020: 2e63 993e
0.14422312 0.2099244 -0.26894253 0.2211989 -0.17291719 0.32742423 0.2788115 0.17135048
0.2995848

filter.6.conv4.convR.weight f4 [1, 1, 3, 3, 1]
00000000: 41f8 4ebe 1429 4cbe 08e9 513d b44c 823e
00000010: 6d05 afbe dc3a 923d f8a0 7a3d e151 babd
00000020: 5209 733d
-0.20211889 -0.19937545 0.051247627 0.25449145 -0.34183827 0.07140133 0.061188668 -0.090976484
0.05933506

filter.6.conv4.convI.weight f4 [1, 1, 3, 3, 1]
00000000: 6a84 9ebd 8701 a3be 2b33 333e 7614 2fbd
00000010: fd47 d43c 05a0 bd3d 22d7 103d 11f7 d53b
00000020: 73db 993d
-0.077401 -0.31837103 0.17499988 -0.042744122 0.025913233 0.09259037 0.035361417 0.0065296968
0.0751256

filter.6.conv5.convR.weight f4 [1, 1, 3, 3, 1]
00000000: b5de 693e 47bf 19be 027f 123e 32bf babe
00000010: 1abe 32bd c23e ee3d aedc 0b3e 92ed 993d
00000020: 7e56 1cbe
0.22838862 -0.15014373 0.14306262 -0.36473995 -0.043638326 0.11633064 0.13658401 0.07516016
-0.15267369

filter.6.conv5.convI.weight f4 [1, 1, 3, 3, 1]
00000000: dc09 88be 8b94 2a3d ca8e fa3d 48e1 ebbd
00000010: 9d01 113e d3d6 d83d 1bb2 223e 8b82 0bbe
00000020: add0 4dbe
-0.26570022 0.041645568 0.12234266 -0.11517578 0.14160772 0.105878495 0.15888254 -0.13624017
-0.20099135

filter.6.conv6.convR.weight f4 [1, 1, 3, 3, 1]
00000000: 2279 013d cdf5 613e 0b16 6f3e 07cd 95be
00000010: 0ab3 963e 012f 503c d9e2 01be 5b92 373e
00000020: 0e48 7dbe
0.031609662 0.22066422 0.23348252 -0.29257986 0.2943347 0.012706519 -0.12684192 0.17926924
-0.24734518

filter.6.conv6.convI.weight f4 [1, 1, 3, 3, 1]
00000000: fc64 193e 71d7 713e bdf0 93be 95ca 5fbd
00000010: 61a1 b2bc a0e6 12be 3108 6c3e ccac e83d
00000020: 5c3b f43d
0.14979929 0.2361734 -0.28894606 -0.054636557 -0.021805467 -0.14345789 0.2305 0.113610834
0.119253844

filter.7.conv1.convR.weight f4 [1, 1, 3, 3, 1]
00000000: 0adc 8bbc 2817 4f3e c644 813d fddc 5cbe
00000010: f970 3cbe a23f 4bbe 42a4 3d3e e6ed 54be
00000020: 16da 86be
-0.017072696 0.20223677 0.063119456 -0.21568675 -0.1840247 -0.19848493 0.1851969 -0.20793876
-0.2633826

filter.7.conv1.convI.weight f4 [1, 1, 3, 3, 1]
00000000: 8659 e83d 453e 4bbe a8b7 dd3d 62f3 843d
00000010: b5b7 91be 1701 bdbe 28af 85bd 8e2b 5dbe
00000020: edc2 e13d
0.113452 -0.19847973 0.10826045 0.06491734 -0.2846047 -0.36914894 -0.06527549 -0.21598646
0.11023507

filter.7.conv2.convR.weight f4 [1, 1, 3, 3, 1]
00000000: 3979 98be 5a57 69be b790 833e ba69 b53e
00000010: af8e 4abe a508 27be 160d bebd f3f9 a93e
00000020: 59ea 59bc
-0.29779986 -0.22787228 0.25696346 0.35432225 -0.19780992 -0.16311891 -0.0927984 0.3319851
-0.013300502

filter.7.conv2.convI.weight f4 [1, 1, 3, 3, 1]
00000000: 80dd 22bd fcbb 2d3e b063 213e 41ec 953e
00000010: 3f4c 973e 73a8 d93e 44ad c9bd 6e24 17be
00000020: d35e 043e
-0.03976202 0.16966242 0.15760684 0.2928181 0.2955036 0.4251133 -0.09847501 -0.1475999
0.12926798

filter.7.conv3.convR.weight f4 [1, 1, 3, 3, 1]
00000000: 6019 24be 6434 623e 1310 1e3e bd63 4a3c
00000010: 2ef5 3e3e 55e5 cfbd d590 123e d808 93be
00000020: 75a3 5a3d
-0.16025305 0.22090298 0.1543582 0.012352881 0.18648216 -0.101511635 0.14313062 -0.28717685
0.05337854

filter.7.conv3.convI.weight f4 [1, 1, 3, 3, 1]
00000000: 3f83 293c 2179 0f3e 3b3d dbbc 85cf 793d
00000010: bd84 763e ffb2 82be 803a dbbd e3bf 093e
00000020: d089 fb3d
0.010346233 0.14011051 -0.026762595 0.06098892 0.24074073 -0.25527188 -0.10704517 0.13452105
0.12282145

filter.7.conv4.convR.weight f4 [1, 1, 3, 3, 1]
00000000: c80f 273d 4205 9cbe f06d d8bd 6ed4 063e
00000010: 9324 763d cfee 0d3e 4373 c2bd f653 e03d
00000020: 4e93 b8bd
0.040786535 -0.3047276 -0.10567844 0.13166973 0.060093474 0.1386063 -0.09494641 0.10953514
-0.09012471

filter.7.conv4.convI.weight f4 [1, 1, 3, 3, 1]
00000000: 9c5b ab3d 698d 1ebd ead0 4abe 2e51 81be
00000010: c821 3ebe c279 9c3c 9284 873e 48bb 21be
00000020: b07c 4f3e
0.083670825 -0.038709078 -0.19806257 -0.25257248 -0.18567574 0.019101027 0.2646833 -0.15794098
0.20262408

filter.7.conv5.convR.weight f4 [1, 1, 3, 3, 1]
00000000: de51 05be d4f5 81bc 85a7 8cbe 1128 e2bc
00000010: 9ab7 9dbe 7c06 e33d 9b78 873c a6ae fabd
00000020: 33ae 85bc
-0.13019511 -0.01586429 -0.27471557 -0.027606996 -0.3080414 0.11085221 0.016537001 -0.12240343
-0.016318416

filter.7.conv5.convI.weight f4 [1, 1, 3, 3, 1]
00000000: e662 9abc 136a 833e b626 7fbe 5fb9 6fbe
00000010: 35c5 6cbe 1f05 973d 63f7 47be 53cd 9d3d
00000020: c7f5 973d
-0.018845987 0.25666866 -0.24917111 -0.23410557 -0.23122104 0.07374024 -0.19527964 0.07705178
0.07419925

filter.7.conv6.convR.weight f4 [1, 1, 3, 3, 1]
00000000: ada6 903e 3804 a0bd 74a7 603e c9f3 893e
00000010: 71ec d6bd b75b a1bd 04d4 8d3e dc43 253c
00000020: f574 763e
0.28252164 -0.07813305 0.21938878 0.26943806 -0.10494316 -0.07878821 0.27700818 0.01008698
0.24068053

filter.7.conv6.convI.weight f4 [1, 1, 3, 3, 1]
00000000: 2b24 edbc 6204 20be 7fbd 4a3d 3ac7 c73b
00000010: 7776 ac3d 8d87 79bd 7570 1cbe 1dce 19bd
00000020: 97e4 c6bd
-0.02894791 -0.15626672 0.049497124 0.0060967477 0.08421033 -0.060920287 -0.15277274 -0.03755008
-0.09711569

filter.8.conv1.convR.weight f4 [1, 1, 3, 3, 1]
00000000: d76e 88ba 28ef d53c 4f7c 20be 89d5 ddbd
00000010: 9f4e 083f 202b 10be a07e 88be 9cf2 143e
00000020: fc82 be3c
-0.0010409009 0.026115015 -0.1567242 -0.10831744 0.53244966 -0.14078951 -0.26659107 0.14545673
0.023255818

filter.8.conv1.convI.weight f4 [1, 1, 3, 3, 1]
00000000: 8ff9 62bc 08d3 f1bd b4df 9d3e ee6c d4bb
00000010: a4ba 3abe a96d 1cbc 84bd 583e 90ad 7dbd
00000020: 74dc 12ba
-0.013853445 -0.11807829 0.30834734 -0.006482712 -0.1823526 -0.009547629 0.21166044 -0.0619331
-0.0005602308

filter.8.conv2.convR.weight f4 [1, 1, 3, 3, 1]
00000000: 24fd ce3d 7570 a03d 30b1 353e 409d 893d
00000010: 391e 6dbe ecd4 80be db43 a9bd 476e 073e
00000020: 623c cebd
0.101068765 0.078339495 0.17743373 0.06719446 -0.2315606 -0.25162446 -0.082648955 0.13225661
-0.10070111

filter.8.conv2.convI.weight f4 [1, 1, 3, 3, 1]
00000000: 31fe 7ebc 97cf b83d 6512 bc3d cce5 a33e
00000010: c179 723e 95e2 9c3d 69cd b43d c860 283e
00000020: 4309 04be
-0.015563534 0.090239696 0.09183196 0.3201126 0.23679258 0.076604046 0.088282414 0.16443169
-0.12894158

filter.8.conv3.convR.weight f4 [1, 1, 3, 3, 1]
00000000: ee48 063e bf0a f6bd 6d9f cb3d fae5 0bbe
00000010: 61de cbbd d6c1 3c3e ff75 323d 943b ca3d
00000020: 0b93 89bd
0.13113758 -0.120137684 0.099425174 -0.13661948 -0.09954525 0.18433318 0.04356956 0.09874645
-0.06717499

filter.8.conv3.convI.weight f4 [1, 1, 3, 3, 1]
00000000: 973b 0ebd 1be1 b33c 0429 1cbd a9df 8d3d
00000010: 1b8b 933d a233 a23d d96d f0bd 16c7 3dbd
00000020: 2865 063d
-0.034724798 0.021957925 -0.038125053 0.069274254 0.07204267 0.079200044 -0.11739702 -0.04633244
0.032811314

filter.8.conv4.convR.weight f4 [1, 1, 3, 3, 1]
00000000: ad14 283d ba42 e73d acad 9e3c 45f7 5c3e
00000010: b49f c63e 607c 833e b894 d0bb 0d3a 2b3e
00000020: 88ef 233b
0.041035343 0.11292024 0.019369923 0.21578701 0.3879372 0.25680828 -0.006365385 0.16721363
0.0025014598

filter.8.conv4.convI.weight f4 [1, 1, 3, 3, 1]
00000000: 0e5b f33d 81fd e9bd 07e1 95bd bdd7 95bd
00000010: 79e2 083d 2597 023e 93f3 cbbc f263 a13d
00000020: 7310 e0bd
0.11882602 -0.11425305 -0.07318311 -0.073165394 0.033419106 0.1275297 -0.024896419 0.07880391
-0.109406374

filter.8.conv5.convR.weight f4 [1, 1, 3, 3, 1]
00000000: 447f 91bb 4758 bbbb 6a3f d9bc 92b1 e43d
00000010: 57fa f93d 52e0 28bd 0af7 1bbd 1eeb 52bc
00000020: b0d8 6c3d
-0.00444022 -0.0057173106 -0.026519496 0.11166681 0.12205952 -0.041229554 -0.03807739 -0.012873439
0.057823837

filter.8.conv5.convI.weight f4 [1, 1, 3, 3, 1]
00000000: 8461 93bd d532 73bc e277 dabd 27ba 28be
00000010: a0f9 c5be 1bf6 773d 00f4 19bd f070 e7bd
00000020: f5e7 61bd
-0.07196334 -0.014843662 -0.10667397 -0.16477261 -0.3866701 0.06053744 -0.037586212 -0.11300838
-0.055152852

filter.8.conv6.convR.weight f4 [1, 1, 3, 3, 1]
00000000: 92d1 73bd 0f45 c13d 92ec 0abe e76e bd3d
00000010: 4ee6 8cbd a21f 6a3d 8b22 10bd 7974 ab3c
00000020: e81f bebb
-0.059526034 0.09437 -0.13566807 0.092496686 -0.06879865 0.057159074 -0.035189193 0.020929562
-0.0058021434

filter.8.conv6.convI.weight f4 [1, 1, 3, 3, 1]
00000000: 4240 df3c cd7b 8bbc 6ca2 38bd e312 6bbd
00000010: c8f1 863d 252e bdbb cfa4 4a3d 601b 60bd
00000020: 04fb 61bc
0.02725232 -0.017026806 -0.045076773 -0.05739106 0.06589085 -0.005773323 0.04947358 -0.054713607
-0.013792757
