Unfolded/Results/Unf_4lay_sim/sim_4lay_sim_Unfolded_Model_al0.50_Tr2400_epoch50_lr2.00e-03.pkl (torch_old, 23102 bytes, 48 tensors)

filter.0.conv1.convR.weight f4 [1, 1, 5, 5, 1]
-0.06619681 0.04472751 -0.050714564 0.09025093 -0.16092584 0.19870141 -0.06762953 -0.059692226
-0.051763184 0.167764 -0.045625985 0.13180381 -0.08286642 -0.04806195 0.017468277 -0.06452508
-0.1476217 0.17200093 -0.016216956 0.1275599 0.044400316 -0.028666368 0.03128282 0.16281272
-0.078824274
00000000: 3192 87bd 3234 373d 13ba 4fbd 7bd5 b83d
00000010: bec9 24be 6278 4b3e 5a81 8abd d67f 74bd
00000020: a205 54bd 53ca 2b3e 50e2 3abd 94f7 063e
00000030: dfb5 a9bd 9bdc 44bd a219 8f3c ba25 84bd
00000040: 252a 17be 0321 303e 6cd9 84bc 109f 023e
00000050: 1bdd 353d bbd5 eabc 6a22 003d 61b8 263e
00000060: 9f6e a1bd

filter.0.conv1.convI.weight f4 [1, 1, 5, 5, 1]
-0.10507851 0.09169376 0.0631352 -0.27691245 0.04873283 0.12722127 0.08414144 0.032702375
0.113750845 -0.11531378 -0.12327445 -0.039695278 -0.16581678 -0.011730925 -0.100344434 -0.09851448
-0.031028528 0.14401197 -0.050407063 -0.054144062 -0.040982414 -0.004442912 0.11173605 0.06994227
-0.0023523308
00000000: 6733 d7bd f0c9 bb3d 074d 813d 78c7 8dbe
00000010: 139c 473d 4b46 023e 5952 ac3d edf2 053d
00000020: 34f6 e83d a229 ecbd 5177 fcbd 8497 22bd
00000030: e0cb 29be 1133 40bc 6281 cdbd f6c1 c9bd
00000040: 8a2f febc e077 133e a377 4ebd 2ac6 5dbd
00000050: 2ddd 27bd d995 91bb dfd5 e43d e53d 8f3d
00000060: 9029 1abb

filter.0.conv2.convR.weight f4 [1, 1, 5, 5, 1]
0.04715857 0.07726665 -0.025844693 -0.18588176 -0.12368238 0.17071714 0.011954695 -0.1620147
0.03154549 0.16525434 -0.18899994 -0.13464788 -0.07965312 0.008027509 -0.04664588 -0.02197823
-0.19497803 0.09365584 0.17554866 0.12224768 -0.14162648 -0.16122067 0.083050475 0.0044917166
0.081986204
00000000: 5829 413d fa3d 9e3d 40b8 d3bc ca57 3ebe
00000010: 304d fdbd 79d0 2e3e a0dd 433c 2ee7 25be
00000020: d835 013d 6f38 293e 3389 41be 22e1 09be
00000030: 2d21 a3bd d085 033c c00f 3fbd b00b b4bc
00000040: 52a8 47be a2ce bf3d 07c3 333e fe5c fa3d
00000050: 8806 11be 0817 25be 5e16 aa3d 402f 933b
00000060: 62e8 a73d

filter.0.conv2.convI.weight f4 [1, 1, 5, 5, 1]
-0.011924595 0.14104874 0.092782274 0.0073034763 0.039323807 -0.018936008 -0.10996671 -0.07557986
-0.121795945 0.16612186 0.11005734 0.069944516 -0.1533705 0.15432437 0.06270854 0.13835894
-0.07867801 0.042399377 0.19527648 0.13453184 0.16039933 -0.041996956 0.15237544 -0.15664645
0.01729779
00000000: 605f 43bc 156f 103e a204 be3d 0052 ef3b
00000010: 0012 213d b01f 9bbc 3a36 e1bd 9dc9 9abd
00000020: 2770 f9bd d91b 2a3e be65 e13d 123f 8f3d
00000030: 280d 1dbe 3507 1e3e 566d 803d f7ad 0d3e
00000040: f021 a1bd f8aa 2d3d 8ff6 473e b7c2 093e
00000050: b93f 243e 0005 2cbd 4f08 1c3e ed67 20be
00000060: 18b4 8d3c

filter.0.conv3.convR.weight f4 [1, 1, 5, 5, 1]
-0.04664305 -0.051219493 0.014963821 0.18202795 0.0990168 -0.0008472502 0.1419691 -0.10249112
0.1030743 -0.018546537 -0.03480217 0.023414686 -0.15321934 0.023111463 0.067247614 0.17098634
-0.062268615 0.072005525 0.19990243 -0.08579381 0.19011848 -0.09929841 0.08815898 0.07835002
0.05586563
00000000: c80c 3fbd 88cb 51bd d02a 753c 8965 3a3e
00000010: 52c9 ca3d 001a 5eba 5960 113e dde6 d1bd
00000020: 9e18 d33d e8ee 97bc b88c 0ebd 28d0 bf3c
00000030: 88e5 1cbe 4054 bd3c 1eb9 893d 0b17 2f3e
00000040: 600d 7fbd a277 933d 39b3 4c3e aab4 afbd
00000050: 6bae 423e f75c cbbd b28c b43d fa75 a03d
00000060: 5cd3 643d

filter.0.conv3.convI.weight f4 [1, 1, 5, 5, 1]
-0.08083289 0.0525638 0.00112243 -0.15042832 -0.048562795 -0.13356462 0.088431075 0.01797919
0.019592926 -0.060674146 0.00096170604 -0.062208623 0.057467237 0.19423394 0.030294105 -0.08858366
-0.12216561 0.015287802 -0.14836924 -0.15033004 -0.13017541 -0.067928955 0.014803499 0.13772233
0.07746787
00000000: b78b a5bd 244d 573d 801e 933a e209 1abe
00000010: c8e9 46bd 2ac5 08be 5a1b b53d 1849 933c
00000020: 5881 a03c 7485 78bd 001b 7c3a 78ce 7ebd
00000030: c462 6b3d 43e5 463e 582b f83c 5a6b b5bd
00000040: f731 fabd b079 7a3c 1bee 17be 1ef0 19be
00000050: b44c 05be 561e 8bbd 608a 723c 1507 0d3e
00000060: 7aa7 9e3d

filter.0.conv4.convR.weight f4 [1, 1, 5, 5, 1]
-0.06555592 0.03196593 -0.16945638 0.11228338 -0.006640475 0.14714545 -0.2248976 0.060974278
0.06048291 0.0025105288 -0.019588009 0.09052949 0.030495197 0.10400786 -0.063699424 -0.109388985
-0.06295501 -0.07453681 -0.12545605 -0.049269434 0.049862977 0.0062187966 0.12494151 0.077688254
0.063677646
00000000: 2f42 86bd b5ee 023d f985 2dbe d4f4 e53d
00000010: 5798 d9bb 4cad 163e 8e4b 66be 2ac0 793d
00000020: eebc 773d af87 243b 0877 a0bc 8667 b93d
00000030: 10d1 f93c 1302 d53d d874 82bd 5507 e0bd
00000040: 8eee 80bd c1a6 98bd 8d77 00be bfce 49bd
00000050: 1f3d 4c3d 0cc7 cb3b 56e1 ff3d 051b 9f3d
00000060: 6d69 823d

filter.0.conv4.convI.weight f4 [1, 1, 5, 5, 1]
0.029393215 -0.077972725 0.046523254 0.090557225 0.012469993 -0.09737194 0.077799805 -0.15763666
-0.098801486 -0.12164735 0.098634854 0.2529187 -0.005653117 0.06599017 0.16134733 -0.22933231
0.08385635 -0.0030970657 -0.10466807 -0.1183999 0.06916461 -0.06655098 -0.08379016 0.080883764
0.047958586
00000000: 0aca f03c 2ab0 9fbd 2b8f 3e3d 1176 b93d
00000010: f14e 4c3c f16a c7bd 8155 9f3d 816b 21be
00000020: 6f58 cabd 3f22 f9bd 1201 ca3d 8f7e 813e
00000030: c83d b9bb db25 873d 3c38 253e 17d6 6abe
00000040: e1bc ab3d 24f8 4abb 375c d6bd a67b f2bd
00000050: 2da6 8d3d e14b 88bd 2d9a abbd 63a6 a53d
00000060: 3970 443d

filter.0.conv5.convR.weight f4 [1, 1, 5, 5, 1]
-0.029186055 0.1284147 -0.055811837 -0.019358546 0.08223753 -0.12588747 0.05355172 -0.044223145
0.095934704 -0.10849287 0.0073916614 0.019565865 -0.16091931 -0.14542845 0.07670267 -0.058211297
0.11877932 -0.19757251 -0.098865725 -0.16473238 0.07989429 -0.0057982653 -0.037304282 -0.033274263
-0.15632978
00000000: 9817 efbc 257f 033e f49a 64bd d095 9ebc
00000010: 266c a83d a5e8 00be 0c59 5b3d 5423 35bd
00000020: 6a79 c43d 8331 debd c035 f23b 9848 a03c
00000030: 08c8 24be 32eb 14be 4a16 9d3d f86e 6ebd
00000040: 9242 f33d 7350 4abe 1d7a cabd 9baf 28be
00000050: 9e9f a33d 60ff bdbb 60cc 18bd 984a 08bd
00000060: ea14 20be

filter.0.conv5.convI.weight f4 [1, 1, 5, 5, 1]
0.0049851686 -0.13802259 0.075257555 -0.0040198117 -0.19342951 0.107584044 0.10697742 -0.037682027
-0.13808763 0.008030012 0.15091597 0.18306796 -0.1509602 -0.0903338 0.1557249 0.097755656
0.12380259 -0.099546865 0.17230691 -0.16441318 -0.0096337795 0.004152581 0.033593565 -0.15091679
0.18349327
00000000: a05a a33b cb55 0dbe a220 9a3d a0b8 83bb
00000010: 6312 46be 0655 dc3d fa16 db3d 7858 1abd
00000020: d866 0dbe 5090 033c b789 1a3e 2b76 3b3e
00000030: 5095 1abe ed00 b9bd 5976 1f3e 1e34 c83d
00000040: 368c fd3d 3adf cbbd 3971 303e ee5b 28be
00000050: 00d7 1dbc 6012 883b 6899 093d ee89 1abe
00000060: a9e5 3b3e

filter.0.conv6.convR.weight f4 [1, 1, 5, 5, 1]
-0.13812149 0.0073881596 -0.10653243 0.19177692 0.11153315 0.117780134 0.06452091 -0.019911364
0.1126125 0.0034056455 -0.07294305 0.103261635 0.06276126 -0.05182293 -0.05481121 -0.17686792
-0.05482368 -0.081022836 -0.109009765 -0.18064368 0.1566552 -0.17873831 0.19854291 -0.104904555
-0.015373424
00000000: b86f 0dbe 6018 f23b ad2d dabd 2b61 443e
00000010: 7e6b e43d b636 f13d 8a23 843d 281d a3bc
00000020: 62a1 e63d 4031 5f3b 2a63 95bd d67a d33d
00000030: fa88 803d 4844 54bd b881 60bd dd1c 35be
00000040: cc8e 60bd 4def a5bd 8340 dfbd a8fa 38be
00000050: 396a 203e 2d07 37be d54e 4b3e 33d8 d6bd
00000060: d0e0 7bbc

filter.0.conv6.convI.weight f4 [1, 1, 5, 5, 1]
0.06598227 -0.057099864 -0.16101138 -0.08177107 0.16106121 -0.075521946 0.16668417 -0.034443304
-0.025506705 0.079822436 -0.029386848 -0.0016843379 0.13851862 0.06683968 -0.007960886 0.07616584
0.17418878 0.05040805 -0.05865042 0.06553425 -0.017497897 -0.1563648 -0.07722571 0.09096272
0.0065588206
00000000: b621 873d 8ce1 69bd 2be0 24be 9777 a7bd
00000010: 3bed 243e 40ab 9abd 41af 2a3e 6c14 0dbd
00000020: 70f3 d0bc f279 a33d b0bc f0bc 00c5 dcba
00000030: d3d7 0d3e 3ee3 883d 606e 02bc d6fc 9b3d
00000040: 8b5e 323e ac78 4e3d 6c3b 70bd d236 863d
00000050: c057 8fbc 181e 20be 8328 9ebd aa4a ba3d
00000060: 60eb d63b

filter.1.conv1.convR.weight f4 [1, 1, 5, 5, 1]
-0.09455422 0.17891435 -0.043687645 0.085829705 -0.05763295 -0.125035 0.03179044 -0.058025356
-0.11881706 -0.063606314 0.16669036 0.11874485 0.17769314 -0.10446452 0.17512919 -0.00788146
-0.21847732 -0.021281783 0.028671792 -0.08501369 -0.085894234 0.13827899 0.01148545 0.046362795
-0.039610106
00000000: a5a5 c1bd 5335 373e d1f1 32bd 7cc7 af3d
00000010: 8710 6cbd 2d09 00be b136 023d ffab 6dbd
00000020: 5c56 f3bd 0744 82bd e1b0 2a3e 8030 f33d
00000030: 31f5 353e 7ff1 d5bd 1155 333e 3d21 01bc
00000040: 85b8 5fbe 2257 aebc 1be1 ea3c a81b aebd
00000050: 51e9 afbd 0299 0d3e 782d 3c3c eae6 3d3d
00000060: 353e 22bd

filter.1.conv1.convI.weight f4 [1, 1, 5, 5, 1]
0.124630205 0.068758614 0.03827643 0.13043945 -0.1422095 -0.2510963 -0.2597198 0.07396868
-0.16044618 -0.0057474864 0.2677346 0.14396034 0.29193097 -0.013136446 0.16271456 -0.13985302
-0.096499525 0.09158169 -0.21221259 0.017902123 -0.0048953914 -0.06263756 0.14507757 0.07998954
-0.1775274
00000000: 1f3e ff3d 51d1 8c3d bfc7 1c3d eb91 053e
00000010: 5e9f 11be b28f 80be fef9 84be e47c 973d
00000020: 014c 24be 6955 bcbb 8214 893e 576a 133e
00000030: fa77 953e 3f3a 57bc a59e 263e a135 0fbe
00000040: 8ba1 c5bd 2e8f bb3d 424e 59be 79a7 923c
00000050: 8569 a0bb 1f48 80bd 378f 143e 8ed1 a33d
00000060: bec9 35be

filter.1.conv2.convR.weight f4 [1, 1, 5, 5, 1]
-0.05720372 0.06100934 0.030368403 0.07813591 0.04703773 -0.22653858 0.06244646 -0.099322215
0.11420771 0.08512913 -0.13566436 -0.061976463 0.014904395 0.04030022 -0.20316721 0.021288304
0.0926504 0.11990085 0.09640372 0.020763306 -0.20931691 0.07957737 -0.19931252 -0.17642424
-0.067749575
00000000: 734e 6abd eee4 793d 28c7 f83c b805 a03d
00000010: a3aa 403d bbf9 67be dcc7 7f3d 7269 cbbd
00000020: bbe5 e93d 2e58 ae3d 99eb 0abe 08db 7dbd
00000030: 9031 743c d811 253d 110b 50be cf64 ae3c
00000040: 7ebf bd3d 948e f53d 506f c53d cf17 aa3c
00000050: 2c57 56be 76f9 a23d 9518 4cbe 8ea8 34be
00000060: 4ac0 8abd

filter.1.conv2.convI.weight f4 [1, 1, 5, 5, 1]
0.11624962 0.009710172 -0.03378214 -0.035356514 0.052051693 -0.08804628 -0.10849836 0.19447798
-0.11801498 -0.08780896 0.22939882 -0.023528686 -0.017118998 0.21730722 -0.01993006 -0.05923154
0.18080029 -0.05039029 0.13430144 0.12286893 0.042101264 0.022896077 -0.06329482 0.07168452
-0.17486048
00000000: 4814 ee3d 6a17 1f3c 245f 0abd fed1 10bd
00000010: 2834 553d 9c51 b4bd 6334 debd 3c25 473e
00000020: d6b1 f1bd 2fd5 b3bd 86e7 6a3e 3bbf c0bc
00000030: 243d 8cbc c985 5e3e 5d44 a3bc c59c 72bd
00000040: b623 393e 0c66 4ebd 5186 093e b5a2 fb3d
00000050: 6072 2c3d 8e90 bb3c b7a0 81bd 55cf 923d
00000060: a00e 33be

filter.1.conv3.convR.weight f4 [1, 1, 5, 5, 1]
-0.11583754 0.06131706 -0.009240639 0.14127441 0.16474976 -0.00018020306 0.11105832 -0.14217968
-0.12821637 -0.08198008 0.107902355 0.18183331 -0.05414713 0.16497238 -0.08174401 -0.004628269
-0.007971723 -0.08440067 -0.07956619 0.10846097 0.012590711 -0.017435923 0.12259425 -0.12987463
0.14540018
00000000: 3b3c edbd 9927 7b3d 0d66 17bc 3daa 103e
00000010: 29b4 283e e4f4 3cb9 8b72 e33d 8d97 11be
00000020: 274b 03be 2ce5 a7bd e9fb dc3d 8332 3a3e
00000030: 62c9 5dbd 85ee 283e 6769 a7bd bca8 97bb
00000040: d49b 02bc 42da acbd 99f3 a2bd c920 de3d
00000050: 4549 4e3c c8d5 8ebc b212 fb3d dbfd 04be
00000060: c9e3 143e

filter.1.conv3.convI.weight f4 [1, 1, 5, 5, 1]
-0.081454925 -0.13779128 0.09042451 -0.19331792 0.10800912 -0.039539296 -0.023179991 0.18506789
-0.0027170784 -0.042361204 0.030080417 0.044901475 0.0042773443 0.04672804 -0.064586714 0.15624093
-0.12235021 0.20914343 0.15068577 -0.021113325 -0.25526854 -0.24344717 0.11819531 -0.0625407
0.26397517
00000000: d7d1 a6bd 2819 0dbe 7c30 b93d 22f5 45be
00000010: e333 dd3d f5f3 21bd f7e3 bdbc 7082 3d3e
00000020: 0311 32bb f182 2dbd 356b f63c 9cea 373d
00000030: f728 8c3b e765 3f3d 0a46 84bd 9ffd 1f3e
00000040: bf92 fabd b229 563e 5f4d 1a3e daf5 acbc
00000050: 8fb2 82be 374a 79be 6210 f23d 5715 80bd
00000060: c127 873e

filter.1.conv4.convR.weight f4 [1, 1, 5, 5, 1]
-0.09623797 0.16993652 -0.09378293 0.044731874 0.005886826 -0.0431978 -0.051723972 -0.027815472
0.011135305 0.017158775 0.016359322 0.20862654 0.09522196 -0.08631965 -0.10187523 0.12380649
-0.13262399 0.009644642 -0.09912643 0.10357062 0.027206674 0.03716839 -0.0145604545 0.032247093
0.013082707
00000000: 6a18 c5bd d703 2e3e 4411 c0bd c538 373d
00000010: 47e6 c03b 2df0 30bd 84dc 53bd 46dd e3bc
00000020: db70 363c 8f90 8c3c fc03 863c 32a2 553e
00000030: bb03 c33d 5bc8 b0bd f6a3 d0bd 428e fd3d
00000040: 95ce 07be 8f04 1e3c cc02 cbbd d51c d43d
00000050: 88e0 de3c e23d 183d f98e 6ebc 8715 043d
00000060: da58 563c

filter.1.conv4.convI.weight f4 [1, 1, 5, 5, 1]
0.014935827 -0.045990467 0.039149676 -0.003600108 -0.08027268 0.115939446 -0.012990819 0.042384725
-0.018645454 0.0013484827 -0.07663912 -0.09262814 -0.12105185 0.09424757 0.17196545 0.16386564
0.047418546 -0.05931846 0.030328913 -0.15845451 -0.03290364 -0.10206594 -0.027345015 0.13967508
-0.0074923486
00000000: 66b5 743c 8060 3cbd 695b 203d caef 6bbb
00000010: 0166 a4bd a971 ed3d 72d7 54bc 9b9b 2d3d
00000020: 5abe 98bc 92bf b03a f9f4 9cbd d2b3 bdbd
00000030: 08ea f7bd df04 c13d b617 303e 65cc 273e
00000040: f339 423d eaf7 72bd 5774 f83c e641 22be
00000050: f8c5 06bd f307 d1bd a702 e0bc fc06 0f3e
00000060: 6082 f5bb

filter.1.conv5.convR.weight f4 [1, 1, 5, 5, 1]
0.009196428 -0.05033987 -0.08756877 -0.061455827 -0.10762062 0.10950268 -0.048199184 -0.16014868
0.071239226 -0.017358284 0.003941958 0.051116243 0.110474564 -0.1360913 -0.06951278 -0.21026397
0.10234262 -0.0028184375 -0.09907356 -0.0049870475 0.11294996 0.0018743281 0.034366373 0.12329774
-0.040860835
00000000: 9dac 163c 2e31 4ebd 4157 b3bd 1bb9 7bbd
00000010: 3368 dcbd f142 e03d 826c 45bd 04fe 23be
00000020: dfe5 913d f632 8ebc 8a2b 813b 445f 513d
00000030: 7d40 e23d 855b 0bbe b75c 8ebd 704f 57be
00000040: 0299 d13d 89b5 38bb 14e7 cabd 636a a3bb
00000050: 4f52 e73d 04ac f53a c1c3 0c3d 8783 fc3d
00000060: b15d 27bd

filter.1.conv5.convI.weight f4 [1, 1, 5, 5, 1]
0.031556815 -0.23811184 0.0327065 0.06322706 0.0028455143 -0.21864502 -0.1051471 -0.17770188
-0.26184738 0.081176 0.029463002 -0.022938408 0.042118352 0.10406665 -0.020148301 -0.020881759
-0.28016493 -0.12371291 0.10615371 -0.016441021 -0.0804867 -0.044196714 -0.0041553886 0.14877643
-0.13053904
00000000: b841 013d 97d3 73be 40f7 053d 307d 813d
00000010: cf7b 3a3b 7be4 5fbe 5d57 d7bd 7bf7 35be
00000020: dc10 86be 9a3f a63d 655c f13c 54e9 bbbc
00000030: 4b84 2c3d e520 d53d 0d0e a5bc 3910 abbc
00000040: c771 8fbe 325d fdbd 1e67 d93d 52af 86bc
00000050: 36d6 a4bd 9d07 35bd ed29 88bb d958 183e
00000060: 07ac 05be

filter.1.conv6.convR.weight f4 [1, 1, 5, 5, 1]
0.083289735 -0.047709264 -0.07414506 0.08256916 0.10442275 -0.044662446 -0.00032580498 0.016390104
-0.16199441 0.1311499 -0.043506596 -0.17917968 -0.13294072 0.06012481 -0.1946186 0.19035454
-0.08724123 0.06050785 0.097564384 -0.058731664 -0.05070303 0.0730704 0.09074309 -0.024991881
0.06580826
00000000: cf93 aa3d ca6a 43bd 5dd9 97bd 051a a93d
00000010: 98db d53d f8ef 36bd ced0 aab9 8a44 863c
00000020: dde1 25be 294c 063e f933 32bd e17a 37be
00000030: 9d21 08be 6f45 763d 194a 47be 4dec 423e
00000040: 88ab b2bd 14d7 773d d6cf c73d 9d90 70bd
00000050: fbad 4fbd efa5 953d 83d7 b93d c6bb ccbc
00000060: 7bc6 863d

filter.1.conv6.convI.weight f4 [1, 1, 5, 5, 1]
0.026989082 0.12207469 -0.15435946 -0.21055768 0.017297788 0.0404221 0.18796928 0.20526025
0.07389949 0.111712344 0.15332417 0.061422687 -0.10043687 -0.018485272 -0.117182545 0.11537225
-0.116534404 -0.14531511 -0.019912181 0.14405558 0.096983686 0.10359071 0.051078957 -0.10765952
-0.024608912
00000000: 3518 dd3c 4c02 fa3d 6810 1ebe 6f9c 57be
00000010: 17b4 8d3c a591 253d 057b 403e be2f 523e
00000020: 9e58 973d 71c9 e43d 0301 1d3e 5b96 7b3d
00000030: d8b1 cdbd 6d6e 97bc 67fd efbd 4948 ec3d
00000040: 97a9 eebd 7ccd 14be df1e a3bc 4e83 133e
00000050: 629f c63d 5e27 d43d 2b38 513d 987c dcbd
00000060: a198 c9bc

filter.2.conv1.convR.weight f4 [1, 1, 5, 5, 1]
-0.09431105 0.10203484 -0.08603701 -0.08448353 0.15733032 0.054893423 0.0026889383 0.1634392
-0.07505459 -0.12737739 0.11691721 0.09438797 0.099879414 0.2483011 -0.036816183 -0.09348446
0.099581935 0.12089726 -0.12762985 0.09129921 -0.11300431 0.019452093 0.1523364 -0.11354637
-0.005228127
00000000: 2726 c1bd a4f7 d03d 2c34 b0bd b305 adbd
00000010: 331b 213e edd7 603d e638 303b 9b5c 273e
00000020: 39b6 99bd 386f 02be 4a72 ef3d 7b4e c13d
00000030: 948d cc3d a542 7e3e 91cc 16bd c874 bfbd
00000040: 9df1 cb3d fc98 f73d 66b1 02be 15fb ba3d
00000050: ce6e e7bd ff59 9f3c 13fe 1b3e 008b e8bd
00000060: b550 abbb

filter.2.conv1.convI.weight f4 [1, 1, 5, 5, 1]
-0.09872881 0.026047638 0.004322961 -0.022162419 0.049408495 0.05844587 0.081689484 -0.10760077
-0.06380287 -0.20397346 0.0191362 0.08860534 0.11273533 0.07533808 0.102626376 -0.073245294
0.14735584 -0.047574345 0.092723824 0.0989146 -0.02286662 -0.06209683 0.14710994 -0.05042019
-0.12170064
00000000: 5532 cabd db61 d53c a0a7 8d3b f68d b5bc
00000010: 9060 4a3d f064 6f3d d14c a73d cb5d dcbd
00000020: 14ab 82bd 6bde 50be 85c3 9c3c b776 b53d
00000030: c8e1 e63d da4a 9a3d c72d d23d a101 96bd
00000040: 73e4 163e 51dd 42bd fde5 bd3d bd93 ca3d
00000050: c752 bbbc 3f59 7ebd fda3 163e 6785 4ebd
00000060: 2f3e f9bd

filter.2.conv2.convR.weight f4 [1, 1, 5, 5, 1]
0.051496606 0.23488866 -0.15052047 0.07999462 -0.13877772 -0.061618827 0.014896264 0.20309104
-0.057660602 -0.07535774 0.026994366 0.021109767 -0.107531905 0.034767456 0.14428224 -0.06477535
-0.13060467 -0.107308015 0.11280088 0.018109541 0.11089353 -0.04535429 -0.022277176 0.122819275
0.033726376
00000000: 1bee 523d a786 703e 0a22 1abe 38d4 a33d
00000010: bf1b 0ebe 0664 7cbd 760f 743c 19f7 4f3e
00000020: 862d 6cbd 2955 9abd 4a23 dd3c 64ee ac3c
00000030: b039 dcbd 5268 0e3d b9be 133e f0a8 84bd
00000040: 3bbd 05be 4ec4 dbbd 2604 e73d 765a 943c
00000050: 261c e33d 6cc5 39bd a07e b6bc ac88 fb3d
00000060: ab24 0a3d

filter.2.conv2.convI.weight f4 [1, 1, 5, 5, 1]
0.059631426 0.05221147 -0.14430633 0.153042 0.07939763 -0.058941357 -0.11981294 0.06953718
-0.19352542 0.02576218 -0.14838006 0.044241115 -0.01854622 0.03542829 -0.108519435 -0.0130794905
-0.08003274 -0.019254904 -0.036822945 0.13383645 0.20449139 0.020267108 -0.081206754 -0.03296862
-0.12982768
00000000: 1540 743d b2db 553d 0ac5 13be 0bb7 1c3e
00000010: 3a9b a23d 7e6c 71bd 7d60 f5bd 8269 8e3d
00000020: 872b 46be 350b d33c f1f0 17be 2c36 353d
00000030: 3eee 97bc 411d 113d 703f debd 5c4b 56bc
00000040: 35e8 a3bd 76bc 9dbc a8d3 16bd 6c0c 093e
00000050: 3166 513e 3507 a63c ba4f a6bd 1b0a 07bd
00000060: 8cf1 04be

filter.2.conv3.convR.weight f4 [1, 1, 5, 5, 1]
-0.06409329 -0.08889273 0.18967871 0.1048878 -0.028559119 -0.124027684 0.13531852 -0.07645548
-0.12901741 -0.120606214 0.11379022 0.062521614 0.022816148 -0.15033336 0.11004724 -0.110955894
0.052615587 0.048899256 -0.0925616 0.047789767 -0.08454524 0.19816549 -0.04818147 0.12986042
-0.12466637
00000000: 5843 83bd 640d b6bd 233b 423e 6acf d63d
00000010: d0f4 e9bc 3a02 febd f090 0a3e b194 9cbd
00000020: 241d 04be 6400 f7bd d90a e93d 550b 803d
00000030: eee8 ba3c fdf0 19be 7360 e13d d83c e3bd
00000040: 7183 573d 964a 483d f090 bdbd 34bf 433d
00000050: 0e26 adbd e5eb 4a3e ef59 45bd 21fa 043e
00000060: 1551 ffbd

filter.2.conv3.convI.weight f4 [1, 1, 5, 5, 1]
-0.14309551 -0.013613235 0.039619982 -0.015218477 0.10978011 0.17177634 -0.1592077 0.11304289
-0.1514658 -0.13569346 -0.01564802 0.17212105 0.11859767 -0.0133501785 -0.0994411 -0.02740742
-0.07807976 0.08391882 -0.005119954 -0.042277258 -0.11035406 0.005170768 0.07691657 0.090988494
-0.017675048
00000000: a187 12be 0c0a 5fbc 9048 223d eb56 79bc
00000010: 65d4 e03d 23e6 2f3e 5807 23be 0883 e73d
00000020: da19 1bbe 3af3 0abe 4730 80bc 8040 303e
00000030: 56e3 f23d b5ba 5abc c7a7 cbbd 8785 e0bc
00000040: 48e8 9fbd a1dd ab3d 49c5 a7bb eb2a 2dbd
00000050: 4f01 e2bd 8c6f a93b 6f86 9d3d 2d58 ba3d
00000060: 43cb 90bc

filter.2.conv4.convR.weight f4 [1, 1, 5, 5, 1]
0.055895325 -0.005977331 0.0786088 0.033806954 -0.05651127 -0.14145823 -0.03117355 -0.09274394
-0.12378997 -0.11631871 0.006172177 -0.13062014 0.43551815 0.08198819 0.31705394 -0.04107545
-0.077342406 0.18975893 0.02363741 -0.15010431 0.12745653 -0.22579138 0.11129687 -0.09308538
0.046169963
00000000: 7ff2 643d 7ddd c3bb a7fd a03d 2979 0a3d
00000010: 5d78 67bd 6dda 10be ac5f ffbc 89f0 bdbd
00000020: 9985 fdbd 8138 eebd f93f ca3b 49c1 05be
00000030: 3cfc de3e 6de9 a73d e554 a23e bb3e 28bd
00000040: b265 9ebd 2a50 423e 3ea3 c13c f2b4 19be
00000050: f783 023e db35 67be 9def e33d 8ca3 bebd
00000060: b71c 3d3d

filter.2.conv4.convI.weight f4 [1, 1, 5, 5, 1]
0.04758819 0.05056204 0.35828352 -0.0656313 0.032119002 -0.28236553 -0.37890166 0.018977765
-0.08327654 0.079950064 0.040243026 -0.054975975 -0.24662656 -0.25299233 0.023715597 0.060214564
-0.03878838 -0.06252437 -0.11442681 0.061404184 -0.0066235354 -0.0057715443 0.14996377 0.040265627
0.06454639
00000000: d5eb 423d 241a 4f3d f070 b73e b469 86bd
00000010: 378f 033d 3792 90be 66ff c1be 4277 9b3c
00000020: e48c aabd dcbc a33d dfd5 243d 7d2e 61bd
00000030: ac8b 7cbe 3688 81be 3647 c23c 8ca3 763d
00000040: 90e0 1ebd c70c 80bd 9a58 eabd f482 7b3d
00000050: 3e0a d9bb 391f bdbb 1a90 193e 92ed 243d
00000060: e630 843d

filter.2.conv5.convR.weight f4 [1, 1, 5, 5, 1]
0.056701325 -0.12529911 0.096339546 0.14340496 -0.052564446 0.2520584 -0.011846272 0.2337566
0.14781772 0.25826862 0.09345186 0.34580114 0.4033034 0.029870573 0.23618634 -0.092964806
0.071209036 0.21911997 0.2120535 -0.19013922 0.006894264 -0.08515766 0.0710468 0.019326042
-0.08090567
00000000: a63f 683d 694e 00be ab4d c53d c0d8 123e
00000010: d14d 57bd cc0d 813e de16 42bc e45d 6f3e
00000020: 875d 173e c93b 843e b063 bf3d d90c b13e
00000030: c97d ce3e 22b3 f43c d5da 713e 5564 bebd
00000040: 0bd6 913d fc60 603e 8d24 593e dbb3 42be
00000050: 47e9 e13b 2467 aebd fc80 913d a651 9e3c
00000060: dfb1 a5bd

filter.2.conv5.convI.weight f4 [1, 1, 5, 5, 1]
-0.009682869 0.14382157 0.06049157 0.108532205 -0.16974723 0.10635164 0.09264522 0.16296682
0.06957707 0.13012503 -0.10513783 -0.009777549 0.07426791 0.34303063 0.051338453 0.1876155
0.1876976 0.10439349 0.0596406 0.087278925 -0.13288599 -0.09922473 0.019270519 0.17588565
-0.080697894
00000000: e5a4 1ebc f645 133e 02c6 773d 2246 de3d
00000010: 38d2 2dbe e3ce d93d c7bc bd3d c6e0 263e
00000020: 6c7e 8e3d 7f3f 053e 8152 d7bd 0332 20bc
00000030: c619 983d b6a1 af3e 4548 523d 471e 403e
00000040: cd33 403e 41cc d53d b449 743d 4bbf b23d
00000050: 4413 08be 5636 cbbd 35dd 9d3c 5e1b 343e
00000060: f044 a5bd

filter.2.conv6.convR.weight f4 [1, 1, 5, 5, 1]
-0.12537038 0.0068190023 0.05961179 -0.063001364 -0.10870122 0.162595 -0.06713084 0.20029472
0.03649005 0.049437527 0.12779695 0.09053998 -0.053347826 0.11084494 0.2182928 -0.27628285
0.07037042 -0.17310274 -0.036328625 0.06785066 -0.0762831 -0.12673472 0.03184888 -0.05198276
0.011106144
00000000: 1861 00be f071 df3b 7e2b 743d dc06 81bd
00000010: bf9e debd 4e7f 263e e57b 89bd 0f1a 4d3e
00000020: 9776 153d 017f 4a3d 34dd 023e 066d b93d
00000030: 4083 5abd ac02 e33d 2688 5f3e f274 8dbe
00000040: 5e1e 903d d841 31be 53cd 14bd 49f5 8a3d
00000050: 503a 9cbd bfc6 01be f973 023d e0eb 54bd
00000060: 8bf6 353c

filter.2.conv6.convI.weight f4 [1, 1, 5, 5, 1]
0.12274922 -0.14337847 -0.006647482 -0.098573655 -0.09026507 0.037392735 -0.023329271 0.1132876
-0.03626484 -0.30624518 0.15813455 -0.011793693 -0.050065946 -0.09544622 0.16725738 0.009329296
0.2842729 0.029817762 0.31843728 -0.003792241 0.113770545 -0.14808562 -0.045229286 -0.058022387
-0.038497243
00000000: f163 fb3d ced1 12be 1fd3 d9bb fce0 c9bd
00000010: e5dc b8bd 2029 193d 071d bfbc 5403 e83d
00000020: 718a 14bd 2bcc 9cbe 06ee 213e 553a 41bc
00000030: f311 4dbd 4f79 c3bd 8545 2b3e e7d9 183c
00000040: 388c 913e 6144 f43c 360a a33e 3f87 78bb
00000050: 8800 e93d c2a3 17be 5842 39bd e2a8 6dbd
00000060: 49af 1dbd

filter.3.conv1.convR.weight f4 [1, 1, 3, 3, 1]
-0.005277305 0.12665607 -0.0047944314 0.0716194 0.2283308 0.2315836 0.06595262 0.13328044
-0.13313332
00000000: 3eed acbb 21b2 013e 9b1a 9dbb 31ad 923d
00000010: 8dcf 693e 4024 6d3e 2b12 873d ab7a 083e
00000020: 1a54 08be

filter.3.conv1.convI.weight f4 [1, 1, 3, 3, 1]
-0.31375608 0.23481542 0.086999655 -0.025179228 0.08651847 -0.035090953 -0.016968856 -0.1456187
0.19647746
00000000: a3a4 a0be 7473 703e e02c b23d ab44 cebc
00000010: 9830 b13d 88bb 0fbd 4502 8bbc 121d 15be
00000020: 6331 493e

filter.3.conv2.convR.weight f4 [1, 1, 3, 3, 1]
0.03665555 0.1285778 0.11529261 0.2105368 0.35764182 0.06022565 -0.2934475 0.34330112
-0.05993602
00000000: 2124 163d e6a9 033e 881e ec3d f596 573e
00000010: d41c b73e 2caf 763d c03e 96be 2ac5 af3e
00000020: 797f 75bd

filter.3.conv2.convI.weight f4 [1, 1, 3, 3, 1]
0.071729265 -0.17369954 -0.026671637 0.00062198745 -0.12942255 -0.19672224 -0.13823116 0.20446685
-0.049143918
00000000: cbe6 923d 4bde 31be 7a7e dabc df0c 233a
00000010: 5887 04be 8e71 49be 788c 0dbe c25f 513e
00000020: 224b 49bd

filter.3.conv3.convR.weight f4 [1, 1, 3, 3, 1]
0.010942512 -0.127624 -0.068220735 -0.22025134 0.14097646 0.11463317 0.12590542 -0.1421986
-0.32705763
00000000: 3948 333c deaf 02be 50b7 8bbd 9189 61be
00000010: 225c 103e ccc4 ea3d 5aed 003e 839c 11be
00000020: 1974 a7be

filter.3.conv3.convI.weight f4 [1, 1, 3, 3, 1]
0.025310995 -0.11674622 -0.36697394 0.029232891 -0.525443 -0.05467257 0.0032458135 -0.40322134
-0.20485288
00000000: 0159 cf3c a418 efbd 02e4 bbbe d179 ef3c
00000010: 6f83 06bf 58f0 5fbd b7b7 543b 0773 cebe
00000020: f4c4 51be

filter.3.conv4.convR.weight f4 [1, 1, 3, 3, 1]
-0.22665958 0.20074011 -0.012709091 0.15414 0.38775057 0.018545102 -0.009840998 -0.070998445
0.19691767
00000000: 7319 68be d18e 4d3e cb39 50bc e0d6 1d3e
00000010: 3e87 c63e e6eb 973c 233c 21bc a267 91bd
00000020: c9a4 493e

filter.3.conv4.convI.weight f4 [1, 1, 3, 3, 1]
0.13408752 -0.0009362292 0.040183876 0.04978367 -0.22148275 -0.06672681 -0.0292297 0.050462276
-0.04281065
00000000: 3d4e 093e 476d 75ba d997 243d f6e9 4b3d
00000010: 60cc 62be 11a8 88bd 2073 efbc 88b1 4e3d
00000020: 385a 2fbd

filter.3.conv5.convR.weight f4 [1, 1, 3, 3, 1]
-0.13908085 -0.02216494 -0.25818387 -0.044831876 -0.15725404 0.0017747086 -0.08995882 0.023723138
-0.27663758
00000000: 366b 0ebe 4093 b5bc ad30 84be a1a1 37bd
00000010: 3407 21be 579d e83a 543c b8bd 0757 c23c
00000020: 71a3 8dbe

filter.3.conv5.convI.weight f4 [1, 1, 3, 3, 1]
0.0629597 -0.1572752 0.18525949 0.0058357273 -0.10831069 0.15873769 0.2047354 0.15568434
0.005071495
00000000: 04f1 803d c00c 21be aab4 3d3e a139 bf3b
00000010: ffd1 ddbd 228c 223e 28a6 513e b76b 1f3e
00000020: c92e a63b

filter.3.conv6.convR.weight f4 [1, 1, 3, 3, 1]
0.038359564 -0.056111492 0.1062524 -0.20784108 0.07585314 0.06817418 0.14694366 -0.043492157
0.09907782
00000000: eb1e 1d3d 2ad5 65bd dc9a d93d 4bd4 54be
00000010: e458 9b3d e89e 8b3d 6678 163e d524 32bd
00000020: 50e9 ca3d

filter.3.conv6.convI.weight f4 [1, 1, 3, 3, 1]
-0.18090789 0.30904022 0.119472876 0.16622004 0.16231243 0.08501515 0.2674681 0.045608122
0.0168793
00000000: eb3f 39be 853a 9e3e 32ae f43d 9635 2a3e
00000010: 3b35 263e 6c1c ae3d 94f1 883e 95cf 3a3d
00000020: 7546 8a3c
