Res3dC/Results/Res3dC_sim_in_vivo_20epochs/Res3dC_sim_train_invivo_Res3dC_Model_Tr2400_epoch20_lr2.00e-03.pkl (torch_old, 111830 bytes, 50 tensors)

conv1.convR.weight f4 [16, 1, 5, 5, 5]
000000 ca 82 d9 bc a4 5e 21 3d dd bf 11 3a 97 6f ea 3c
       -0.026551623 0.039396897 0.0005559901 0.028617663
000010 34 11 b1 bb a1 48 6f 3d 5b 8e 96 bc d6 e1 68 bd
       -0.005403662 0.058418874 -0.018378427 -0.056856
000020 49 a8 15 bd 75 2a f8 3b 2a 81 aa bc 65 d5 58 3d
       -0.036537442 0.0075734206 -0.020813543 0.052937884
000030 53 62 16 bd ee e0 a0 bc d4 7f 5d 3c f0 1a c5 bc
       -0.036714863 -0.019638505 0.013519246 -0.024060696
000040 f2 89 ac bc 99 5c 71 3d f5 cc f2 bc a5 a0 e9 bc
       -0.021061871 0.0589262 -0.029638747 -0.028518984
000050 de 28 f7 3c a5 c3 9d bc 05 d2 d2 3b 86 ff 14 3d
       0.030170854 -0.01925833 0.0064337277 0.0363765
000060 22 5b dd bc 7f 6a 83 3c 44 f1 0e bd 56 fd 6c 3d
       -0.027020995 0.016041992 -0.034898058 0.057858787
000070 3b 5e 66 3d ea 57 83 bd 40 a0 39 3d c0 b1 cc 3c
       0.05624221 -0.06413253 0.045318842 0.024987102
000080 31 cc 9a 3c 24 ef 5e bc 20 8d 2b 3d 56 fe 1c bd
       0.018896194 -0.01360682 0.041882634 -0.03832849
000090 dd 7a 20 bd ca 64 ef bc de 72 f1 bc 48 eb 0f 3c
       -0.03917967 -0.029222865 -0.029473718 0.008784123
0000a0 e1 1b b7 3b 82 6a 66 bc 16 9c 58 3c cf d4 d2 3d
       0.00558804 -0.014063479 0.013220808 0.10294496
0000b0 2a ed 09 bd 4c bd 85 bd 2f c0 13 bd 11 e0 ad 3c
       -0.033673443 -0.06530246 -0.036071952 0.021225007
0000c0 ad 51 ce 3c 3a 87 b8 3c cc f1 2f 3c 16 6a c9 3b
       0.02518543 0.022525419 0.010738801 0.0061466796
0000d0 39 16 09 bc 33 d1 a5 3c 3b 8c 50 bd 47 c7 38 bd
       -0.008367115 0.020241356 -0.050914984 -0.04511192
0000e0 8e d7 80 bd 64 ce 96 3d 07 f4 81 39 94 0d fb bc
       -0.06291114 0.07363585 0.00024786612 -0.030646123
0000f0 3c fa c9 3d 83 fa 93 3e 3e c2 bc 3d ed 98 d0 3d
       0.098621815 0.28902063 0.09216736 0.10185418
000100 3a 3f 6d 3c 5f 1f 67 3b c0 da b0 bd 82 a5 56 bd
       0.014480406 0.0035266501 -0.08635473 -0.052403934
000110 6a 38 f1 bd ab c2 22 3c 28 7b 69 3d 29 cc 82 3d
       -0.11778338 0.009934108 0.057002217 0.06386597
000120 d0 78 f6 bc 34 bf 92 bd ba 1b 48 3c 80 b9 a9 ba
       -0.030086905 -0.07165375 0.012213642 -0.001294896
000130 55 e6 6e 3d 42 91 35 bd 9b be 87 3d de a2 99 3d
       0.05832513 -0.04432798 0.06628152 0.075017676
000140 9f 67 33 3d 12 dd 48 bc 32 ae b9 ba a3 5e 09 3d
       0.043799993 -0.0122597385 -0.0014166294 0.03353752
000150 c8 bc 21 3c 8a 2f 98 bb 83 3d 92 3d a5 02 91 3e
       0.009871669 -0.004644339 0.07140639 0.2832233
000160 62 9c 2f 3e bd fc b3 3d fa 71 59 bd 85 6b d8 3d
       0.17149499 0.087884404 -0.053087212 0.10567383
000170 1a 35 ca 3d c3 a1 c6 3d a7 e0 83 bc 3c f1 db bc
       0.098734096 0.09698822 -0.016098334 -0.026848428
000180 c9 1b 07 3d ab 2d 8f 3d 21 7a 9c 3d b5 33 7d bd
       0.032985482 0.06991132 0.07640482 -0.06181689
000190 de f0 04 3d ca 3d 1e bd 3b f5 d5 bb 9c e4 09 bd
       0.03245627 -0.038633145 -0.006529478 -0.033665285
0001a0 16 a4 88 bd 04 4f ba bc 9a 20 eb 3c 85 b4 81 3d
       -0.06671922 -0.022742756 0.02870207 0.063332595
0001b0 c3 74 7f 3d 3d 51 06 bd 2f c6 ad bc 6c 28 51 bc
       0.062367212 -0.03279232 -0.021212665 -0.012765985
0001c0 9c b7 1c 3e 73 56 76 bc 33 bd 8d bd 38 b7 e7 bc
       0.15304416 -0.01503526 -0.069208525 -0.028285608
0001d0 8e 96 62 bd 03 97 53 3c fb 99 b2 bc 86 a8 27 bd
       -0.05531936 0.012914422 -0.02180194 -0.0409322
0001e0 74 3c 8e bd 46 64 05 bc c5 f4 c3 3c 45 84 29 bd
       -0.06945124 -0.008141583 0.023920426 -0.041385908
0001f0 e2 68 7d 3b 1d ef 40 bc 7d e6 cc 3c 69 1d b1 3c
       0.0038667251 -0.011775759 0.02501225 0.02162047
000200 19 54 e9 bc 12 fa 5e 3c bf 34 30 bd a8 ae b7 3c
       -0.028482484 0.013609426 -0.043019053 0.02242215
000210 46 ac 3e 3d 5f df 94 3c ea 5a 6d 3a 23 9e 52 bd
       0.04655101 0.018172918 0.000905438 -0.051420342
000220 98 84 09 3e dc b0 1a 3d 9d 7c 4d 3c 13 2c ad bc
       0.13429487 0.037766322 0.012541917 -0.02113918
000230 1f 6e 5c bd f4 c5 45 bc 76 49 2e bd 0b 79 87 3c
       -0.053815957 -0.0120711215 -0.042550527 0.01653721
000240 70 dd 8e bc 3d 5c 9c 3c 81 0d 8b 3c 08 f4 9f 3d
       -0.017439574 0.019086951 0.016974213 0.07810217
000250 a3 87 2b bd 35 58 d4 3c 62 04 60 bc 65 63 2e bc
       -0.0418774 0.025920967 -0.01367292 -0.010643815
000260 76 d2 93 3c 15 95 43 3b f2 97 86 3c 47 4c 86 3d
       0.018044692 0.0029843498 0.016429875 0.065575175
000270 10 a5 0e bd b8 d1 6c 3c 0f 0b 48 bd f1 4e 2f 3d
       -0.034825385 0.014454298 -0.04883867 0.042799894
000280 92 37 40 bd d4 1a 8d 3d dc d3 51 be b4 ab 01 3e
       -0.046927996 0.06889883 -0.20490974 0.12663156
000290 d4 fb af 3d 42 4b fb 3d 0a da 9c 3d 7e 24 2c 3e
       0.08592954 0.12270214 0.07658775 0.16810796
0002a0 86 7b bb 3d e5 42 a4 3d f0 74 66 3c 9b 33 f5 bc
       0.091544196 0.080205716 0.014065966 -0.029931834
0002b0 eb 1f cf bc ff 32 bb bc 41 6f e1 bc ba 27 c1 3b
       -0.025283774 -0.022851465 -0.02751887 0.0058946284
0002c0 25 ba 9d bd 74 58 bb bc ce 0d 85 3d 7a 6b 4e 3d
       -0.0770152 -0.022869326 0.06496774 0.050395466
0002d0 4f 4d 85 3c e6 52 73 bc be 0a f8 3c dc 8e 49 bd
       0.016272215 -0.0148513075 0.03027856 -0.049208507
0002e0 29 32 38 bd d3 62 c9 bd f9 d7 af be 8c 03 5f be
       -0.04496971 -0.09833302 -0.34344462 -0.21778697
0002f0 2e 87 a8 3d 76 b8 52 bd 97 72 44 bd 3a 7f 4b be
       0.082289085 -0.051445447 -0.047960844 -0.19872752
000300 bf 9c 1a 3c 1c be b0 3d 74 49 81 bd fb 9b 0a bd
       0.009436785 0.086300105 -0.06312838 -0.03384016
000310 00 5a 37 3c 3b 8a 7c bd 51 b5 80 3d 25 ac ef 3c
       0.011190891 -0.061655264 0.06284583 0.02925689
000320 ad 27 78 3d 63 1e 53 3d ab 95 37 3d c7 22 27 bd
       0.060584713 0.05154265 0.04482047 -0.04080465
000330 5c 10 7e bd 7b d5 b9 3c 82 0e 91 bc 5a d9 04 bd
       -0.06202732 0.022684803 -0.017707113 -0.032433845
000340 62 aa ae bb d7 07 0a 3d 09 87 c2 bc 7f 0a 0a be
       -0.00533037 0.033698883 -0.02374603 -0.13480566
000350 e9 67 77 bc 04 17 f2 bc 1f fa 8e 3d be 86 99 bc
       -0.015100458 -0.02955199 0.069813006 -0.018741008
000360 6f e4 6c 3d e2 49 27 bd 4a bd 90 bc 38 91 33 bd
       0.05783504 -0.040841945 -0.017668385 -0.043839663
000370 0e 24 3f bc a4 98 98 bc 16 83 98 3d 15 71 9b 3b
       -0.011666311 -0.018627472 0.07446878 0.004743705
000380 76 da d9 3c 88 b9 06 bd c9 c7 f7 3c 3f eb 57 bd
       0.026593428 -0.03289178 0.030246632 -0.052714583
000390 83 e1 c1 3c 36 06 80 bc 2d 59 b3 bc 2b d7 8d bb
       0.023667103 -0.015627962 -0.021893108 -0.0043286285
0003a0 e9 60 5a bd 72 74 2a 3d da d0 c3 bc be 8c 85 3c
       -0.053315077 0.041614957 -0.0239033 0.016302463
0003b0 df 26 be 3d 6f a5 25 3d 9c fe 04 bd a0 22 7b 3d
       0.09284758 0.040440973 -0.032469377 0.061312318
0003c0 1c bd 2c 3d d6 99 81 bd f6 1f c6 bd 1f ce e7 bb
       0.042172536 -0.0632817 -0.09674065 -0.007074132
0003d0 0c 7c cd 3c d1 59 2d 3d 3d 55 8b bc 97 9d 2b bd
       0.025083564 0.042321984 -0.017008418 -0.041898336
0003e0 f5 f2 4c 3d 46 ef ae bd 89 f9 85 3d 97 0e 82 bb
       0.05003639 -0.085417315 0.06541736 -0.0039690244
0003f0 96 07 3e 3d a9 30 91 bc 1e cc e2 3c c8 db 1e bc
       0.046393953 -0.017723398 0.027685221 -0.009695955

conv1.convR.bias f4 [16]
000000 59 54 83 3c 60 84 a6 3c 85 17 0d 3e 71 60 8e 3d
       0.016031431 0.020326793 0.13778503 0.069519885
000010 46 7c 5c 3e ba a5 01 be 6b cd 21 3e 35 10 d9 bd
       0.21531782 -0.12660876 0.15801017 -0.10598794
000020 5a 65 db 3d 47 67 64 bd 82 3c 88 bd f2 bf b9 3e
       0.10712691 -0.055762555 -0.06652166 0.36279255
000030 5e 9f 90 bd a9 60 12 3d 91 be 13 3d 03 ff 3e 3e
       -0.07061647 0.035736714 0.03607041 0.18651967

conv1.convI.weight f4 [16, 1, 5, 5, 5]
000000 37 e1 19 b9 70 15 45 bd 3e d1 4a 3d 87 aa ce 3c
       -0.00014675116 -0.048116148 0.049515955 0.025227798
000010 ac 3e 85 bb f1 d3 78 bc 2f d4 94 3d 8d c7 58 bd
       -0.004066309 -0.0151872495 0.07267033 -0.05292468
000020 7b 89 15 3d b8 34 94 bd ff 5e 54 bd 47 3f bd bd
       0.036508065 -0.07236618 -0.051848408 -0.09240585
000030 ac 60 99 3c 5a 66 dc 3c 81 60 52 bd 0f bc 02 3c
       0.018722855 0.026904274 -0.051361565 0.007979407
000040 a3 77 96 3d fd 47 62 bc 4e c0 ad 3c 86 ae a1 3c
       0.07347038 -0.013811109 0.021209862 0.01973654
000050 39 8c d4 bc 52 a1 7e b9 55 8e 88 3d 08 cd f3 bc
       -0.02594577 -0.00024283424 0.06667773 -0.029760852
000060 55 9e b5 bc 0a 8b 3e bd 04 fa 3f 3d d4 ea c3 ba
       -0.022170225 -0.046519317 0.046869293 -0.0014947304
000070 d5 48 79 bd e4 f6 8f 3d 1c 16 0c 3c b1 9e 52 bd
       -0.060860474 0.070295125 0.008550193 -0.05142087
000080 cf a6 b7 3a 62 60 bf bd e8 c9 97 3b 51 22 95 3d
       0.0014011505 -0.093445554 0.0046322234 0.07281936
000090 ea 81 2e 3e 2e 85 e2 3d f5 c4 89 3d 1b d9 55 3d
       0.17041746 0.11060558 0.0672702 0.052209
0000a0 93 0b cf bc d4 b7 ce bd 56 6c 90 bd 44 96 13 3c
       -0.025274074 -0.10093656 -0.070519134 0.009007994
0000b0 c6 91 70 bd a8 e2 e4 bb 06 42 e6 ba 25 8b 62 bd
       -0.05873277 -0.0069850273 -0.0017567284 -0.05530848
0000c0 7d 1d 85 3c 2b 20 46 bd a6 df c5 3c 50 82 1f bd
       0.016249413 -0.04837052 0.024154495 -0.038942635
0000d0 82 57 92 3d 4a 69 63 3b 92 ef 95 bd 65 ef df 3c
       0.07145597 0.0034700208 -0.07321085 0.027335832
0000e0 b9 82 05 3b d1 9e 59 bd a5 59 bf 3d 5f df b4 bb
       0.0020372106 -0.053129975 0.0934327 -0.005519792
0000f0 81 72 3b bd ac 77 65 be 3a 7b 94 be c9 2a fd bd
       -0.045763496 -0.22408932 -0.29000264 -0.12361676
000100 d8 bf 2e be f7 a9 15 bd 2d e0 26 3e 0e 06 1c 3e
       -0.1706537 -0.036539044 0.16296454 0.15236685
000110 b2 87 a0 3d b9 81 e7 3d f1 1b fd 3c 31 0e 5f b9
       0.07838382 0.113040395 0.030897113 -0.00021272224
000120 f3 b4 af bb 21 c4 d9 3d a6 93 8a bb ee 46 38 3d
       -0.005362147 0.10633112 -0.004229027 0.04498952
000130 88 f9 59 3d 1a 55 bc 3c 28 51 89 bc 18 c6 4c bd
       0.053216487 0.022989798 -0.016762331 -0.049993604
000140 a2 ba 26 bd d2 66 04 bd 73 40 bc 3c 4f 91 a7 3d
       -0.04070533 -0.03232462 0.02297995 0.08182012
000150 8b 6a a2 3c 68 c7 56 3c 97 f0 4e bd 7c 40 f9 3c
       0.019826194 0.013109066 -0.050522413 0.030426256
000160 03 75 15 bd bf 14 f6 39 ec ba 05 3b 35 ac 3b 3d
       -0.036488544 0.00046936233 0.0020405604 0.045818526
000170 6b 28 87 3d 47 62 cf 3c c5 ab 03 bc bc c5 0f bc
       0.06599506 0.025315417 -0.0080365585 -0.008775171
000180 df 2e 8d 3a dd 65 3d 3d 1d fb b4 bd 20 71 05 3d
       0.0010771415 0.046239723 -0.088369586 0.032578588
000190 a2 c1 46 bd 1b f5 29 bd 24 53 b6 3c 3a c2 32 bc
       -0.048524506 -0.041493516 0.022256441 -0.010910565
0001a0 5f d4 a3 3d 28 8c cc bc 6c 36 c2 3b ef 07 86 3c
       0.07999491 -0.024969175 0.0059268977 0.016361205
0001b0 3a 9e a4 bc f2 b5 f2 bb fa 51 e8 3c 4c 5f 5f 3c
       -0.02009498 -0.0074069435 0.028359402 0.01363356
0001c0 4a cc f6 bd 62 28 98 bc 7b ba 9e bd cf 25 fb 3c
       -0.12050684 -0.018573944 -0.07750412 0.030657677
0001d0 99 4d d4 3c ad 66 c8 bc a5 0d 17 3c b6 3d 6a bd
       0.025915908 -0.024463022 0.009219562 -0.05718776
0001e0 e7 1c 0a 3d 30 6c d2 bb e9 5c e2 3b 49 6a 99 3c
       0.03371897 -0.0064215884 0.0069080484 0.018727439
0001f0 11 0f ff bc 98 79 b6 3a 05 86 f0 3c c3 80 5d 3c
       -0.031135114 0.0013921736 0.02936078 0.013519469
000200 52 c0 ee 3c c1 8d 89 bc d0 5a 71 bd 40 b0 93 3c
       0.02914444 -0.016791226 -0.058924496 0.018028378
000210 c6 bd d8 3d fd de 3e 3c 3d 1e 82 3b a7 21 07 bd
       0.105830714 0.011649844 0.00397089 -0.032991078
000220 72 97 80 3d d2 b6 15 3d d9 5f 5c bd 10 b3 80 3d
       0.06278886 0.036551304 -0.053802345 0.062841535
000230 b1 6f 43 3d 9d 19 5a 3c 8d b4 92 3c e9 f7 60 bd
       0.04771394 0.013311771 0.017908359 -0.054923926
000240 15 3d 9d bd e4 46 0f bd 17 1f 5a bd eb 59 bf 3a
       -0.07677666 -0.034979716 -0.053252306 0.0014598941
000250 96 2f 6a bd 65 89 90 3c d3 31 5d bd 84 1e b3 bd
       -0.057174288 0.01764364 -0.054002594 -0.08746055
000260 6e a4 7f 3d b1 3e 80 3b 65 e6 83 3c 36 e9 04 3d
       0.06241267 0.0039137234 0.016101072 0.03244897
000270 2c e5 c2 3c 6b 79 a6 3d e7 87 e0 3c 83 b1 15 bc
       0.023790918 0.081286274 0.027408553 -0.00913656
000280 dc f5 75 3b 72 4f dd bd ee 37 12 3e 07 ac 70 3b
       0.0037530577 -0.108061686 0.14279148 0.003672363
000290 b9 5f 21 be 71 d8 60 3c 83 d1 0b 3e bb 4f 0f 3e
       -0.15759172 0.013723479 0.13654141 0.13995259
0002a0 b5 2f 0b bd 41 f1 e4 3d 64 d6 46 3c 2a bb 98 3d
       -0.033981044 0.11178828 0.012136076 0.07457574
0002b0 06 60 26 3e 52 cd e4 bc 15 df a4 3c 86 35 b8 bc
       0.16247568 -0.027929936 0.020125905 -0.02248646
0002c0 4f ed 81 3d 5a 7e e4 bc f4 87 89 bd f1 b6 98 bc
       0.06344091 -0.02789228 -0.06715384 -0.01864192
0002d0 9c 0a 87 bd ca 39 ba 3d 4a ad 3b be eb a7 d0 bd
       -0.065938205 0.09093054 -0.18327823 -0.10188278
0002e0 42 90 db bc f7 7e 9f 3d c5 68 aa 3d 5c 55 27 3e
       -0.026802186 0.077878885 0.083207645 0.16341156
0002f0 15 af ca 3d 68 c2 4d bd 6b 5a a3 3c 9b c5 85 bc
       0.098966755 -0.05023423 0.019940576 -0.016329577
000300 9a 74 c3 bd 36 78 ed bd b1 49 d2 bc 43 0f 5a ba
       -0.09543724 -0.11595194 -0.025669904 -0.0008318314
000310 fc f7 44 3b d6 c6 c5 3c 87 a4 50 bb 70 cc 54 3d
       0.0030055037 0.024142664 -0.0031836347 0.05195278
000320 49 59 21 bc 75 b3 3f bd d7 5a 68 bd 1e f3 79 bd
       -0.009847947 -0.046802003 -0.056727257 -0.06102287
000330 18 0c 35 3d d0 91 40 bd 40 d6 84 bd b1 e6 8f 38
       0.044200987 -0.047014058 -0.064861774 6.861741e-05
000340 dc fe 35 bb 5d 62 97 bc 88 1d d2 3c 28 7c 88 3b
       -0.0027770316 -0.01847952 0.025648847 0.004165191
000350 32 75 7b be b7 c1 7b 3a aa 0b 32 bc b3 ed 96 3d
       -0.24556425 0.0009603756 -0.010867039 0.07369556
000360 f7 07 48 3d 0c 89 fe bd f2 2d 07 3e 97 4f 90 bc
       0.04883572 -0.12428483 0.1320112 -0.017616076
000370 a1 d6 78 bd bb bd 9d 3d 58 f1 91 bd 90 34 51 3d
       -0.06075156 0.07702204 -0.07126111 0.051075518
000380 95 4a 2d bd 67 bc aa 3b 48 dd dc 3c 72 2a 45 3c
       -0.042307455 0.0052104476 0.026960984 0.0120340455
000390 a2 3d c0 bc ab 3a b4 bc 55 9e 36 3d 40 03 8a bb
       -0.023466889 -0.022000631 0.04458459 -0.004211813
0003a0 77 47 77 bd 89 8f 84 3d 2f c5 a3 3d e3 88 20 3d
       -0.06037089 0.0647269 0.07996594 0.039193045
0003b0 b4 61 e4 3a 12 2d 1b 3d 25 65 4e bd ae 9b 60 3d
       0.0017424137 0.03788478 -0.050389428 0.054835968
0003c0 84 5a 1e bc 68 cc 29 3d 01 10 84 bd cf de 00 3d
       -0.009665135 0.041454703 -0.06448365 0.031462487
0003d0 ef 94 9a bd d8 fd d3 3c 50 d4 eb bc 4f a2 a6 bc
       -0.07547938 0.025877878 -0.028787762 -0.020341067
0003e0 e5 a5 ee b8 e3 fb 9f bb 16 87 f7 3c ce 63 22 bd
       -0.000113796246 -0.004882322 0.030215781 -0.039645962
0003f0 8f 0e a6 3c 57 37 68 b8 f9 37 e7 bc 17 98 2e bb
       0.020270614 -5.536465e-05 -0.028224932 -0.0026640946

conv1.convI.bias f4 [16]
000000 c9 fa a6 bd 15 93 00 be 54 fe 62 bc 2c f0 32 bc
       -0.08153302 -0.12556107 -0.013854582 -0.010921519
000010 a8 52 bd bd 19 61 08 bc 17 a8 d7 3e aa c1 d0 3e
       -0.09244281 -0.008323931 0.4212043 0.40772754
000020 7a 1e 06 bd b0 ae a6 3d 03 45 22 3e 51 10 8a 3e
       -0.03274391 0.08138788 0.15846638 0.26965573
000030 c0 a4 4a 3e a4 f2 04 3d 08 cb aa 3c 7b ad a6 3e
       0.1978941 0.032457963 0.020848766 0.3255423

bn1R.weight f4 [16]
000000 07 b7 58 3f d1 fe aa 3e af 91 36 3e 3c 9f 22 3f
       0.8465428 0.33397534 0.17829011 0.6352422
000010 a1 b6 42 3f 56 64 03 3f 21 d4 0c 3f 86 34 2d 3f
       0.7605992 0.51324975 0.55011183 0.6765827
000020 f3 ad 08 3f 6c 37 df 3d 58 6c e5 3e 74 64 da 3e
       0.53390425 0.10899243 0.44809222 0.42654765
000030 af ba c3 3e 26 a9 21 3f 5a 57 6c 3e 60 8d 1b 3f
       0.38228366 0.63148725 0.23080197 0.60762596

bn1R.bias f4 [16]
000000 86 35 ee bb 53 f7 a2 3e ff 7c ff 3e 2b a7 f3 3d
       -0.007269564 0.31829318 0.49900052 0.11897119
000010 ae b3 9c be 15 65 d1 3e 00 64 ea 3e 04 6c bb 3e
       -0.30605835 0.40897432 0.4577942 0.36605847
000020 98 78 68 3e d3 28 1d 3e 3b 04 a6 3e b1 e3 94 3e
       0.22702253 0.15347604 0.32425103 0.29079965
000030 e2 94 02 3f 79 d1 68 bd 59 85 47 3e 68 fd 8f 3e
       0.5100843 -0.056840394 0.19484462 0.2812302

bn1R.running_mean f4 [16]
000000 de 10 c9 3d 18 5b 15 3e f6 66 19 3e fe 51 a7 3d
       0.0981767 0.14585531 0.14980683 0.08169936
000010 ae 63 9d 3e 8b 58 f5 bd 7c d6 86 be 53 59 03 bf
       0.30740112 -0.11979779 -0.26335514 -0.5130817
000020 3c b2 0e 3e 99 ec 0d be 9b 8f 68 be de d4 bd 3d
       0.13935179 -0.13859786 -0.22711031 0.09269117
000030 2e 5f 89 be 65 50 a2 3b f4 29 63 3c 6d c1 0f be
       -0.2683043 0.0049534314 0.013864983 -0.1403863

bn1R.running_var f4 [16]
000000 0b ff 30 3d aa a4 2b 3c 5a 39 9f 3c e7 fe 74 3c
       0.043211978 0.010476271 0.019436527 0.014953352
000010 58 f4 77 3c 6d 7d b1 3c 70 ad 3b 3c 82 4c ac 3c
       0.01513394 0.021666253 0.011454925 0.021032576
000020 9e 99 b9 3b 05 05 62 3c 55 88 ce 3c 6a 7e e1 3c
       0.0056640645 0.013795142 0.025211493 0.0275261
000030 c6 97 05 3c 48 eb 2a 3c ab ee 23 3c 02 a0 98 3c
       0.008153861 0.010432072 0.010005633 0.018630985

bn1I.weight f4 [16]
000000 34 58 f2 3e 1a 20 ed 3e 25 1a 7e 3a e1 d5 10 3f
       0.4733292 0.46313554 0.0009693227 0.56576353
000010 d3 95 28 3e ed f8 25 3f 5b cd ea 3e 71 f9 21 3f
       0.16463403 0.64832956 0.458598 0.6327124
000020 9d 92 bf 3e 3e 02 44 3f 5d 9f e9 3e d0 53 30 3f
       0.37416545 0.7656592 0.45629397 0.6887789
000030 d5 ad 8f 3e ec b2 2f 3f e9 f7 98 3e 21 33 19 3f
       0.2806231 0.6863239 0.2987664 0.5984364

bn1I.bias f4 [16]
000000 eb aa f6 39 c9 cc 08 3f 9d b0 fc bd 76 c3 56 3e
       0.0004704812 0.5343748 -0.12338374 0.20973
000010 0a 5b 39 3e ec 49 9a 3e d3 20 26 3f 15 95 b8 3e
       0.18101135 0.30134523 0.64893836 0.3605124
000020 09 e4 ad 3e 17 73 85 bf 16 8b a6 3e 37 89 4c be
       0.3396304 -1.0425748 0.3252799 -0.19974218
000030 f1 70 f8 3e 22 c8 03 3e 96 23 21 3e 41 8e 95 3e
       0.48523667 0.12869313 0.15736231 0.29210094

bn1I.running_mean f4 [16]
000000 41 f6 88 bd a5 88 d6 bd 75 49 fa 3d 9b 8a 74 3d
       -0.06687594 -0.104752816 0.12221042 0.059702497
000010 a3 8f f8 3d 92 c1 0a be d5 6b 14 3f 3d 14 9b 3e
       0.121367715 -0.13550404 0.5797704 0.30288878
000020 41 b0 96 3d f7 dd d5 3c fe 36 b8 3d ba a5 21 3f
       0.073578365 0.026106818 0.08994864 0.63143504
000030 a5 30 02 3e 28 67 8a 3d 05 a0 70 3d ea cd 02 3f
       0.12713869 0.06757957 0.058746357 0.5109545

bn1I.running_var f4 [16]
000000 85 af 93 3c fd 52 ff 3b 1c 42 a1 3c 5e cb 56 3c
       0.01802803 0.0077918754 0.019684844 0.01311001
000010 7c bd 47 3c 7f 01 a7 3c 52 79 0b 3c a7 c9 8e 3c
       0.012191173 0.020386456 0.008512812 0.01743014
000020 44 f9 90 3b 01 16 f1 3c 30 04 b7 3c 41 e1 f5 3c
       0.004424246 0.029429438 0.022340864 0.030014636
000030 8c ed f0 3b 19 8d cd 3c a4 69 38 3c 9e 51 8d 3c
       0.0073525365 0.025091695 0.011255655 0.017250832

conv2.convR.weight f4 [8, 16, 3, 3, 3]
000000 11 65 14 3c 23 8e 92 3d c0 6e 72 3d b1 15 01 bd
       0.009057299 0.07156017 0.05918765 -0.031514827
000010 67 76 8c bd c0 c7 a1 bc 2c b4 85 3d 3c 1f c7 3b
       -0.06858521 -0.019748569 0.06528506 0.0060767215
000020 24 9d f6 3c 5a 50 84 bc 8a 2a 0e bd 6b 0a 15 bb
       0.030104227 -0.016151596 -0.034708537 -0.0022741805
000030 25 37 96 bd 9b 3a aa bd 3e 15 9e bd e6 a0 f5 bc
       -0.07334737 -0.08311959 -0.077188954 -0.029983949
000040 85 2c ae bd 0b f8 50 bd fa 18 13 bc 9a c4 35 bb
       -0.08504585 -0.051017802 -0.008978123 -0.0027735592
000050 52 64 4b 3d b8 48 52 bd e5 48 fc 3b 17 1c 1b bd
       0.04965622 -0.05133888 0.0076991194 -0.037868585
000060 a0 9c 29 3d 8b d5 53 bd 83 67 0e bb 97 7b 19 bd
       0.041409135 -0.051717322 -0.0021729178 -0.03747138
000070 04 b6 95 3d c4 12 b0 bc 2e c2 a8 bb 4f 90 ef 3c
       0.07310107 -0.021493323 -0.005150101 0.029243616
000080 69 e4 2e bc a2 18 cb 3c 9b 8d ae 3c ca cd 9d bc
       -0.010674574 0.02479202 0.021307757 -0.019263167
000090 cc 1a 38 bd 46 6d 2e bd 66 5f d8 bc 4c fe 51 3b
       -0.04494743 -0.04258468 -0.026412677 0.0032042442
0000a0 40 fb 28 bd 41 a9 65 bd 92 c7 4b bb 9e 22 f7 bb
       -0.041255236 -0.056069616 -0.0031094295 -0.0075419685
0000b0 3e db 89 3b 85 e5 7d 3d 0e 91 1a bb 16 b1 99 3c
       0.004207044 0.061986465 -0.0023584994 0.018761199
0000c0 12 94 a3 bd 55 80 49 bd fe dd c0 bd db 26 66 3b
       -0.079872265 -0.049194653 -0.09417342 0.0035118375
0000d0 25 72 ab bc 3c 82 21 bd 2b 9f 9b 3d 22 70 65 3e
       -0.020928452 -0.03943084 0.07598718 0.22406057
0000e0 95 26 1a 3e 6a 2f 02 bd 92 bc ee 3d bb 1d 4b 3b
       0.1505378 -0.0317835 0.11657061 0.0030993063
0000f0 6f fa 15 bd 29 05 c7 3c e3 3c 07 3d 1f 36 fa 3d
       -0.036615785 0.024294453 0.03301705 0.12217354
000100 b4 08 4e 3d ff b5 53 3d a2 f8 55 3d aa f2 86 3d
       0.05030127 0.051687237 0.052239068 0.06589253
000110 c4 08 8e 3d 34 fb 40 bc 62 d2 84 3b 4d 81 e2 3c
       0.06935266 -0.0117786415 0.0040534 0.027649546
000120 16 49 2d bd 2b be ea bd d5 41 e2 bd 0d e4 9c 3b
       -0.04230603 -0.11462053 -0.11047713 0.004787928
000130 4a f0 b0 bd 82 c2 bb bd ce d3 52 bd 26 37 9a bd
       -0.086395815 -0.09167959 -0.051471524 -0.0753005
000140 99 1f 42 bd 49 40 b9 3c 07 2c a0 bd f0 62 55 bd
       -0.047393415 0.022613661 -0.078208975 -0.052096307
000150 a7 1b 72 bc 59 0d 19 bd f5 f1 18 3b dd f6 19 bd
       -0.014777101 -0.037366245 0.0023337577 -0.037588943
000160 f4 54 39 bd a2 6c 02 bb af 9e 15 bd 29 f7 d9 3c
       -0.045247033 -0.0019901176 -0.036528286 0.026607113
000170 c5 76 ea bd 61 35 d1 bd e2 e8 81 3d df 6d d4 bd
       -0.11448435 -0.10215259 0.06343247 -0.10372519
000180 a9 85 5d bc 8a 0a 8c 3a 62 74 7d bc d7 d0 e5 bc
       -0.013520637 0.0010684293 -0.015469642 -0.028053684
000190 0c 2d dc bc b8 df 9c 3b 19 e5 e7 bb fb c4 50 3d
       -0.026876949 0.0047874115 -0.007076871 0.050969105
0001a0 8d 0f 09 3b d5 a4 45 3d e5 c4 9e 3d 57 88 95 3d
       0.002091381 0.0482529 0.077523984 0.073013954
0001b0 2d a8 67 bc 38 ab cc bc 75 57 08 3a d9 8a 42 bd
       -0.014139217 -0.024983987 0.00052010204 -0.047495697
0001c0 78 69 42 bd 4b e9 87 bd 3f 31 3c bd 47 f0 3f bd
       -0.047463864 -0.06636294 -0.045945402 -0.046860006
0001d0 9f e8 f0 3b 91 0d f4 bc 1f f2 54 3b e0 17 f4 bc
       0.0073519493 -0.029791625 0.0032492948 -0.02979654
0001e0 1c 4a bc bd 2f c3 fa bb 57 4a 7b bd 43 04 81 3b
       -0.09193823 -0.007652662 -0.061350193 0.0039372756
0001f0 b3 53 d4 bb 7a b1 45 bd 5c f0 44 bd d4 a7 52 3c
       -0.0064797043 -0.048264958 -0.048080787 0.012857396
000200 eb 21 6b 3d a2 2d 72 3c 6b fd 07 bc 67 3d 3f bc
       0.057405394 0.0147813875 -0.008300166 -0.011672354
000210 af 5d c1 bc 0b 9b 6f 3c f4 71 ff 3b 50 71 cc bc
       -0.023604242 0.0146243675 0.0077955667 -0.024956375
000220 96 80 be bc 2f bb a6 3b 01 8f 41 bd b8 cf b3 bc
       -0.023254674 0.005088232 -0.04725552 -0.021949634
000230 7f db 7c bd 66 70 ad 3c 39 f2 2c 3d 7b 64 45 bc
       -0.061732765 0.02117176 0.04222319 -0.012047882
000240 5e 92 d4 3c 3c 67 a6 3d 3e 73 8e 3b 81 54 82 bc
       0.0259487 0.08125159 0.004347234 -0.015909435
000250 5e 63 46 3d c4 99 76 bd 63 e0 7e 3d 1a 1f c6 3d
       0.048434608 -0.060205236 0.06222571 0.09673901
000260 a1 77 59 3d be 98 d7 3c f9 81 1f 3d c6 7e 94 3d
       0.053092603 0.02631795 0.03894231 0.072507426
000270 18 0a 19 3d 50 41 7b bd bf df 6b 3d 42 d2 a0 bb
       0.03736314 -0.061341584 0.057586428 -0.004907877
000280 ec 32 95 3c 26 f6 99 bc f7 88 9c 3d c8 25 ad 3d
       0.018212758 -0.01879413 0.076433115 0.08454472
000290 47 7b 20 3d 26 54 55 bc 14 89 dd bc 24 b6 1a bd
       0.039180066 -0.013020551 -0.027042903 -0.03777136
0002a0 9a 04 4d bb 1c 05 b7 bb 38 b3 83 bd 5c 1e 14 bd
       -0.003128326 -0.005585326 -0.06430668 -0.036161765
0002b0 b3 f9 01 be 32 e5 3e 3b 75 44 ac bd 77 2b 23 be
       -0.12692909 0.002912831 -0.08411495 -0.1593455
0002c0 b8 07 33 be 2b 1f db bd 3b 7f cb bd b5 01 84 bd
       -0.17483413 -0.10699304 -0.09936377 -0.06445638
0002d0 da 94 13 3d 22 eb c3 3b 03 df 8c 3b 44 fa a5 bb
       0.036030628 0.0059789577 0.004299046 -0.0050652344
0002e0 74 0d e1 3d 82 1e 66 bd c8 ab 2c 3d 62 43 95 bb
       0.10988894 -0.05618144 0.04215601 -0.004555152
0002f0 b4 ce 84 3d 5f 15 3a bd 19 a2 99 bb ac 23 50 bd
       0.06484738 -0.045430537 -0.004688513 -0.05081527
000300 3c b1 07 bd ea 67 bb 3d 9c 01 ef 3a 30 0d be bc
       -0.03312801 0.091506794 0.0018234733 -0.023199648
000310 7c b4 5f 3d e3 cc 84 bd c3 06 36 3d d8 d2 0e bd
       0.054615483 -0.064843915 0.044440042 -0.034869045
000320 1c d7 5e 3c e0 ed d8 bc 0c f1 5c 3d 5f 3f 44 bc
       0.013601091 -0.026480615 0.053940818 -0.0119779995
000330 74 43 3b bc 89 bd c5 3d f4 57 6b bc 41 6a 2e bc
       -0.011429656 0.096552916 -0.014364231 -0.01064545
000340 92 0b bb 3d 85 40 42 3c b7 92 6d bb b7 7c b5 3d
       0.09133066 0.011856203 -0.003625078 0.08861678
000350 93 a0 9b bd f1 89 69 3c 50 24 75 3d c3 4c b6 bc
       -0.075989865 0.014254079 0.059849083 -0.0222534
000360 54 91 5c 3c e9 3d 6e 3d ce ca aa 3c 98 b1 33 bb
       0.013462383 0.05816451 0.020848658 -0.0027419087
000370 d8 65 70 36 26 ee ab 3c 8f 96 4f bb 63 1f 5d 3d
       3.5822068e-06 0.020987581 -0.0031675433 0.05398501
000380 43 96 c5 bc 3f 6b 9a 3c 96 56 2a 3e b3 58 90 bc
       -0.024119502 0.018849967 0.16634592 -0.01762042
000390 db f2 14 b8 5f 63 72 3c 63 ad c8 3c b4 a0 06 bd
       -3.5512126e-05 0.0147942 0.02449674 -0.032868102
0003a0 fc be ef 3c 96 ae 21 bd 42 4e 91 3d fd 7f 08 be
       0.029265873 -0.03947314 0.070950046 -0.13330074
0003b0 b7 6f 52 3d fa 5c 3c 3d 23 c6 1b be 2a c3 80 3d
       0.05137607 0.045987107 -0.15212302 0.062872246
0003c0 cd b4 59 3d 21 6d ad bd bd 74 41 3d a6 10 bc 3b
       0.05315094 -0.0846808 0.04723047 0.0057392893
0003d0 6d 23 08 3c 8f 52 93 3d c5 12 45 3c b9 b9 2f 3c
       0.008309227 0.07193481 0.012028401 0.010725432
0003e0 f4 c1 16 3c b7 44 8e bc 7b 4f 3c bc 2d 0b a0 3c
       0.0092015155 -0.01736675 -0.011493559 0.019536579
0003f0 ee df 4d 3d 76 f8 72 3b 8f 8e 3a 3c a0 8b 8d 3d
       0.050262384 0.0037074364 0.011386528 0.06911397

conv2.convR.bias f4 [8]
000000 2f 8d 9c be c8 c2 4c 3e f9 2f 40 bd 9e b6 0b 3e
       -0.30576465 0.19996178 -0.04692075 0.13643882
000010 16 b5 8e 3c 49 1f ab 3d 6a ec bc bd 9a 06 96 3d
       0.017420333 0.083555765 -0.0922478 0.07325478

conv2.convI.weight f4 [8, 16, 3, 3, 3]
000000 03 ce d8 3c ae ba e3 bc f0 e0 41 bd 25 84 9e 3c
       0.026465422 -0.027798977 -0.047333658 0.01935012
000010 c0 a5 bc 3b c2 44 aa 3c d0 21 23 3d 0a 28 58 3d
       0.0057570636 0.02078474 0.039827168 0.05277256
000020 17 99 e8 bc e4 3d 8c 3c 8d 9f 8e bd a2 b1 31 bd
       -0.028393311 0.017119355 -0.06964026 -0.043382294
000030 6b 81 3c 3d ba a5 41 bd a8 bf 8b bc 24 5f 0c bd
       0.04602186 -0.04727719 -0.017059162 -0.03427042
000040 8c e7 ac bc c6 fb 18 3c 92 da 53 bc 81 7e ef 3c
       -0.021106504 0.009337371 -0.012930529 0.029235126
000050 c3 70 df bc 90 21 58 bd 7a 74 4f bd f5 d1 9e bb
       -0.027275449 -0.052766383 -0.05064819 -0.004846806
000060 93 f4 20 bd 8f dd 53 3c 56 e4 de bc 70 ba 0d 3d
       -0.039295744 0.012931242 -0.027208488 0.03460163
000070 5c 2d f7 bc d2 10 ae 3b 22 62 4a 3c 9c ed 60 3c
       -0.030172996 0.0053120637 0.012352498 0.0137285255
000080 80 ad 88 bc 6e ec 4a bc 09 37 7c bc 4a fa f3 3c
       -0.016684294 -0.012385471 -0.015393981 0.029782433
000090 7d e1 29 bd 19 ce 98 3c b9 07 ab 3c 45 f6 81 bc
       -0.041474808 0.018652963 0.020877706 -0.0158645
0000a0 20 1f 7f 3d f7 3a 38 3d 29 46 43 bd 19 fb f6 bb
       0.062285542 0.04497811 -0.04767433 -0.0075372574
0000b0 e9 3a 24 3b 41 96 0d bd ea 45 cb bc 4e e6 b5 bc
       0.0025059527 -0.03456712 -0.024813611 -0.022204544
0000c0 93 70 0a 3d 15 b7 bb bc b9 a2 45 bd 63 0f 1e bd
       0.033798765 -0.022914449 -0.048250888 -0.038588893
0000d0 69 c6 2a bd 08 4e 03 bd 70 c3 12 be 97 50 1c be
       -0.041693125 -0.03205684 -0.14332366 -0.15265118
0000e0 4f e4 67 be 0c c8 9f bd 05 20 1d bd 85 ab 5c bd
       -0.22645687 -0.07801828 -0.038360614 -0.05387451
0000f0 74 33 14 3d 49 93 6e 3d f6 23 69 3d 20 a2 93 bc
       0.036181882 0.05824593 0.05691906 -0.018021643
000100 13 36 eb bc d3 88 28 be 2a fd 35 bd 81 6c ab bd
       -0.028712308 -0.16458444 -0.04443089 -0.08370305
000110 c6 e9 64 bd e5 d7 39 3d 72 98 38 3d 5c 61 16 3b
       -0.055887006 0.04537191 0.04506726 0.0022946214
000120 ba 3d 85 b9 85 b1 4c bd 70 de e1 bd 33 71 3c 3d
       -0.00025413727 -0.049973983 -0.11028755 0.046006393
000130 98 be 35 bc 1a 64 4b 3a e5 7a a2 3d a0 c5 fc 3c
       -0.011092804 0.0007758752 0.079335965 0.030855954
000140 f9 bb 8c 3d 33 1d e8 3b 94 5a da 3c ca 46 5c 3c
       0.068717904 0.007083559 0.02665452 0.013444612
000150 65 67 1a 3d 9d 72 b8 bb c3 63 52 3d a0 77 1b bb
       0.03769626 -0.0056288973 0.05136467 -0.0023722425
000160 8d 40 1f 3d d3 99 fb 3c b9 02 39 3d 8d 85 5a 3d
       0.03887992 0.030712998 0.045168612 0.05335002
000170 9b da aa 3c cc 9b 3b bc a5 63 d7 bc e9 35 c1 bc
       0.020856192 -0.011450719 -0.026292631 -0.023585277
000180 5a fc 1b 3b 40 e6 21 3d 85 c1 57 3c f2 e0 8d 3c
       0.0023801536 0.039526224 0.013168697 0.017319176
000190 50 87 92 3c 17 1f 34 3d 26 f8 67 bc 20 4c b7 3c
       0.017886788 0.043974962 -0.014158284 0.022375166
0001a0 c9 1a ae 3c 2d ec 32 bc 3d 59 2d 3c 91 dc b5 3c
       0.021253007 -0.0109205665 0.010580358 0.0221999
0001b0 e8 7a c6 bc 44 a4 b7 3c f7 46 d3 3c 43 63 1d bd
       -0.024228528 0.022417195 0.025790675 -0.03842474
0001c0 52 db 21 3c e7 22 09 3b 17 d4 86 3a be 9c 1b bc
       0.00987895 0.0020925344 0.0010286596 -0.0094978195
0001d0 75 e0 a5 bb 1f 07 ff bc c7 19 93 bc 7f 70 41 bc
       -0.0050621578 -0.031131325 -0.017956628 -0.011806606
0001e0 22 7f ad bd 63 21 a9 bd 2c ac 8b bd 14 76 1f bd
       -0.08471514 -0.08258321 -0.068199486 -0.038930967
0001f0 aa dc 38 bd 6c b9 11 3d ce 39 00 bd 45 fe a4 ba
       -0.045132317 0.035577223 -0.031305127 -0.0012587985
000200 8a 68 c7 ba f1 9b b0 bb 3b 90 4a bd bd d8 f6 bc
       -0.001521365 -0.0053896834 -0.049453955 -0.030132646
000210 b1 6d 32 bc d2 b3 ff bc 6d 95 29 3c c4 6b 88 bd
       -0.01089041 -0.031213675 0.010350567 -0.0666118
000220 49 97 63 3d dd 92 67 bd cb df fc 3b 2e 52 18 3d
       0.0555642 -0.056536544 0.007717108 0.037187748
000230 0f a1 62 3c c9 10 27 bb 5e c2 6c bd cd c6 0a 3c
       0.013832345 -0.0025492182 -0.05780255 0.008470249
000240 5f 03 cd ba 3d a1 a6 3d 9d 7e 39 bc 49 89 0d bd
       -0.0015641263 0.081362225 -0.011321691 -0.034554753
000250 53 fa 6f 3b 10 82 43 3d 88 25 c1 39 24 d3 38 bd
       0.003661771 0.04773146 0.00036839792 -0.045123234
000260 5e cc e1 3b cf 47 f1 bc 77 94 c1 bc e8 03 b5 bc
       0.0068908175 -0.029453186 -0.023630364 -0.02209659
000270 20 77 91 bb bf fd 01 bd 8a eb 9b 3c c8 1d 3f 3d
       -0.0044392496 -0.03173613 0.019033212 0.04665926
000280 fd 49 6a bc 7a 81 4b bc 5c 5b c1 3c 5b 4d 86 3c
       -0.014299867 -0.012421006 0.023603134 0.016394308
000290 0d 51 f5 bc 47 90 03 3c c5 21 48 3d 94 54 7f bd
       -0.029945875 0.008030004 0.04886033 -0.06233652
0002a0 4e 8e 8f 3c 24 ab b7 bb f3 a2 97 bb ae 38 24 3c
       0.01752391 -0.0056051183 -0.0046275794 0.010023279
0002b0 df 72 88 3d 3a 6f 96 3d 86 7f c4 bb b1 42 90 bd
       0.06662535 0.073454335 -0.0059966473 -0.070439704
0002c0 17 ac 1f bc 9e c7 85 3c d8 85 35 bd 0a b4 24 bd
       -0.009745619 0.016330536 -0.044317096 -0.04021076
0002d0 6c 4a f2 3c fc dd dd 3c 3f 7e d2 bc b8 9e 01 3c
       0.029576503 0.02708339 -0.025694964 0.007911377
0002e0 7b 11 27 bd e2 a4 b2 bb 61 8d 2b 3b a3 34 55 3d
       -0.040788155 -0.0054517845 0.0026176798 0.05205215
0002f0 9c 19 01 bd e8 b4 89 bd ef d3 53 3d e2 d7 db 3a
       -0.031518564 -0.06723958 0.051715788 0.0016772712
000300 ae 53 b7 bc f6 b7 82 bd 6d 6f 22 bd 3c ca 01 bc
       -0.022378769 -0.06382744 -0.039657045 -0.007921752
000310 73 c1 87 bc fc 20 1b bd 8e 82 b6 3d aa cd a6 3b
       -0.016571736 -0.037873253 0.0891162 0.005090435
000320 ac e6 ad 3d af 2e 50 bc 7d 3e 01 3d 7f 6e 2c 3d
       0.08491263 -0.012706443 0.031553734 0.042097565
000330 65 da 75 bc 19 3b ca bc f2 a3 fb bc f4 a2 4c 3c
       -0.015005683 -0.024686383 -0.030717824 0.012490023
000340 19 63 cc 3c 48 35 20 3d 24 42 fb 3c 17 8d 29 3d
       0.024949597 0.039113313 0.030671187 0.04139432
000350 95 d7 f4 bc 32 19 52 3b c1 ee 36 bc 02 ab e5 ba
       -0.029887954 0.0032058475 -0.011165322 -0.0017522278
000360 ab e0 14 3d 05 c6 a0 3c d6 d3 56 3c ea 2a 7e 3c
       0.036347073 0.019625673 0.013112029 0.015513161
000370 4e 7f 96 3c 94 4e b2 bc ff fb 16 bd 08 e8 ed 3c
       0.01837125 -0.021765985 -0.036861416 0.029041305
000380 aa 11 3a bc 0a 2f 05 3d 4e 96 e9 bc 1b 95 8e 3d
       -0.0113567505 0.032515563 -0.028514054 0.06962033
000390 23 5d 96 bc aa be ee bc 50 5a d1 3c 6e ad 36 3c
       -0.018354958 -0.02914365 0.02555576 0.011149747
0003a0 2e 05 28 bc 72 0e a6 3c 84 0f b7 3d 82 9a 4d 3d
       -0.010255141 0.02027056 0.08938506 0.05019618
0003b0 b5 dd 41 3d 5a 6e d3 bc ba b1 18 3b 4c 45 75 bd
       0.047330577 -0.025809456 0.0023299293 -0.05988054
0003c0 03 de f9 3c d3 2c 88 3d 3e a1 f7 3c 82 6b b3 3c
       0.030501371 0.066491745 0.030228253 0.02190185
0003d0 e3 99 8d bc 3f 5d cb 3c fc f6 4d 3d 66 bb 87 3a
       -0.017285293 0.024824737 0.05028437 0.0010355532
0003e0 6d 64 24 bd 5b b1 c0 3d 4d 58 2a bc 1d 41 bb bc
       -0.040134836 0.09408828 -0.010397029 -0.022858197
0003f0 8c c5 fb 3c 69 42 9e bc 9a 93 bc 3c 56 b3 35 3d
       0.030733846 -0.019318776 0.0230196 0.04436048

conv2.convI.bias f4 [8]
000000 d8 d3 16 3e 21 18 7e be 84 03 9e 3d 6f 0d dd bb
       0.1472925 -0.24813892 0.07715514 -0.006745986
000010 e0 4b ca 3b 2c 6f 26 3c e1 b6 93 bd e0 1a 4e 3d
       0.006173596 0.010158341 -0.07212616 0.0503186

bn2R.weight f4 [8]
000000 23 b7 98 3e b9 78 3b 3f 9b d2 9e 3e 7d 61 1b 3f
       0.29827222 0.73231083 0.31020054 0.6069563
000010 0c 13 f5 3e 8d 57 74 3e a1 a5 b0 3e 37 18 ff 3e
       0.47866094 0.23861523 0.34501365 0.49823162

bn2R.bias f4 [8]
000000 9e fe 30 be 17 10 fe bd ec 96 0c be 57 61 0b 3b
       -0.17284629 -0.12405413 -0.13729447 0.0021267736
000010 c0 38 d0 3d 02 a0 c5 bd e1 af e5 3c 3f 93 84 bc
       0.10167074 -0.0964966 0.028037967 -0.016183494

bn2R.running_mean f4 [8]
000000 b9 30 c2 bf 02 02 e7 bf 34 e4 ce bf 13 ee cd 3d
       -1.5171119 -1.8047488 -1.6163392 0.10055175
000010 21 50 5b 3f c5 3e a5 3f b6 d3 84 bf d5 c8 8c 3f
       0.8566914 1.2909781 -1.0377109 1.0998789

bn2R.running_var f4 [8]
000000 64 cd 1b 3f 8b 03 b5 3f ff f9 b0 3f 5b 27 09 40
       0.60860276 1.4141706 1.3826293 2.143027
000010 35 e6 06 3f 3e 2c cc 3e 93 dc 52 40 51 cd 2b 3f
       0.5269502 0.39877504 3.2947128 0.6711016

bn2I.weight f4 [8]
000000 10 df b8 3e ee cc 8d 3e 9e 94 40 3e 3d 2b 21 3f
       0.36107683 0.2769541 0.18806693 0.629566
000010 96 18 c7 3e 2d 7c 31 3e 8f 28 cc 3e 1b 5c f9 3e
       0.38885945 0.17332526 0.39874694 0.48703083

bn2I.bias f4 [8]
000000 ef d7 6b be d8 09 25 3e e5 79 5c 3d cf 54 87 bd
       -0.23031591 0.16117036 0.053827185 -0.06607973
000010 08 33 05 3e 0e 5f 74 3e 7c 4a 15 bd 50 e3 37 3c
       0.13007748 0.23864385 -0.036447987 0.011223629

bn2I.running_mean f4 [8]
000000 7f 8b b7 bf 84 69 bc bf 07 18 43 bf a5 36 a6 bd
       -1.4339446 -1.4719701 -0.7620854 -0.08115891
000010 cf a5 c5 3e 73 be f0 be bf 27 9d bf a7 70 db 3f
       0.38603064 -0.470203 -1.2277755 1.7143754

bn2I.running_var f4 [8]
000000 6d cd 54 3f 3f b0 f9 3e c5 77 92 3f 6e 2f 10 40
       0.83125955 0.48767278 1.1442801 2.2528949
000010 fb 5e da 3e 97 f8 e7 3e b9 64 47 40 ad 4b 2b 3f
       0.4265059 0.45306846 3.1155226 0.6691235

res3.convR1.weight f4 [8, 8, 3, 3, 3]
000000 a6 72 88 ba 2b 9d 0a bd b7 12 1a 3d d6 23 ba 3d
       -0.0010410144 -0.033841293 0.037615504 0.090888664
000010 e1 67 82 3d 31 53 04 3e 57 d3 3b 3c 5f 49 20 3d
       0.063674696 0.1292236 0.011463962 0.039132472
000020 75 f7 41 3c 43 54 05 3d 4a a8 91 bc 07 b0 4b bd
       0.0118387835 0.03255106 -0.017780442 -0.04972842
000030 b1 58 82 3d 30 4b 2d 3d 6c 46 8f 3c c4 bd ae bc
       0.06364573 0.042308033 0.017489634 -0.021330722
000040 50 94 3b bd 91 a3 04 3d 4a 1e e7 3c 85 f4 50 bd
       -0.04579574 0.03238255 0.028212685 -0.051014442
000050 cb 7e 27 bb 74 c2 b5 3d 72 0a fa bc 14 b8 49 3d
       -0.0025557752 0.088749796 -0.030522559 0.049247816
000060 11 da 4d 3d 09 6c df bc f5 4f 8e 3c 76 04 04 bd
       0.050256792 -0.027273195 0.01737211 -0.032230817
000070 09 fa 6b 3d df 51 79 3c 83 9a 93 bc 0e 8c 39 3d
       0.0576115 0.0152172735 -0.018018013 0.045299582
000080 4c 83 57 3c f3 d6 9c 3c e6 79 c1 3c 28 d0 83 3a
       0.013153862 0.019145465 0.023617696 0.0010056542
000090 a7 5b a6 3d 9c 3a 9d 3c d9 0c 95 3d 58 df 45 bc
       0.0812295 0.019192986 0.07277841 -0.012077175
0000a0 b8 93 61 3b 68 0d eb 3c cd 5d 1c 3e 3c f2 dd 3c
       0.0034420323 0.028692916 0.15270157 0.027093045
0000b0 ce e0 ef 3d dd c0 09 3d 20 3b 3e 3d da 41 82 bc
       0.117128 0.033631194 0.046443105 -0.015900541
0000c0 5a df 35 3d 52 5c 2e 3e 81 1d b0 3d ee 2e 82 3d
       0.044402458 0.17027405 0.085993774 0.063566074
0000d0 31 26 d7 3d 30 d8 17 bc e5 f7 58 bd 59 7a 35 3c
       0.10505331 -0.009267852 -0.052970786 0.011076533
0000e0 78 2a 6d 3c f5 37 cc 3c 95 64 da 3d 21 dc 37 3e
       0.014475457 0.024929026 0.10663716 0.17955066
0000f0 af 5e 81 bd 15 a8 1f bd 24 c0 cf bb e5 b6 07 bc
       -0.063168876 -0.038978655 -0.0063400436 -0.008283352
000100 9a 82 03 3d 00 94 bd 3d 04 ac d7 3c 34 f7 a8 3d
       0.032106973 0.092567444 0.02632714 0.08250275
000110 cd d6 e0 3d 9a 06 14 bc 5a af 99 3d fe a7 c3 3d
       0.1097847 -0.009034777 0.07504149 0.09553526
000120 2e cc bd bd 11 2b 8a bd 26 be 87 3c f4 b1 9a bc
       -0.0926746 -0.067464955 0.016570162 -0.018883683
000130 b2 b0 b5 3d 22 7a 83 3d 22 1e 61 bc 36 9a 6d bd
       0.088715926 0.06419779 -0.013740094 -0.058008395
000140 8a c3 33 3d ec 36 b1 bd 45 46 5f bc 0f ff 5a 3d
       0.043887652 -0.08653054 -0.013627593 0.0534659
000150 18 9a 98 bc e4 dd 1d 3d da 27 f3 ba f3 09 0f ba
       -0.018628165 0.03854169 -0.0018551305 -0.00054564996
000160 04 05 af bc c2 cd a5 bd 3e a1 0d 3d d4 59 1d 3d
       -0.021364696 -0.08095886 0.0345776 0.038415745
000170 e7 ee a8 3c a5 70 75 3d 9c 8e 5a 3c 6e 1a a4 3d
       0.02062173 0.05992188 0.013339665 0.080128536
000180 0b 5d 4c 3c 7a 71 16 bc a8 cf 06 3c d0 29 0d bb
       0.012473355 -0.009182328 0.00822822 -0.0021539815
000190 ff fa cd 3c c2 3e 96 bd 52 11 40 3d 41 86 4f bb
       0.025144098 -0.07336189 0.046891518 -0.0031665715
0001a0 4a de de bd 06 e3 98 bc 80 de a1 ba 49 7d 20 bd
       -0.10882242 -0.01866294 -0.0012349635 -0.03918198
0001b0 d1 76 38 3c 25 61 ee bc 01 a1 da bb 36 3a a4 bd
       0.011258797 -0.029099056 -0.006672025 -0.08018915
0001c0 e3 bc 36 bd 8c 34 de 3c f2 61 ae bc 80 65 89 bd
       -0.04461373 0.027124666 -0.021286938 -0.06708813
0001d0 fb 43 83 bd 41 2a 8a bd 05 4f 74 ba 1f 2d f4 3b
       -0.064094506 -0.067463405 -0.0009319636 0.007451668
0001e0 4f 54 c0 b9 69 86 08 3d 28 60 09 3d ca c7 4a bd
       -0.0003668391 0.03333131 0.033538967 -0.04950694
0001f0 41 30 23 bc ea 11 e5 3c 55 01 37 3d a3 fa 95 bb
       -0.009960235 0.027962644 0.044679005 -0.0045769974
000200 2d 42 8f bc 0e 1c 72 3c dc 53 71 3d 23 2e e7 bc
       -0.01748761 0.014777197 0.058917865 -0.028220242
000210 a2 c5 29 bb 74 3a 2c 3a 2a fe 20 bc a5 b2 31 3c
       -0.0025905152 0.00065699895 -0.009826222 0.010845815
000220 9a a9 a6 3d af 95 93 3d 8c 61 3c 3d 64 f4 45 bc
       0.08137818 0.07206284 0.045991465 -0.012082193
000230 e9 b6 db 3d 1e f6 42 bc f9 45 cd 3d c3 83 b0 3d
       0.10728247 -0.011899499 0.10023112 0.086188816
000240 4d 47 a8 bc 4c a5 80 3d f6 be 63 3a 3f c7 2a 3b
       -0.020541811 0.06281528 0.0008687818 0.0026058701
000250 d0 ce 26 3b 31 08 6b 3d c8 04 79 3d 8c 6e b4 3d
       0.002545286 0.05738086 0.060795575 0.08810148
000260 d2 c8 08 bd 08 47 d7 bc e0 b1 17 3c 5b cb a5 3b
       -0.033394642 -0.026278988 0.009258717 0.0050596423
000270 89 d1 30 3c 6d 5a 02 3b 38 28 9a 3c e7 84 bb 3c
       0.010792145 0.0019890324 0.018818006 0.022890521
000280 78 b9 06 3e b0 9d 6b 3d 93 11 5c 3d 6b 05 2e bc
       0.13156688 0.05752343 0.053727698 -0.010621409
000290 76 77 ce 3d d8 7e 7e bb 22 90 35 3b c6 04 5d 3c
       0.10081379 -0.003883293 0.0027704318 0.013489908
0002a0 39 09 20 3c 2f ab 60 3c 71 a4 de 3d d6 6f ab 3d
       0.009767824 0.013712688 0.108712085 0.083709404
0002b0 b1 b2 b6 bc 9b 42 8b 3d 7b b2 eb bc d6 40 dc 3c
       -0.022302004 0.06799813 -0.02877163 0.026886385
0002c0 3e 9a 9c bd 98 c5 b8 bc 57 c1 d9 bd d1 bb f0 bd
       -0.07646607 -0.022555158 -0.1063258 -0.11754573
0002d0 be dd e6 3c 19 e5 94 3c d8 e9 45 3d 60 9e 6a bd
       0.028181907 0.018175649 0.048318714 -0.057279944
0002e0 66 11 ee bc 4e 68 d4 bd cd d2 27 bd 1c c8 4e 3d
       -0.02906103 -0.10371457 -0.04097252 0.050483808
0002f0 09 d8 90 bd 22 bd 14 bd d4 bd 75 3c 7b 57 6e 3c
       -0.070724554 -0.036313184 0.014998872 0.014547224
000300 7e 3e 08 bd 0f e6 98 bd 4e f8 e7 3b 2d 4c 23 bc
       -0.033262722 -0.07465755 0.007079161 -0.009966892
000310 bc bb 1d bd 30 e1 ff 3b 0a e7 3a 3d 79 f3 93 3b
       -0.038509116 0.007808827 0.045630492 0.004515108
000320 5f e9 69 bc aa 0b 72 3d db ba 48 bc f8 e8 85 3d
       -0.014276831 0.059093155 -0.012251581 0.06538576
000330 56 a5 7a 3d 24 8b b2 bc f6 3f 36 3d fc 5e 1c bd
       0.061192833 -0.021794863 0.04449459 -0.03817652
000340 4b 98 87 3c 81 17 c6 3b b8 31 0e bd 0f 88 bf bc
       0.016552111 0.0060452824 -0.034715384 -0.023380307
000350 64 cb cb 3b fa e4 05 3d 34 59 90 bc f3 82 13 3d
       0.0062193144 0.032689072 -0.01762066 0.036013555
000360 d7 71 1b 3c b6 7d e3 bc 6c 02 58 3c b3 60 73 39
       0.009487591 -0.027769905 0.013184171 0.00023210309
000370 18 99 25 bd a7 8a db 3c 9d 05 84 3d 05 de 03 bc
       -0.040429205 0.026799513 0.06446383 -0.008048539
000380 c5 b3 50 3d 46 14 4f 3d ee 62 a3 3d d6 37 8f 3d
       0.05095269 0.050556444 0.07977854 0.06993072
000390 33 d1 a9 3d 73 c9 2b 3d e5 6c 43 3d 25 ed 77 3d
       0.08291855 0.041940164 0.04771127 0.060528893
0003a0 74 f3 d7 3d 20 79 91 3d 06 08 46 3d 8e d2 9b bc
       0.10544482 0.07103181 0.048347495 -0.019021299
0003b0 a9 6c 3d bd d3 d7 48 3d 77 97 41 bc fb cc 4a bd
       -0.046246205 0.04903395 -0.011815897 -0.04951189
0003c0 f1 6c 91 3c 10 06 2a 3d 36 70 e8 3c 3b ed b8 bd
       0.017752143 0.041509688 0.028373819 -0.09029623
0003d0 53 f6 0a bd c0 fb 05 bd a5 0d 7f be db 43 87 bd
       -0.03392632 -0.03271079 -0.24907549 -0.06604739
0003e0 ba 7f b1 3d 7f ae 61 bb 13 c7 a5 3d 14 d4 9b 3d
       0.0866694 -0.0034436283 0.08094611 0.0760881
0003f0 11 36 26 bd 75 11 19 bd 7f b2 d4 bd 42 aa 9e be
       -0.040578905 -0.037370164 -0.10385608 -0.3098927

res3.convI1.weight f4 [8, 8, 3, 3, 3]
000000 b5 65 dc 3c bd 42 9c bb f6 55 9d bc 7e 96 b6 3c
       0.026903966 -0.004768698 -0.019206028 0.022288557
000010 e8 76 f6 3c 83 b3 97 3c e4 33 2c 3d 90 3b 95 3d
       0.030085996 0.018518215 0.042041674 0.07286751
000020 00 ad 09 3d 06 0a f0 3c 16 f9 8f 3d 08 42 0b 3e
       0.03361225 0.029301655 0.07029931 0.13599408
000030 47 4f 2c 3d 09 c9 b6 bc a9 27 94 3c 30 70 8e 3c
       0.042067792 -0.022312658 0.018085318 0.01738748
000040 99 8f 9f 3a 3d 7e 8b 3d b7 9c b2 3d 92 0b 34 bb
       0.0012173533 0.068111874 0.08721297 -0.0027472717
000050 e3 ab 31 bc 25 93 d8 bc 76 58 e3 ba 21 a8 3b 3c
       -0.010844204 -0.026437351 -0.0017345089 0.011453659
000060 dc e7 99 3c 84 3d 70 3c 71 f7 88 3d bd 19 fb bd
       0.018787317 0.014663104 0.06687821 -0.122607686
000070 d6 fc cd bd a6 c7 66 be aa d3 a7 bd f9 45 9d 3d
       -0.1005799 -0.22537097 -0.081946686 0.07679362
000080 b6 3f 7f 3d 0a f0 00 3d f0 69 05 be ef ea 60 be
       0.06231662 0.03147892 -0.13028693 -0.2196462
000090 a9 5d d4 bd 7f 0d 12 bd 68 75 2d be 92 dd b9 3d
       -0.10369427 -0.035657402 -0.16939318 0.09075464
0000a0 14 60 21 3e 68 d5 97 3d 0f d9 8c 3d 9a 92 2a be
       0.15759307 0.07413751 0.06877338 -0.16657487
0000b0 f6 fd 4e be 6f cb 24 bd d1 3c 01 3d 76 e2 2d be
       -0.20214066 -0.040233072 0.03155214 -0.16980919
0000c0 cc 7d ec bc c2 0b ed 3b 68 9a 33 3d cf 1b 8b bd
       -0.028868578 0.0072340677 0.043848425 -0.067924134
0000d0 f4 04 c2 bd 5b 89 1e be c5 fa 5c 3c b2 c1 bc 3d
       -0.09473601 -0.15482084 0.0134875225 0.09216632
0000e0 91 28 0a bc 6e c0 81 3d 2c 39 85 3d c7 08 79 3d
       -0.008432523 0.06335531 0.06505045 0.060799386
0000f0 5d ec a1 bb 84 e7 99 3d 6f 76 d9 bd ea 5d aa 3d
       -0.004941507 0.07514861 -0.106182925 0.08318694
000100 15 c8 c0 3d 66 1c 1b 3c 1f e8 11 3e 1e f8 15 3e
       0.094131626 0.00946722 0.14248703 0.1464543
000110 aa 80 42 3e ca a6 96 3d 71 8a 3b 3e eb 6e 81 3d
       0.18994394 0.07356031 0.1831453 0.06319984
000120 92 41 2b 3d 7f 3a 93 3d f5 93 6c bd 12 ba 81 3d
       0.04181058 0.071888916 -0.05775829 0.06334318
000130 31 6d f0 3d d5 32 d4 3d 85 94 a7 bc 6e df 16 3d
       0.117395766 0.10361258 -0.020456562 0.036834173
000140 c2 60 53 bd 99 bf d9 3b 09 1d 93 bd fd 87 6d 3d
       -0.051605947 0.0066451547 -0.071832724 0.057991017
000150 f2 e0 88 3d 84 7a 8c 3c d3 f9 a7 3d ce 95 be bd
       0.0668353 0.017148264 0.08201947 -0.09305917
000160 1e 65 2a 3d 1d 61 ce bc 45 56 a0 3a d8 7d 57 3c
       0.04160034 -0.025192792 0.0012232742 0.013152562
000170 5b 32 74 bd c7 11 00 3d 39 91 4f 3d 27 6f d5 3d
       -0.059618335 0.031266954 0.050675604 0.10421591
000180 12 e1 0e 3d e5 c7 96 3d f6 50 11 bb d7 8d a2 bd
       0.034882613 0.073623456 -0.00221735 -0.0793721
000190 13 fd 81 3d b5 e0 23 bd f3 8a af 3c 14 4b 94 3d
       0.06347098 -0.04000922 0.02142856 0.072408825
0001a0 f6 69 5e bd 0b 21 99 bc 29 e1 8a 3d 78 6b 8d 3b
       -0.05430027 -0.018692514 0.06781227 0.00431579
0001b0 c8 25 51 bd 33 97 86 3a 2f 04 55 bd da c0 87 3d
       -0.05106142 0.001026845 -0.052005943 0.066285804
0001c0 13 c7 2e 3d 68 8c 4a 3d 3f 6f 38 3c e2 16 a1 bd
       0.04267032 0.049450308 0.011256992 -0.07865693
0001d0 c6 3e 07 3d c0 0a 2e 3b 5a 65 03 bd af 6c 43 bd
       0.03301885 0.00265567 -0.03207908 -0.04771107
0001e0 86 bf 93 3d 24 e1 54 3d 8a aa 65 3d 8d 43 1e bd
       0.072142646 0.051972523 0.05607084 -0.03863864
0001f0 86 1c 91 bd 13 ee a7 3d af 5a 87 bd 57 21 68 3c
       -0.070855185 0.08199706 -0.066090934 0.014168105
000200 4b 62 7f 3c 53 70 d6 bb 98 a2 35 bd cc a6 76 bc
       0.0155874 -0.006544152 -0.044344515 -0.015054416
000210 4f f7 da 3c 93 32 c4 bc 27 42 d5 3c 8f d7 8f 3d
       0.026729254 -0.023949897 0.02603252 0.070235364
000220 97 32 cc 3d a1 80 07 3e bf f4 29 3e f9 75 d2 3d
       0.09970587 0.13232662 0.1659727 0.10276408
000230 77 46 ec 3d 69 ca 95 3b 3a 21 9c 3d 4b f5 af 3d
       0.115368776 0.0045712483 0.07623525 0.08591708
000240 51 63 b3 3d 69 bf de 3d 61 7d cd 3d 1c 32 a9 3d
       0.087591775 0.10876352 0.1003368 0.08261511
000250 0f 46 3b 3e 98 68 68 3d 70 7e 94 bb af f9 1c 3d
       0.18288444 0.056740373 -0.004531674 0.038324054
000260 dc a0 b8 3d e0 d0 c1 bb 4c 57 fe 3d 2c 20 d3 3d
       0.090150565 -0.0059147924 0.12418994 0.10308871
000270 0c d2 96 3d 45 61 7a 3d 17 ba 1c 3e 24 a2 8d bc
       0.07364282 0.06112792 0.15305363 -0.017289229
000280 1b 61 e1 3d 4f 11 d9 3d 50 1f 58 bc 7d a5 53 bd
       0.110048495 0.105990045 -0.013191059 -0.051671494
000290 50 43 25 be 46 ce df bc d0 98 92 bc 03 58 4f be
       -0.16138959 -0.027320039 -0.017895132 -0.20248418
0002a0 01 df ad bd a9 e4 d6 bd c3 92 a8 bd e8 d7 1f be
       -0.084898 -0.10492832 -0.082311176 -0.15609705
0002b0 b8 40 98 bc 17 f0 1d be 1a 77 11 bd 95 eb d1 bd
       -0.018585548 -0.15423618 -0.035513975 -0.10250012
0002c0 4e 37 2a be b5 4e 06 bd 08 4d 32 bd 8d 03 be bd
       -0.1662266 -0.032789905 -0.043530494 -0.09278021
0002d0 5b ce be bd bc 9b a9 bb e5 44 96 bd 0b e5 f4 bc
       -0.09316703 -0.0051760357 -0.07337359 -0.029894372
0002e0 54 bb 8e bd b6 94 35 be 4f c5 d1 bd 7a 53 a8 bd
       -0.06969324 -0.1773251 -0.10242712 -0.08219047
0002f0 0e 0d 2a bd 3e c9 ce bd d6 c7 09 bc 71 f3 10 3d
       -0.041516356 -0.10096978 -0.008409461 0.035388414
000300 47 82 a6 3d b7 34 bc 3c a5 7e b3 3c 18 71 21 bd
       0.08130317 0.022974355 0.021910975 -0.039414495
000310 e8 46 7a bd 90 36 00 bc b0 3c 4b 3d 73 5f fe 3c
       -0.061102778 -0.007825509 0.049618423 0.031051373
000320 cd 46 75 3d 0b d8 0b 3b a8 e9 54 bd 51 18 33 3c
       0.059881974 0.0021338488 -0.051980644 0.01093109
000330 6f 9c 8d 3d ee b8 bd 3b 75 1c 62 3c 6d 3a 61 bc
       0.06914603 0.0057898676 0.01380073 -0.01374684
000340 06 84 58 bd 98 6e 18 3d 5f 64 21 bd 94 c1 e7 3b
       -0.052860282 0.037214845 -0.039402362 0.007072637
000350 0c 2a b0 3d 53 f2 64 bd d0 38 3e bc 34 d9 a3 3c
       0.0860177 -0.05589516 -0.011610225 0.020001031
000360 ee 02 81 ba 67 36 72 bc 8f 60 13 3d 7e 32 a9 3c
       -0.0009842792 -0.014783478 0.035980757 0.02065396
000370 c7 b5 31 bd 8d 32 7d 3d 4e 9c 8a 3c 91 ef 1f bc
       -0.043386247 0.061815787 0.016920235 -0.009761707
000380 d6 50 28 3c 33 1a f3 bc 2e ec 46 bd bd 30 ce bc
       0.010273179 -0.029675579 -0.048565082 -0.025169725
000390 b6 95 ac bd 1e 20 de bd 80 05 77 bd 3b 10 33 bd
       -0.084269926 -0.108459696 -0.06030798 -0.04371665
0003a0 32 88 74 3d 9c 34 70 3b 86 3b d8 bb d0 00 af 3b
       0.0597002 0.0036652451 -0.0065988926 0.005340673
0003b0 77 4a 13 bd 2b b6 c9 bb f6 65 3a bc e4 d9 f1 bc
       -0.035959687 -0.0061557493 -0.011376848 -0.029522844
0003c0 d3 bd 25 3d 9c 34 24 3c bb e5 30 bc 5d 5c 02 3d
       0.040464234 0.010022309 -0.0107969595 0.031826366
0003d0 b7 41 c3 bd 35 a9 b1 3d 58 52 80 3b 35 e9 35 be
       -0.095340185 0.08674852 0.003916066 -0.17764743
0003e0 d6 db 86 bd d9 31 16 be e5 91 27 bd 07 93 8d bd
       -0.06584899 -0.14667453 -0.04091062 -0.06912809
0003f0 6f fd 22 bc e6 89 01 bd 81 63 fe 3b b3 83 eb bc
       -0.009948119 -0.03162565 0.0077633266 -0.028749323

res3.bn1.weight f4 [8]
000000 4c 05 8b 3e 62 93 36 3f 9d 59 64 3f cf e5 07 3f
       0.2715248 0.7131864 0.8919924 0.53085035
000010 13 aa fa 3e 3d 0f 34 3f 9e d3 38 3f 3e be b5 3e
       0.4895788 0.7033575 0.721979 0.35496706

res3.bn1.bias f4 [8]
000000 fb d7 d1 3d a9 43 da 3d b5 32 bc be 0c 29 de 3b
       0.10246273 0.106574364 -0.36757436 0.0067797955
000010 bb 15 7e 3e e9 58 e6 bb 13 53 4e be a5 c8 23 bd
       0.24812977 -0.007029642 -0.20148878 -0.03998627

res3.bn1.running_mean f4 [8]
000000 68 f5 ba 3e 57 c7 0b 3d 6c 53 62 3f 76 5e c9 3f
       0.36515355 0.034125652 0.8840854 1.5731952
000010 a7 81 aa be bd 77 f3 3e cd a7 43 3f 58 13 74 bf
       -0.33302042 0.4755229 0.7642792 -0.95342016

res3.bn1.running_var f4 [8]
000000 36 8d f6 3d 33 9c 71 3e b6 4c 59 3e 0b 7e aa 3e
       0.120386526 0.23594742 0.21220669 0.33299288
000010 f4 c0 08 3e 2b ba d5 3e 22 2e a4 3e 2c 0d 9d 3f
       0.13354856 0.41743597 0.32066447 1.2269645
