Unfolded/Results/Unf_10lay_sim/Unfolded_10lay_sim50epoch_sim_Unfolded_Model_al0.50_Tr2400_epoch50_lr2.00e-03.pkl (torch_old, 57142 bytes, 120 tensors)

filter.0.conv1.convR.weight f4 [1, 1, 5, 5, 1]
-0.0772943 0.022188833 -0.07693821 0.09247303 -0.15021546 0.15662876 -0.120787114 -0.12313431
-0.09255198 0.127184 -0.06273662 0.10468893 -0.1255533 -0.07746905 -0.02835943 -0.044096846
-0.13518481 0.16355938 -0.014622539 0.0954132 0.10933509 0.0287904 0.058779042 0.19575357
-0.09117773
00000000: 794c 9ebd 5bc5 b53c c891 9dbd 8062 bd3d
00000010: 15d2 19be 4a63 203e 3c5f f7bd d72d fcbd
00000020: e48b bdbd 863c 023e 0f7c 80bd 2667 d63d
00000030: 0b91 00be 18a8 9ebd 0952 e8bc e59e 34bd
00000040: e36d 0abe 1c7c 273e 6093 6fbc ff67 c33d
00000050: 13eb df3d d8d9 eb3c 4bc2 703d a073 483e
00000060: 64bb babd

filter.0.conv1.convI.weight f4 [1, 1, 5, 5, 1]
-0.10209201 0.09840016 0.09902668 -0.23442602 0.13437532 0.06823531 0.03209749 0.012356862
0.10851617 -0.06644588 -0.22164516 -0.12858497 -0.22140239 -0.050924227 -0.07864518 -0.12454546
-0.061959855 0.13522005 -0.05474032 -0.009284449 -0.055617824 -0.02224829 0.110966526 0.06630116
0.035508774
00000000: 9e15 d1bd 0686 c93d 80ce ca3d 600d 70be
00000010: af99 093e f4be 8b3d a878 033d 7074 4a3c
00000020: ba3d de3d c714 88bd f3f6 62be c7ab 03be
00000030: 4fb7 62be ec95 50bd b910 a1bd b111 ffbd
00000040: 9ec9 7dbd 2077 0a3e 6337 60bd cd1d 18bc
00000050: 84cf 63bd 0c42 b6bc 6b42 e33d e7c8 873d
00000060: a671 113d

filter.0.conv2.convR.weight f4 [1, 1, 5, 5, 1]
0.04715857 0.07726665 -0.025844693 -0.18588176 -0.12368238 0.17071714 0.011954695 -0.1620147
0.03154549 0.16525434 -0.18899994 -0.13464788 -0.07965312 0.008027509 -0.04664588 -0.02197823
-0.19497803 0.09365584 0.17554866 0.12224768 -0.14162648 -0.16122067 0.083050475 0.0044917166
0.081986204
00000000: 5829 413d fa3d 9e3d 40b8 d3bc ca57 3ebe
00000010: 304d fdbd 79d0 2e3e a0dd 433c 2ee7 25be
00000020: d835 013d 6f38 293e 3389 41be 22e1 09be
00000030: 2d21 a3bd d085 033c c00f 3fbd b00b b4bc
00000040: 52a8 47be a2ce bf3d 07c3 333e fe5c fa3d
00000050: 8806 11be 0817 25be 5e16 aa3d 402f 933b
00000060: 62e8 a73d

filter.0.conv2.convI.weight f4 [1, 1, 5, 5, 1]
-0.011924595 0.14104874 0.092782274 0.0073034763 0.039323807 -0.018936008 -0.10996671 -0.07557986
-0.121795945 0.16612186 0.11005734 0.069944516 -0.1533705 0.15432437 0.06270854 0.13835894
-0.07867801 0.042399377 0.19527648 0.13453184 0.16039933 -0.041996956 0.15237544 -0.15664645
0.01729779
00000000: 605f 43bc 156f 103e a204 be3d 0052 ef3b
00000010: 0012 213d b01f 9bbc 3a36 e1bd 9dc9 9abd
00000020: 2770 f9bd d91b 2a3e be65 e13d 123f 8f3d
00000030: 280d 1dbe 3507 1e3e 566d 803d f7ad 0d3e
00000040: f021 a1bd f8aa 2d3d 8ff6 473e b7c2 093e
00000050: b93f 243e 0005 2cbd 4f08 1c3e ed67 20be
00000060: 18b4 8d3c

filter.0.conv3.convR.weight f4 [1, 1, 5, 5, 1]
-0.04664305 -0.051219493 0.014963821 0.18202795 0.0990168 -0.0008472502 0.1419691 -0.10249112
0.1030743 -0.018546537 -0.03480217 0.023414686 -0.15321934 0.023111463 0.067247614 0.17098634
-0.062268615 0.072005525 0.19990243 -0.08579381 0.19011848 -0.09929841 0.08815898 0.07835002
0.05586563
00000000: c80c 3fbd 88cb 51bd d02a 753c 8965 3a3e
00000010: 52c9 ca3d 001a 5eba 5960 113e dde6 d1bd
00000020: 9e18 d33d e8ee 97bc b88c 0ebd 28d0 bf3c
00000030: 88e5 1cbe 4054 bd3c 1eb9 893d 0b17 2f3e
00000040: 600d 7fbd a277 933d 39b3 4c3e aab4 afbd
00000050: 6bae 423e f75c cbbd b28c b43d fa75 a03d
00000060: 5cd3 643d

filter.0.conv3.convI.weight f4 [1, 1, 5, 5, 1]
-0.08083289 0.0525638 0.00112243 -0.15042832 -0.048562795 -0.13356462 0.088431075 0.01797919
0.019592926 -0.060674146 0.00096170604 -0.062208623 0.057467237 0.19423394 0.030294105 -0.08858366
-0.12216561 0.015287802 -0.14836924 -0.15033004 -0.13017541 -0.067928955 0.014803499 0.13772233
0.07746787
00000000: b78b a5bd 244d 573d 801e 933a e209 1abe
00000010: c8e9 46bd 2ac5 08be 5a1b b53d 1849 933c
00000020: 5881 a03c 7485 78bd 001b 7c3a 78ce 7ebd
00000030: c462 6b3d 43e5 463e 582b f83c 5a6b b5bd
00000040: f731 fabd b079 7a3c 1bee 17be 1ef0 19be
00000050: b44c 05be 561e 8bbd 608a 723c 1507 0d3e
00000060: 7aa7 9e3d

filter.0.conv4.convR.weight f4 [1, 1, 5, 5, 1]
-0.11510357 -0.0102807265 -0.24249959 0.04572962 -0.032995388 0.23382525 -0.13390444 0.13461022
0.14358135 0.13500626 0.021683028 0.15546013 0.08694122 0.121594526 -0.02731335 -0.15553956
-0.023971496 0.00082894095 -0.14606932 -0.101864986 -0.16539425 -0.07058542 0.15212728 0.032112353
0.0039045524
00000000: 6cbb ebbd 7e70 28bc d051 78be fb4e 3b3d
00000010: 2c26 07bd e36f 6f3e 3f1e 09be 43d7 093e
00000020: fd06 133e 153f 0a3e 9ba0 b13c f130 1f3e
00000030: 3d0e b23d 8d06 f93d 3fc0 dfbc c345 1fbe
00000040: df5f c4bc 494d 593a 3293 15be 979e d0bd
00000050: 1c5d 29be 178f 90bd 41c7 1b3e 3e88 033d
00000060: 85e3 7f3b

filter.0.conv4.convI.weight f4 [1, 1, 5, 5, 1]
0.07538143 -0.14319274 -0.077964395 0.088338435 0.057885 0.02294045 0.11701579 -0.19033977
-0.10050983 -0.15064485 0.07271527 0.20315461 -0.098128706 0.021319237 0.13152884 -0.20871402
0.13642508 0.047775023 0.011556365 0.0303594 0.12378902 0.0048325867 -0.09340346 0.09541016
-0.00437796
00000000: 9461 9a3d 1ea1 12be ccab 9fbd c8ea b43d
00000010: d218 6d3d 9ced bb3c f9a5 ef3d 6ee8 42be
00000020: 19d8 cdbd a542 1abe beeb 943d c307 503e
00000030: b4f7 c8bd aea5 ae3c 7faf 063e 21b9 55be
00000040: 04b3 0b3e beaf 433d e856 3d3c 47b4 f83c
00000050: 1985 fd3d ad5a 9e3b 504a bfbd 6766 c33d
00000060: fe74 8fbb

filter.0.conv5.convR.weight f4 [1, 1, 5, 5, 1]
-0.029186055 0.1284147 -0.055811837 -0.019358546 0.08223753 -0.12588747 0.05355172 -0.044223145
0.095934704 -0.10849287 0.0073916614 0.019565865 -0.16091931 -0.14542845 0.07670267 -0.058211297
0.11877932 -0.19757251 -0.098865725 -0.16473238 0.07989429 -0.0057982653 -0.037304282 -0.033274263
-0.15632978
00000000: 9817 efbc 257f 033e f49a 64bd d095 9ebc
00000010: 266c a83d a5e8 00be 0c59 5b3d 5423 35bd
00000020: 6a79 c43d 8331 debd c035 f23b 9848 a03c
00000030: 08c8 24be 32eb 14be 4a16 9d3d f86e 6ebd
00000040: 9242 f33d 7350 4abe 1d7a cabd 9baf 28be
00000050: 9e9f a33d 60ff bdbb 60cc 18bd 984a 08bd
00000060: ea14 20be

filter.0.conv5.convI.weight f4 [1, 1, 5, 5, 1]
0.0049851686 -0.13802259 0.075257555 -0.0040198117 -0.19342951 0.107584044 0.10697742 -0.037682027
-0.13808763 0.008030012 0.15091597 0.18306796 -0.1509602 -0.0903338 0.1557249 0.097755656
0.12380259 -0.099546865 0.17230691 -0.16441318 -0.0096337795 0.004152581 0.033593565 -0.15091679
0.18349327
00000000: a05a a33b cb55 0dbe a220 9a3d a0b8 83bb
00000010: 6312 46be 0655 dc3d fa16 db3d 7858 1abd
00000020: d866 0dbe 5090 033c b789 1a3e 2b76 3b3e
00000030: 5095 1abe ed00 b9bd 5976 1f3e 1e34 c83d
00000040: 368c fd3d 3adf cbbd 3971 303e ee5b 28be
00000050: 00d7 1dbc 6012 883b 6899 093d ee89 1abe
00000060: a9e5 3b3e

filter.0.conv6.convR.weight f4 [1, 1, 5, 5, 1]
-0.13812149 0.0073881596 -0.10653243 0.19177692 0.11153315 0.117780134 0.06452091 -0.019911364
0.1126125 0.0034056455 -0.07294305 0.103261635 0.06276126 -0.05182293 -0.05481121 -0.17686792
-0.05482368 -0.081022836 -0.109009765 -0.18064368 0.1566552 -0.17873831 0.19854291 -0.104904555
-0.015373424
00000000: b86f 0dbe 6018 f23b ad2d dabd 2b61 443e
00000010: 7e6b e43d b636 f13d 8a23 843d 281d a3bc
00000020: 62a1 e63d 4031 5f3b 2a63 95bd d67a d33d
00000030: fa88 803d 4844 54bd b881 60bd dd1c 35be
00000040: cc8e 60bd 4def a5bd 8340 dfbd a8fa 38be
00000050: 396a 203e 2d07 37be d54e 4b3e 33d8 d6bd
00000060: d0e0 7bbc

filter.0.conv6.convI.weight f4 [1, 1, 5, 5, 1]
0.06598227 -0.057099864 -0.16101138 -0.08177107 0.16106121 -0.075521946 0.16668417 -0.034443304
-0.025506705 0.079822436 -0.029386848 -0.0016843379 0.13851862 0.06683968 -0.007960886 0.07616584
0.17418878 0.05040805 -0.05865042 0.06553425 -0.017497897 -0.1563648 -0.07722571 0.09096272
0.0065588206
00000000: b621 873d 8ce1 69bd 2be0 24be 9777 a7bd
00000010: 3bed 243e 40ab 9abd 41af 2a3e 6c14 0dbd
00000020: 70f3 d0bc f279 a33d b0bc f0bc 00c5 dcba
00000030: d3d7 0d3e 3ee3 883d 606e 02bc d6fc 9b3d
00000040: 8b5e 323e ac78 4e3d 6c3b 70bd d236 863d
00000050: c057 8fbc 181e 20be 8328 9ebd aa4a ba3d
00000060: 60eb d63b

filter.1.conv1.convR.weight f4 [1, 1, 5, 5, 1]
-0.11679835 0.1515214 -0.15213512 0.03637979 -0.0528775 -0.12473824 0.04682065 -0.118984975
-0.12850507 -0.0445715 0.13749327 0.11908113 0.110528186 -0.13989136 0.14217137 0.039689254
-0.14061832 -0.008655478 0.06509911 -0.07183101 -0.10564374 0.14055248 -0.039515838 0.021727055
-0.07335098
00000000: f933 efbd 6d28 1b3e 4fc9 1bbe fa02 153d
00000010: 1496 58bd c376 ffbd 03c7 3f3d 65ae f3bd
00000020: d596 03be 9b90 36bd 09cb 0c3e cfe0 f33d
00000030: 9a5c e23d ae3f 0fbe 5f95 113e 3391 223d
00000040: 40fe 0fbe b5cf 0dbc af52 853d 231c 93bd
00000050: bf5b d8bd fdec 0f3e 5cdb 21bd f0fc b13c
00000060: 0a39 96bd

filter.1.conv1.convI.weight f4 [1, 1, 5, 5, 1]
0.28418726 0.1221744 -0.020527197 0.100587755 -0.16996618 -0.15368597 -0.2067371 0.04043884
-0.13023841 0.028059095 0.110317044 0.021766016 0.11303504 -0.085230246 0.09600801 -0.11636038
-0.016781641 0.15273276 -0.040810782 0.17174833 -0.07965268 -0.07442112 0.11032795 0.13953212
-0.12461073
00000000: fe80 913e 9236 fa3d a728 a8bc f400 ce3d
00000010: 9d0b 2ebe db5f 1dbe e4b2 53be 32a3 253d
00000020: 385d 05be 30dc e53c e7ed e13d a54e b23c
00000030: ea7e e73d 328d aebd d99f c43d 5a4e eebd
00000040: a779 89bc fa65 1c3e 3529 27bd cbde 2f3e
00000050: f220 a3bd 1a6a 98bd 9ff3 e13d 82e1 0e3e
00000060: e933 ffbd

filter.1.conv2.convR.weight f4 [1, 1, 5, 5, 1]
0.0069296765 0.1218289 0.09552113 0.13760254 0.14589287 -0.15875266 0.10432025 -0.06578899
0.12831597 0.13307741 -0.11230966 -0.06840682 -0.011235942 -0.006929506 -0.20746657 -0.04953997
0.014617787 0.023297902 -0.008353611 -0.024322383 -0.19029605 0.09670153 -0.18209788 -0.1499987
0.016261818
00000000: 5712 e33b 6e81 f93d 95a0 c33d aee7 0c3e
00000010: f164 153e 0f90 22be dba5 d53d 61bc 86bd
00000020: 4365 033e 7245 083e 9b02 e6bd e018 8cbd
00000030: f516 38bc e910 e3bb 1e72 54be 6cea 4abd
00000040: 717f 6f3c 3edb be3c 96dd 08bc bc3f c7bc
00000050: f8dc 42be 740b c63d de77 3abe 4299 19be
00000060: 8137 853c

filter.1.conv2.convI.weight f4 [1, 1, 5, 5, 1]
0.13836302 0.031017836 -0.08523732 0.0105621815 0.056732085 -0.16402125 -0.1638144 0.09066097
-0.09215906 -0.09520911 0.08481453 -0.13530946 -0.17941716 0.17182343 -0.11143806 -0.056594837
0.16759086 -0.15293182 0.12658793 0.049074877 0.11217972 0.025177281 -0.16848208 0.059197046
-0.2310528
00000000: 09af 0d3e 1e19 fe3c e790 aebd 000d 2d3c
00000010: e75f 683d 30f5 27be f6be 27be 75ac b93d
00000020: e4bd bcbd fefc c2bd 3eb3 ad3d 908e 0abe
00000030: 22b9 37be 7bf2 2f3e a339 e4bd fdcf 67bd
00000040: f09c 2b3e 299a 1cbe 44a0 013e bd02 493d
00000050: 7bbe e53d 9640 ce3c 9186 2cbe 9a78 723d
00000060: 1b99 6cbe

filter.1.conv3.convR.weight f4 [1, 1, 5, 5, 1]
-0.13393402 0.04821108 -0.015305468 0.11153053 0.14017653 -0.14891005 0.0063306526 -0.22689581
-0.23070945 -0.16998272 0.064557135 0.18311289 -0.020017516 0.16370113 -0.08320704 0.026917351
0.05206571 0.020356208 -0.013496235 0.17551151 -0.014999263 -0.03199538 0.14947672 -0.1395198
0.1494136
00000000: 0026 09be fb78 453d c9c3 7abc 1e6a e43d
00000010: 708a 0f3e e07b 18be 5d71 cf3b 6057 68be
00000020: 193f 6cbe f30f 2ebe 8836 843d f281 3b3e
00000030: c6fb a3bc 45a1 273e 7468 aabd c781 dc3c
00000040: db42 553d 10c2 a63c 501f 5dbc 4ab9 333e
00000050: 78bf 75bc 960d 03bd 6d10 193e 47de 0ebe
00000060: e1ff 183e

filter.1.conv3.convI.weight f4 [1, 1, 5, 5, 1]
0.013034245 -0.070954464 0.10031403 -0.07902532 0.17570154 -0.1830183 -0.18978955 -0.0147668645
-0.12512046 -0.21893404 0.10361974 0.06489511 -0.044235855 0.07248701 -0.093321584 0.17460369
-0.15375601 0.0727641 0.07603212 -0.23108138 -0.020539502 -0.059601087 0.18135756 0.014397818
0.08395956
00000000: 968d 553c 9350 91bd 7171 cd3d 07d8 a1bd
00000010: 1beb 333e 2669 3bbe 3158 42be b8f0 71bc
00000020: 941f 00be 3f30 60be 9636 d43d bae7 843d
00000030: a830 35bd 1274 943d 631f bfbd 4fcb 323e
00000040: 3772 1dbe 5805 953d bab6 9b3d 99a0 6cbe
00000050: 7542 a8bc 4520 74bd ccb5 393e d3e4 6b3c
00000060: fdf2 ab3d

filter.1.conv4.convR.weight f4 [1, 1, 5, 5, 1]
-0.117697276 0.18957704 -0.10440716 0.03736443 0.004046705 -0.20701641 -0.17992525 -0.18204916
-0.1219571 -0.08833441 -0.041580487 0.15985206 0.0072656814 -0.14937632 -0.11389599 0.13838558
-0.16905597 -0.07293258 -0.14497104 0.13229914 0.14703776 0.06356614 -0.046476778 0.020671269
0.07655763
00000000: 450b f1bd 7c20 423e 6cd3 d5bd 720b 193d
00000010: 399a 843b 1cfc 53be 533e 38be 186b 3abe
00000020: a5c4 f9bd ace8 b4bd 4d50 2abd 42b0 233e
00000030: f414 ee3b 1bf6 18be 4d42 e9bd f3b4 0d3e
00000040: 021d 2dbe ad5d 95bd 4a73 14be 6d79 073e
00000050: 1191 163e f72e 823d 6f5e 3ebd cb56 a93c
00000060: 3fca 9c3d

filter.1.conv4.convI.weight f4 [1, 1, 5, 5, 1]
0.10450654 -0.02998952 0.034561098 0.025927916 -0.029977541 0.14804684 -0.02474974 0.038536552
0.04217853 0.08035807 -0.1468894 -0.16008352 -0.17393011 0.1016745 0.13883238 0.15339711
0.03865239 -0.084381506 0.018043185 -0.253091 -0.011814815 -0.10469963 -0.06436252 0.09287676
-0.11726705
00000000: 8607 d63d 95ac f5bc f08f 0d3d c866 d43c
00000010: 7693 f5bc 9799 173e f7bf cabc 81d8 1d3d
00000020: 65c3 2c3d c692 a43d 2d6a 16be efec 23be
00000030: bc1a 32be b83a d03d 132a 0e3e 2214 1d3e
00000040: f851 1e3d 36d0 acbd 4dcf 933c 2595 81be
00000050: ed92 41bc c26c d6bd 7fd0 83bd 2c36 be3d
00000060: b529 f0bd

filter.1.conv5.convR.weight f4 [1, 1, 5, 5, 1]
-0.07131833 -0.10595708 -0.14106439 -0.12004638 -0.17687634 0.11042624 -0.024101567 -0.14442977
0.07317762 -0.032862384 0.06484303 0.1284729 0.17313343 -0.09161674 -0.046405096 -0.16075505
0.16381727 0.046694364 -0.06285344 0.009553381 0.11430214 0.020349517 0.03018765 0.100597575
-0.095210716
00000000: 580f 92bd 0700 d9bd 2f73 10be e0da f5bd
00000010: 121f 35be 2727 e23d a670 c5bc 66e5 13be
00000020: 26de 953d b59a 06bd 6ccc 843d 668e 033e
00000030: e449 313e 8fa1 bbbd 4513 3ebd f99c 24be
00000040: b7bf 273e 9742 3f3d 4eb9 80bd c985 1c3c
00000050: 3e17 ea3d 08b4 a63c 174c f73c 1a06 ce3d
00000060: d6fd c2bd

filter.1.conv5.convI.weight f4 [1, 1, 5, 5, 1]
0.051138185 -0.14967233 0.11390114 0.07833876 0.06150233 -0.011333758 0.18413569 0.0708648
-0.13403925 0.21920432 0.098314114 0.103900135 0.086284064 0.05066515 -0.0974331 0.06009035
-0.19284537 -0.15370886 0.000260517 -0.16243248 0.12571268 0.1725039 0.096694194 0.15628865
-0.15863402
00000000: 4676 513d b443 19be 0045 e93d 1270 a03d
00000010: dee9 7b3d 3ab1 39bc 118e 3c3e 9021 913d
00000020: 9641 09be 1977 603e e958 c93d 98c9 d43d
00000030: b3b5 b03d 4386 4f3d 018b c7bd 4d21 763d
00000040: 4279 45be db65 1dbe 0096 8839 b354 26be
00000050: d3ba 003e dda4 303e 9b07 c63d 220a 203e
00000060: f570 22be

filter.1.conv6.convR.weight f4 [1, 1, 5, 5, 1]
0.039284162 -0.10770543 -0.13064305 0.027043747 0.065881774 -0.018233359 0.0006919343 0.0074343504
-0.17243037 0.13214116 -0.0064818026 -0.15259814 -0.116820954 0.06679861 -0.20608583 0.13970673
-0.14236125 0.019082073 0.06556758 -0.09633176 -0.13866538 -0.012197756 0.04298297 -0.03810814
0.088324845
00000000: 6ee8 203d aa94 dcbd 4bc7 05be d98a dd3c
00000010: 06ed 863d 205e 95bc ed62 353a da9b f33b
00000020: 9691 30be 0350 073e 4d65 d4bb b042 1cbe
00000030: d33f efbd b6cd 883d 2a08 53be 480f 0f3e
00000040: 26c7 11be 0252 9c3c 4c48 863d 9649 c5bd
00000050: 4cfe 0dbe 19d9 47bc e90e 303d 4817 1cbd
00000060: a8e3 b43d

filter.1.conv6.convI.weight f4 [1, 1, 5, 5, 1]
0.10364202 0.21818268 -0.09679604 -0.13606496 0.06600413 0.060058847 0.23128252 0.23477219
0.13640133 0.1834686 0.07374342 -0.0047873165 -0.16966683 -0.04258222 -0.10503423 0.09645594
-0.122641675 -0.16529803 -0.028137857 0.1438082 0.08363631 0.09516007 0.02014291 -0.12702897
-0.030246418
00000000: 4442 d43d 486b 5f3e 013d c6bd 9d54 0bbe
00000010: 2c2d 873d 4400 763d 53d5 6c3e 1f68 703e
00000020: caac 0b3e 31df 3b3e ca06 973d ecde 9cbb
00000030: 24bd 2dbe b26a 2ebd 301c d7bd b18a c53d
00000040: 8f2b fbbd e343 29be 5d81 e6bc 7542 133e
00000050: 8449 ab3d 48e3 c23d be02 a53c e213 02be
00000060: 56c7 f7bc

filter.2.conv1.convR.weight f4 [1, 1, 5, 5, 1]
-0.072944745 0.11484525 -0.1557499 -0.07581815 0.17852014 0.08855938 0.022797242 0.08429107
-0.076977484 -0.13151976 0.07627505 0.04098216 -0.057605498 0.16994664 -0.11675424 -0.023915783
0.16053848 0.0824575 -0.13028385 0.061667297 -0.047064867 0.07806748 0.121547475 -0.12795806
-0.05446027
00000000: 0e64 95bd fd33 eb3d e77c 1fbe 8c46 9bbd
00000010: fccd 363e 9f5e b53d 48c1 ba3c cca0 ac3d
00000020: 5fa6 9dbd 1ead 06be 1836 9c3d e9dc 273d
00000030: bef3 6bbd 7e06 2e3e d91c efbd 08eb c3bc
00000040: 3364 243e 7adf a83d 2169 05be d996 7c3d
00000050: 17c7 40bd d8e1 9f3d e2ed f83d 7007 03be
00000060: bb11 5fbd

filter.2.conv1.convI.weight f4 [1, 1, 5, 5, 1]
-0.097065166 0.043606192 0.07303543 -0.03919346 -0.003630501 0.20105496 0.22964653 0.07924428
0.045962915 -0.1396878 -0.06731427 0.017607845 0.08363678 0.012022936 0.029542882 -0.12057323
0.13862067 -9.825852e-05 0.12146213 0.12968753 -0.10066566 -0.094648294 0.18030117 -0.049456377
-0.1228376
00000000: 1aca c6bd 689c 323d 9993 953d 5289 20bd
00000010: b3ed 6dbb 5ae1 4d3e 7628 6b3e d34a a23d
00000020: 9c43 3c3d 520a 0fbe 10dc 89bd 543e 903c
00000030: c349 ab3d d9fb 443c ea03 f23c 19ef f6bd
00000040: 94f2 0d3e 2410 ceb8 23c1 f83d cfcc 043e
00000050: cc29 cebd f7d6 c1bd dfa0 383e c592 4abd
00000060: 4892 fbbd

filter.2.conv2.convR.weight f4 [1, 1, 5, 5, 1]
-0.08338493 0.13984714 -0.21154593 -0.00021788965 -0.17788781 -0.13135646 -0.013909389 0.21256109
-0.083306454 -0.0806562 -0.032825027 0.008223343 -0.08372697 0.0015627242 0.1106133 -0.009958645
-0.04174771 0.042894714 0.18565495 0.053809106 0.0774015 -0.052708045 -0.015175646 0.041068453
-0.066566855
00000000: b8c5 aabd 1734 0f3e 7f9f 58be 4f79 64b9
00000010: 3928 36be 4f82 06be 35e4 63bc 9da9 593e
00000020: 939c aabd 142f a5bd 8973 06bd 33bb 063c
00000030: 0c79 abbd 53d4 cc3a 3a89 e23d 9629 23bc
00000040: a6ff 2abd 5eb2 2f3d 551c 3e3e f066 5c3d
00000050: ad84 9e3d 64e4 57bd 46a3 78bc 6537 283d
00000060: 3454 88bd

filter.2.conv2.convI.weight f4 [1, 1, 5, 5, 1]
0.052646056 0.003145533 -0.1264395 0.17370631 0.07850773 -0.0788225 -0.17970082 0.08097247
-0.17534246 0.02628583 -0.121587984 0.032226436 0.036499687 0.096590556 -0.07161293 0.019091869
-0.08610396 0.035604697 0.029399747 0.1757201 0.21517333 -0.012771795 -0.064200446 -0.012453226
-0.14134912
00000000: 64a3 573d 4925 4e3b 5b79 01be 11e0 313e
00000010: a9c8 a03d b16d a1bd 7e03 38be e5d4 a53d
00000020: f98c 33be 6255 d73c 1f03 f9bd deff 033d
00000030: b280 153d 45d1 c53d cda9 92bd 8d66 9c3c
00000040: 4657 b0bd 3bd6 113d bdd7 f03c f8ef 333e
00000050: 6656 5c3e ca40 51bc 867b 83bd 9e08 4cbc
00000060: d3bd 10be

filter.2.conv3.convR.weight f4 [1, 1, 5, 5, 1]
-0.09873439 -0.09088118 0.197422 0.09296128 -0.043195285 -0.20378782 0.09345217 -0.1084768
-0.1803258 -0.17589025 0.061774977 0.048584655 0.017895823 -0.17199628 0.09309799 -0.1409976
0.056070443 0.05468648 -0.103585854 0.04279921 -0.109131664 0.20660067 -0.041504186 0.12280461
-0.12646146
00000000: 4235 cabd e91f babd fe28 4a3e 7c62 be3d
00000010: 8aed 30bd c1ad 50be da63 bf3d 1629 debd
00000020: 54a7 38be 931c 34be c207 7d3d b400 473d
00000030: 439a 923c cb1f 30be 29aa be3d ad61 10be
00000040: 1faa 653d eefe 5f3d d224 d4bd 394e 2f3d
00000050: 6c80 dfbd 208f 533e 4b00 2abd fc80 fb3d
00000060: 1d7f 01be

filter.2.conv3.convI.weight f4 [1, 1, 5, 5, 1]
-0.08874807 0.042811867 0.0856396 -0.003433484 0.12934054 0.26298124 -0.060555946 0.21317966
-0.0919408 -0.09866183 -0.050731305 0.17037418 0.14916593 -0.00530078 -0.1078177 -0.06413927
-0.06949428 0.13589032 0.04058658 0.011758434 -0.10663627 0.046332672 0.1470249 0.15731968
0.0755594
00000000: 8cc1 b5bd 7f5b 2f3d d163 af3d 4d04 61bb
00000010: d971 043e 7aa5 863e 8309 78bd c54b 5a3e
00000020: 754b bcbd 370f cabd a1cb 4fbd 9276 2e3e
00000030: f4be 183e 2ab2 adbb 87cf dcbd 735b 83bd
00000040: 0453 8ebd d526 0b3e 1d3e 263d 72a6 403c
00000050: 1e64 dabd 54c7 3d3d b28d 163e 6918 213e
00000060: e3be 9a3d

filter.2.conv4.convR.weight f4 [1, 1, 5, 5, 1]
-0.06745394 0.11246279 0.10001677 0.15093035 0.043401297 -0.14121102 0.10765633 -0.099915124
-0.07472674 -0.095421016 -0.14164527 -0.26144108 0.13045524 -0.0848085 0.16227153 0.17738463
0.118255064 0.21315749 0.1262537 -0.061269328 0.08115753 -0.22953413 0.054084804 -0.03898765
0.1618893
00000000: 4b25 8abd e452 e63d 98d5 cc3d 7c8d 1a3e
00000010: 8fc5 313d 9f99 10be ec7a dc3d 4da0 ccbd
00000020: 550a 99bd 186c c3bd 750b 11be 9bdb 85be
00000030: 0f96 053e 14b0 adbd 822a 263e 51a4 353e
00000040: b62f f23d f545 5a3e a648 013e 8cf5 7abd
00000050: eb35 a63d ff0a 6bbe 0788 5d3d 84b1 1fbd
00000060: 4fc6 253e

filter.2.conv4.convI.weight f4 [1, 1, 5, 5, 1]
0.054724365 -0.048057042 0.17300001 -0.10755581 -0.143967 0.0067925947 -0.105043165 0.23263255
0.13238324 -0.04686759 0.16973269 0.15307586 -0.042128496 -0.030094398 -0.066627935 -0.14704913
-0.18737164 -0.16763315 -0.1412685 -0.052389003 -0.23395252 -0.25793508 -0.11167385 -0.023080867
0.08832757
00000000: a826 603d 76d7 44bd ea26 313e 3846 dcbd
00000010: 166c 13be 6a94 de3b df20 d7bd 3a37 6e3e
00000020: 798f 073e 3bf8 3fbd 68ce 2d3e ebbf 1c3e
00000030: ee8e 2cbd 8788 f6bc 3a74 88bd 0c94 16be
00000040: 5ade 3fbe 06a8 2bbe b1a8 10be da95 56bd
00000050: 4091 6fbe 1110 84be 42b5 e4bd 1614 bdbc
00000060: 16e5 b43d

filter.2.conv5.convR.weight f4 [1, 1, 5, 5, 1]
0.1905954 -0.08586629 0.005125255 0.13181365 0.08228158 0.13606858 -0.16813953 -0.08501307
-0.06396661 0.22345364 0.010272375 0.22048359 0.099481836 -0.07064015 0.25447488 -0.046806704
0.12688197 0.049664367 0.05213669 -0.25294432 0.1153543 0.13705397 0.09298493 0.022032266
0.029628161
00000000: 712b 433e aada afbd c1f1 a73b 28fa 063e
00000010: 3f83 a83d 9055 0b3e c52c 2cbe 551b aebd
00000020: ed00 83bd 08d1 643e 774d 283c 73c6 613e
00000030: 22bd cb3d c8ab 90bd 884a 823e 63b8 3fbd
00000040: 59ed 013e dd6c 4b3d 488d 553d eb81 81be
00000050: e03e ec3d e057 0c3e e26e be3d 037d b43c
00000060: c2b6 f23c

filter.2.conv5.convI.weight f4 [1, 1, 5, 5, 1]
0.10124546 0.17036925 0.069341585 0.03478883 -0.12800586 0.10054624 0.02758456 0.018281084
-0.037562013 0.1693624 -0.13263728 -0.021648917 -0.077363834 0.2184216 0.058872525 0.0025894851
-0.07355554 -0.35053125 -0.29389128 -0.10369429 -0.057898536 -0.032128688 -0.06509019 0.17192523
0.010461532
00000000: c859 cf3d 4775 2e3e f602 8e3d bb7e 0e3d
00000010: f813 03be 30eb cd3d 04f9 e13c 36c2 953c
00000020: a0da 19bd 566d 2d3e 11d2 07be 1259 b1bc
00000030: ee70 9ebd e9a9 5f3e 5124 713d 5ab4 293b
00000040: 49a4 96bd d578 b3be eb78 96be ac5d d4bd
00000050: 0427 6dbd 5f99 03bd 014e 85bd 2b0d 303e
00000060: d866 2b3c

filter.2.conv6.convR.weight f4 [1, 1, 5, 5, 1]
0.0049054357 0.099149175 0.16584334 -0.048519667 -0.09332371 0.10418524 -0.15119393 0.15245123
-0.05647604 0.03298348 0.11804045 0.027416656 -0.18786338 -0.056778148 0.10749217 -0.17390226
0.19102119 -0.10862196 -0.0030416467 0.14853573 -0.15319061 -0.14790776 0.0016502859 -0.11011
0.017369479
00000000: c7bd a03b b90e cb3d d6d2 293e 8fbc 46bd
00000010: 8020 bfbd 125f d53d 95d2 1abe 2d1c 1c3e
00000020: 6c53 67bd af19 073d 31bf f13d e598 e03c
00000030: 425f 40be 3490 68bd db24 dc3d 6f13 32be
00000040: 0f9b 433e 3175 debd 5d56 47bb c019 183e
00000050: 00de 1cbe 2275 17be 684e d83a 5a81 e1bd
00000060: 704a 8e3c

filter.2.conv6.convI.weight f4 [1, 1, 5, 5, 1]
0.058225676 -0.13423298 0.016102504 -0.12879942 -0.09938712 0.10112501 0.11473944 0.28430438
0.1140084 -0.09459085 0.05431213 -0.073304184 -0.10379608 -0.1487008 0.19408187 -0.1596971
0.12782182 -0.11506677 0.15574557 -0.17037214 -0.00783955 -0.2453516 -0.08240533 -0.0882267
-0.07500788
00000000: 0c7e 6e3d 5f74 09be 66e9 833c ffe3 03be
00000010: 798b cbbd a11a cf3d 83fc ea3d 5890 913e
00000020: 3c7d e93d d9b8 c1bd 6576 5e3d 8120 96bd
00000030: 0a93 d4bd 0645 18be 66bd 463e a387 23be
00000040: b9e3 023e 20a8 ebbd c47b 1f3e 0976 2ebe
00000050: 7571 00bc 733d 7bbe 20c4 a8bd 33b0 b4bd
00000060: bb9d 99bd

filter.3.conv1.convR.weight f4 [1, 1, 3, 3, 1]
-0.07811622 -0.06381037 0.13920839 -0.28356773 -0.20360927 0.123472884 -0.079377994 -0.076096855
-0.03222902
00000000: 66fb 9fbd 03af 82bd a58c 0e3e ca2f 91be
00000010: f37e 50be 5adf fc3d ee90 a2bd abd8 9bbd
00000020: 9402 04bd

filter.3.conv1.convI.weight f4 [1, 1, 3, 3, 1]
-0.20696469 0.40138662 0.21829207 -0.04913327 0.122333676 0.024812317 -0.04929565 -0.07820859
0.34540114
00000000: 8dee 53be 8c82 cd3e f587 5f3e f83f 49bd
00000010: 148a fa3d 3343 cb3c 3cea 49bd d32b a0bd
00000020: 6bd8 b03e

filter.3.conv2.convR.weight f4 [1, 1, 3, 3, 1]
0.015115616 0.14514844 0.16853915 0.18638739 0.36505 0.10334437 -0.33685616 0.3318618
-0.04617785
00000000: 7da7 773c cba1 143e 8795 2c3e 56dc 3e3e
00000010: d5e7 ba3e 37a6 d33d 6978 acbe cae9 a93e
00000020: fc24 3dbd

filter.3.conv2.convI.weight f4 [1, 1, 3, 3, 1]
0.031627603 -0.2928673 -0.18962789 0.12573838 -0.08363033 -0.19988678 0.09017824 0.36320263
0.080402836
00000000: f28b 013d b4f2 95be d02d 42be 90c1 003e
00000010: 6146 abbd 1faf 4cbe 5eaf b83d b2f5 b93e
00000020: 3eaa a43d

filter.3.conv3.convR.weight f4 [1, 1, 3, 3, 1]
0.13474749 -0.033026725 0.14562155 -0.25239345 0.1508967 0.29764017 0.2644133 -0.124516755
-0.3424143
00000000: 3ffb 093e 0847 07bd d11d 153e b739 81be
00000010: aa84 1a3e 4b64 983e 2e61 873e a402 ffbd
00000020: ed50 afbe

filter.3.conv3.convI.weight f4 [1, 1, 3, 3, 1]
0.123121016 0.06415641 -0.287528 0.2613694 -0.25078392 0.14269763 0.23031953 -0.1499521
-0.05991074
00000000: df26 fc3d 7064 833d df36 93be 36d2 853e
00000010: c066 80be 541f 123e e2d8 6b3e 0b8d 19be
00000020: f764 75bd

filter.3.conv4.convR.weight f4 [1, 1, 3, 3, 1]
-0.23105688 0.04694471 0.023088066 -0.0683651 -0.041114964 -0.10434006 -0.0954049 -0.28011793
0.31251594
00000000: 2d9a 6cbe 1949 403d 2f23 bd3c 0003 8cbd
00000010: 2a68 28bd 3eb0 d5bd a563 c3bd 9e6b 8fbe
00000020: 1702 a03e

filter.3.conv4.convI.weight f4 [1, 1, 3, 3, 1]
0.07898251 0.18846786 0.29858938 -0.2403322 -0.30428156 -0.04336487 -0.32333907 -0.04883453
-0.071500584
00000000: 95c1 a13d b8fd 403e b5e0 983e a519 76be
00000010: cbca 9bbe 5d9f 31bd b38c a5be b706 48bd
00000020: e66e 92bd

filter.3.conv5.convR.weight f4 [1, 1, 3, 3, 1]
0.10327239 0.31540698 -0.018574303 0.23348385 0.21259092 0.24756524 -0.0047248825 0.18657744
-0.29547137
00000000: 7a80 d33d 067d a13e 2329 98bc 6416 6f3e
00000010: 6fb1 593e be81 7d3e 30d3 9abb 280e 3f3e
00000020: 0648 97be

filter.3.conv5.convI.weight f4 [1, 1, 3, 3, 1]
0.06767187 -0.185154 0.27448303 0.003953898 -0.13579646 0.24452917 0.262505 0.20240603
0.14269707
00000000: 8d97 8a3d 0399 3dbe 0a89 8c3e b38f 813b
00000010: 3a0e 0bbe db65 7a3e 0e67 863e 8743 4f3e
00000020: 2e1f 123e

filter.3.conv6.convR.weight f4 [1, 1, 3, 3, 1]
0.25830054 0.23073047 0.086398214 -0.22958224 0.43816447 -0.08022552 -0.111586794 -0.17797737
-0.13218193
00000000: f83f 843e 9c44 6c3e 8cf1 b03d 9b17 6bbe
00000010: 1857 e03e 474d a4bd 9e87 e4bd b33f 36be
00000020: b35a 07be

filter.3.conv6.convI.weight f4 [1, 1, 3, 3, 1]
-0.1890968 0.17177697 -0.0018352851 0.3103326 0.108998105 0.052123338 0.18198535 -0.019197552
0.17625391
00000000: 97a2 41be 4de6 2f3e f38d f0ba eae3 9e3e
00000010: 663a df3d 487f 553d 5e5a 3a3e 2f44 9dbc
00000020: e87b 343e

filter.4.conv1.convR.weight f4 [1, 1, 3, 3, 1]
0.10002207 -0.12823749 0.31205413 -0.17499626 0.21960588 -0.23445036 0.096578784 0.119164616
0.24596556
00000000: 5fd8 cc3d b050 03be 8fc5 9f3e 3832 33be
00000010: 5de0 603e c113 70be 19cb c53d 940c f43d
00000020: 65de 7b3e

filter.4.conv1.convI.weight f4 [1, 1, 3, 3, 1]
-0.07109686 0.037755836 -0.12585397 -0.17204505 0.31725243 0.03561398 0.21027994 0.18303551
-0.14938273
00000000: 3b9b 91bd dda5 1a3d dddf 00be 942c 30be
00000010: e96e a23e f7df 113d a053 573e a96d 3b3e
00000020: c9f7 18be

filter.4.conv2.convR.weight f4 [1, 1, 3, 3, 1]
-0.18188867 0.29154855 0.193998 -0.0022232025 -0.06618787 0.2758023 -0.022024374 -0.08469307
0.11576831
00000000: 0641 3abe da45 953e 69a7 463e 26b3 11bb
00000010: 828d 87bd f635 8d3e 766c b4bc 8f73 adbd
00000020: f017 ed3d

filter.4.conv2.convI.weight f4 [1, 1, 3, 3, 1]
-0.04584597 0.2071387 -0.3050482 0.09757409 -0.2873054 -0.19190802 0.07936006 -0.016288612
0.1085748
00000000: fcc8 3bbd 2b1c 543e 472f 9cbe edd4 c73d
00000010: b219 93be 8983 44be 8787 a23d b26f 85bc
00000020: 775c de3d

filter.4.conv3.convR.weight f4 [1, 1, 3, 3, 1]
0.20630696 -0.26807323 0.08689143 -0.13711473 -0.110986665 0.2444971 -0.2910302 0.18402968
0.117945135
00000000: 2242 533e e540 89be 22f4 b13d ce67 0cbe
00000010: fa4c e3bd 735d 7a3e e901 95be 4772 3c3e
00000020: 388d f13d

filter.4.conv3.convI.weight f4 [1, 1, 3, 3, 1]
0.17662157 0.26302513 -0.20247968 0.20545343 -0.21163622 -0.15664196 0.24685448 0.2072987
0.15798794
00000000: 49dc 343e 3bab 863e d556 4fbe 6262 523e
00000010: 2ab7 58be c066 20be 6cc7 7c3e 1c46 543e
00000020: 97c7 213e

filter.4.conv4.convR.weight f4 [1, 1, 3, 3, 1]
-0.048706632 -0.092508644 -0.0057236953 -0.06938873 -0.097098716 0.116766095 0.1089878 0.012260958
0.15123405
00000000: 9b80 47bd 2c75 bdbd d68d bbbb ae1b 8ebd
00000010: b1db c6bd 1023 ef3d ff34 df3d 2fe2 483c
00000020: 19dd 1a3e

filter.4.conv4.convI.weight f4 [1, 1, 3, 3, 1]
0.2652965 -0.063340604 -0.25774205 -0.014833561 -0.18453264 0.13298906 0.4176769 -0.27702308
0.08266707
00000000: f1d4 873e b8b8 81bd c4f6 83be 7708 73bc
00000010: 20f6 3cbe 492e 083e bfd9 d53e f8d5 8dbe
00000020: 5a4d a93d

filter.4.conv5.convR.weight f4 [1, 1, 3, 3, 1]
0.18072774 -0.26231167 0.23972975 -0.22186452 -0.23402677 0.16205959 0.07047178 -0.044933926
0.19677946
00000000: b110 393e b74d 86be b77b 753e 7430 63be
00000010: b7a4 6fbe f3f2 253e 8253 903d a30c 38bd
00000020: 8e80 493e

filter.4.conv5.convI.weight f4 [1, 1, 3, 3, 1]
-0.03134205 -0.061309837 0.22025149 -0.3261229 -0.23178568 -0.30687025 0.29214966 -0.27544352
0.11858788
00000000: 8560 00bd 0620 7bbd 9b89 613e 95f9 a6be
00000010: 3a59 6dbe 191e 9dbe a494 953e ef06 8dbe
00000020: 34de f23d

filter.4.conv6.convR.weight f4 [1, 1, 3, 3, 1]
-0.14153533 -0.13781846 0.18464366 -0.17918433 0.15395471 0.30877846 -0.077111736 0.06739773
0.14732915
00000000: a3ee 10be 4820 0dbe 3a13 3d3e 197c 37be
00000010: 4ea6 1d3e 3618 9e3e c2ec 9dbd d207 8a3d
00000020: 74dd 163e

filter.4.conv6.convI.weight f4 [1, 1, 3, 3, 1]
0.23868541 -0.1265887 0.035500277 0.07493971 -0.24806018 -0.17462042 -0.004919062 0.32048044
-0.18403915
00000000: f369 743e 78a0 01be bd68 113d fe79 993d
00000010: 7d03 7ebe b2cf 32be 1530 a1bb 0316 a43e
00000020: c274 3cbe

filter.5.conv1.convR.weight f4 [1, 1, 3, 3, 1]
0.23924594 0.04955464 -0.2797521 0.30530354 -0.17262158 0.13574341 -0.09313822 -0.05018688
-0.31694275
00000000: e3fc 743e cef9 4a3d ab3b 8fbe bf50 9c3e
00000010: b6c3 30be 5200 0b3e 40bf bebd c290 4dbd
00000020: 5246 a2be

filter.5.conv1.convI.weight f4 [1, 1, 3, 3, 1]
-0.15677701 0.32872134 0.017622663 -0.19385462 -0.16474198 0.14250854 0.33771512 -0.12299526
0.028922958
00000000: 278a 20be 2a4e a83e 675d 903c d381 46be
00000010: 1fb2 28be c2ed 113e ffe8 ac3e f0e4 fbbd
00000020: d7ef ec3c

filter.5.conv2.convR.weight f4 [1, 1, 3, 3, 1]
-0.31749743 0.11235647 -0.30141458 -0.09638722 -0.0032091537 0.12489744 -0.27144662 0.16164899
0.053416528
00000000: 068f a2be 261b e63d 0353 9abe aa66 c5bd
00000010: aa50 52bb 3bca ff3d 0dfb 8abe 5087 253e
00000020: 4acb 5a3d

filter.5.conv2.convI.weight f4 [1, 1, 3, 3, 1]
0.009263629 0.0320715 0.26777655 -0.27308145 -0.14597811 -0.07822196 -0.26019418 -0.10447399
-0.23466943
00000000: 7ac6 173c 685d 033d 021a 893e 55d1 8bbe
00000010: 497b 15be d632 a0bd 2c38 85be 76f6 d5bd
00000020: 2f4d 70be

filter.5.conv3.convR.weight f4 [1, 1, 3, 3, 1]
-0.057305023 0.3103821 -0.0745469 -0.28275865 0.077633105 0.06485267 -0.15506484 0.23940516
0.0421114
00000000: acb8 6abd 67ea 9e3e 0cac 98bd bec5 90be
00000010: 1bfe 9e3d 7ad1 843d 51c9 1ebe a026 753e
00000020: 017d 2c3d

filter.5.conv3.convI.weight f4 [1, 1, 3, 3, 1]
0.1546972 -0.009753167 -0.18015084 0.010234077 0.24620719 0.08602085 0.022862973 -0.20286472
-0.18545301
00000000: f168 1e3e bfcb 1fbc 7679 38be d5ac 273c
00000010: bd1d 7c3e b32b b03d 214b bb3c c5bb 4fbe
00000020: 65e7 3dbe

filter.5.conv4.convR.weight f4 [1, 1, 3, 3, 1]
0.19572388 0.4069721 0.19737354 0.04727971 -0.3233641 -0.38501334 -0.4922132 -0.074894376
-0.43802002
00000000: d76b 483e a65e d03e 4a1c 4a3e 5fa8 413d
00000010: fb8f a5be 7820 c5be 5e03 fcbe 3962 99bd
00000020: 2944 e0be

filter.5.conv4.convI.weight f4 [1, 1, 3, 3, 1]
0.14683145 -0.111376636 -0.0004920431 0.019280704 -0.14191113 0.33501267 -0.19883046 -0.096681386
-0.0065138554
00000000: fc5a 163e 6f19 e4bd 74fc 00ba 91f2 9d3c
00000010: 2751 11be c886 ab3e 369a 4bbe e400 c6bd
00000020: 2e72 d5bb

filter.5.conv5.convR.weight f4 [1, 1, 3, 3, 1]
-0.02881352 -0.11547248 0.09834289 0.25362796 0.01705417 -0.23495954 -0.029568158 0.26240855
0.31574252
00000000: 550a ecbc d67c ecbd ff67 c93d 86db 813e
00000010: 30b5 8b3c 3c99 70be ec38 f2bc 6a5a 863e
00000020: 01a9 a13e

filter.5.conv5.convI.weight f4 [1, 1, 3, 3, 1]
-0.061387826 0.23251323 -0.22018993 -0.25316265 -0.1176267 -0.17214973 -0.26897612 0.10353883
0.23305953
00000000: cd71 7bbd f317 6e3e 7879 61be 899e 81be
00000010: 44e6 f0bd 0548 30be 3db7 89be 2b0c d43d
00000020: 28a7 6e3e

filter.5.conv6.convR.weight f4 [1, 1, 3, 3, 1]
0.06500409 0.17801215 -0.2319678 0.18460518 -0.03595529 0.20034157 0.091770746 0.24875623
0.39627162
00000000: dd20 853d d148 363e f888 6dbe 2409 3d3e
00000010: db45 13bd 5726 4d3e 4df2 bb3d f4b9 7e3e
00000020: 1de4 ca3e

filter.5.conv6.convI.weight f4 [1, 1, 3, 3, 1]
-0.12451304 -0.06565373 -0.041791305 -0.19379549 0.14137994 0.058315054 -0.07858217 0.16388914
-0.16671294
00000000: b100 ffbd 7675 86bd 5c2d 2bbd 5372 46be
00000010: e7c5 103e c4db 6e3d b0ef a0bd 8ed2 273e
00000020: ccb6 2abe

filter.6.conv1.convR.weight f4 [1, 1, 3, 3, 1]
-0.15058652 0.4122544 0.06424787 -0.12781198 0.0025933702 0.23733403 0.21309265 0.19639033
0.048321404
00000000: 5a33 1abe 0213 d33e 6394 833d 25e1 02be
00000010: 88f5 293b b107 733e f634 5a3e 8c1a 493e
00000020: aaec 453d

filter.6.conv1.convI.weight f4 [1, 1, 3, 3, 1]
0.28244233 0.35357592 -0.2197231 0.028710004 -0.21596101 -0.1254744 -0.27928665 -0.28027666
0.20151575
00000000: 489c 903e e707 b53e 18ff 60be 3e31 eb3c
00000010: e224 5dbe 5c7c 00be a9fe 8ebe 6c80 8fbe
00000020: 255a 4e3e

filter.6.conv2.convR.weight f4 [1, 1, 3, 3, 1]
0.122139744 -0.31280214 -0.075659454 0.19826609 0.17927374 0.26760122 0.23687145 -0.34830466
-0.1658363
00000000: 6724 fa3d 9a27 a0be 58f3 9abd 4406 4b3e
00000010: 8993 373e 0703 893e 6e8e 723e fd54 b2be
00000020: fed0 29be

filter.6.conv2.convI.weight f4 [1, 1, 3, 3, 1]
0.2032577 -0.095527716 -0.09411011 0.07585561 0.050499637 0.18554485 -0.12103277 -0.23996644
0.090788916
00000000: c922 503e 09a4 c3bd cdbc c0bd 305a 9b3d
00000010: b5d8 4e3d 78ff 3d3e 07e0 f7bd c3b9 75be
00000020: 8aef b93d

filter.6.conv3.convR.weight f4 [1, 1, 3, 3, 1]
0.59878445 0.27288836 0.5704069 0.09009462 -0.016126977 0.09458714 0.49374497 0.24157624
0.5200654
00000000: f049 193f 06b8 8b3e 3006 123f 8783 b83d
00000010: b91c 84bc e7b6 c13d 24cc fc3e c35f 773e
00000020: 0223 053f

filter.6.conv3.convI.weight f4 [1, 1, 3, 3, 1]
0.054329433 0.22836329 -0.26062527 0.042152278 -0.22355545 0.28752112 0.07715259 0.08632827
0.21921207
00000000: 8a88 5e3d 11d8 693e ad70 85be dea7 2c3d
00000010: b8eb 64be f835 933e 2d02 9e3d e0cc b03d
00000020: 2179 603e

filter.6.conv4.convR.weight f4 [1, 1, 3, 3, 1]
-0.19427182 0.06070903 0.1875305 0.1347116 -0.2003227 0.09756283 -0.07539757 0.007556053
0.02331351
00000000: 31ef 46be 08aa 783d ff07 403e d6f1 093e
00000010: 6521 4dbe 05cf c73d 0b6a 9abd c498 f73b
00000020: f9fb be3c

filter.6.conv4.convI.weight f4 [1, 1, 3, 3, 1]
-0.02247944 -0.14366193 0.14659661 0.03688937 0.1472608 -0.017504528 0.024337064 0.0061391266
-0.13397105
00000000: cd26 b8bc 1d1c 13be 6c1d 163e 4f19 173d
00000010: 89cb 163e a865 8fbc 865e c73c ba2a c93b
00000020: b52f 09be

filter.6.conv5.convR.weight f4 [1, 1, 3, 3, 1]
0.34731215 -0.12483213 0.2256462 -0.24354126 -0.008575554 0.2299614 0.39428157 0.22291483
0.08110479
00000000: e6d2 b13e fda7 ffbd cc0f 673e e162 79be
00000010: 7b80 0cbc 007b 6b3e 46df c93e c943 643e
00000020: 451a a63d

filter.6.conv5.convI.weight f4 [1, 1, 3, 3, 1]
-0.27336243 -0.1174174 0.087903984 -0.15899885 -0.011919378 0.08256469 0.25460997 -0.21506383
-0.1613551
00000000: 29f6 8bbe 8978 f0bd 0107 b43d 98d0 22be
00000010: 7f49 43bc ad17 a93d 3d5c 823e b139 5cbe
00000020: 453a 25be

filter.6.conv6.convR.weight f4 [1, 1, 3, 3, 1]
0.050508566 0.23529159 0.22435762 -0.28606784 0.29089066 -0.008361603 -0.12320459 0.18267582
-0.24892919
00000000: 12e2 4e3d 47f0 703e 01be 653e 7c77 92be
00000010: 9fef 943e 1bff 08bc b052 fcbd 5f0f 3b3e
00000020: 4be7 7ebe

filter.6.conv6.convI.weight f4 [1, 1, 3, 3, 1]
0.11631956 0.28488284 -0.17396553 -0.047986813 0.007736847 -0.04994775 0.13523595 0.05569202
0.11892706
00000000: f338 ee3d 2adc 913e 0524 32be d28d 44bd
00000010: 6085 fd3b 0396 4cbd 4b7b 0a3e 511d 643d
00000020: 0890 f33d

filter.7.conv1.convR.weight f4 [1, 1, 3, 3, 1]
0.048991174 0.14282571 0.15855688 -0.30477437 -0.36275673 -0.2254927 0.19048633 -0.28925008
-0.2248851
00000000: f8aa 483d e740 123e bc5c 223e 630b 9cbe
00000010: 40bb b9be 8fe7 66be d90e 433e 9618 94be
00000020: 4848 66be

filter.7.conv1.convI.weight f4 [1, 1, 3, 3, 1]
-0.16328527 0.038587328 -0.18661597 0.40252593 0.55261844 -0.060008787 -0.2804785 0.08715167
-0.16064776
00000000: 4134 27be bf0d 1e3d 4218 3fbe e117 ce3e
00000010: 6778 0d3f c6cb 75bd e19a 8fbe 937c b23d
00000020: d980 24be

filter.7.conv2.convR.weight f4 [1, 1, 3, 3, 1]
-0.161444 -0.2027501 0.31999725 0.3135324 -0.35733712 -0.30632472 -0.112137064 0.19733256
-0.13261315
00000000: 9351 25be b99d 4fbe aed6 a33e 5287 a03e
00000010: e4f4 b6be 98d6 9cbe 1ea8 e5bd 8c11 4a3e
00000020: becb 07be

filter.7.conv2.convI.weight f4 [1, 1, 3, 3, 1]
0.042142462 0.21671428 0.11568998 0.2318979 0.19872469 0.23795271 -0.13619117 -0.2202806
-0.018550428
00000000: 939d 2c3d 59ea 5d3e deee ec3d a576 6d3e
00000010: 7c7e 4b3e e0a9 733e b375 0bbe 3d91 61be
00000020: 11f7 97bc

filter.7.conv3.convR.weight f4 [1, 1, 3, 3, 1]
-0.14649637 0.18819065 0.10884402 0.06750085 0.18233992 -0.1076717 0.1619301 -0.32350415
0.05416243
00000000: 2503 16be 0db5 403e 9de9 de3d e33d 8a3d
00000010: 51b7 3a3e fb82 dcbd 01d1 253e 56a2 a5be
00000020: 6dd9 5d3d

filter.7.conv3.convI.weight f4 [1, 1, 3, 3, 1]
0.14721069 0.1210674 -0.044639084 0.20166697 0.25385088 -0.22386804 -0.08535123 0.0764977
0.13964942
00000000: 66be 163e 2ff2 f73d 79d7 36bd c981 4e3e
00000010: bef8 813e aa3d 65be a0cc aebd d3aa 9c3d
00000020: 4200 0f3e

filter.7.conv4.convR.weight f4 [1, 1, 3, 3, 1]
0.11216899 -0.28670087 -0.122990236 0.16835119 0.07002691 0.08233926 -0.00080630387 0.16164063
-0.12198988
00000000: dbb8 e53d 75ca 92be 4ee2 fbbd 4164 2c3e
00000010: 456a 8f3d 7ca1 a83d 235e 53ba 1f85 253e
00000020: d5d5 f9bd

filter.7.conv4.convI.weight f4 [1, 1, 3, 3, 1]
0.25933543 0.05203206 -0.09838312 -0.06968917 -0.07448895 0.09818607 0.25932536 -0.31736818
-0.024091426
00000000: 9dc7 843e 921f 553d 177d c9bd 32b9 8ebd
00000010: aa8d 98bd c715 c93d 4bc6 843e 157e a2be
00000020: 625b c5bc

filter.7.conv5.convR.weight f4 [1, 1, 3, 3, 1]
-0.04871228 0.14866365 -0.1905754 -0.08739907 -0.28386247 0.08538245 0.055017356 -0.027114019
0.04662449
00000000: 8786 47bd 493b 183e 3326 43be 49fe b2bd
00000010: 6c56 91be fedc ae3d e159 613d 381e debc
00000020: 52f9 3e3d

filter.7.conv5.convI.weight f4 [1, 1, 3, 3, 1]
-0.036854055 0.23113145 -0.29523122 -0.19197443 -0.1957083 0.09689307 -0.17893322 0.094835535
0.088296
00000000: 47f4 16bd b9ad 6c3e 8c28 97be f294 44be
00000010: c267 48be e06f c63d 453a 37be 2239 c23d
00000020: 89d4 b43d

filter.7.conv6.convR.weight f4 [1, 1, 3, 3, 1]
0.28555363 -0.112134196 0.18758005 0.27655736 -0.120493874 -0.08020381 0.2672896 -0.004123974
0.21258822
00000000: 1634 923e 9da6 e5bd fc14 403e ed98 8d3e
00000010: 7ec5 f6bd e541 a4bd 2fda 883e 6722 87bb
00000020: bab0 593e

filter.7.conv6.convI.weight f4 [1, 1, 3, 3, 1]
0.15815955 -0.14506201 -0.007555334 0.19704275 0.0855239 -0.18305926 -0.060957447 -0.008278649
-0.091239534
00000000: 94f4 213e 238b 14be bc92 f7bb 93c5 493e
00000010: 2827 af3d e373 3bbe 84ae 79bd 2ca3 07bc
00000020: cbdb babd

filter.8.conv1.convR.weight f4 [1, 1, 3, 3, 1]
0.3154647 -0.22300649 0.14227028 -0.17135216 -0.07613545 -0.20048614 0.016484711 -0.10679086
0.32622063
00000000: 9784 a13e d05b 64be 4daf 113e f176 2fbe
00000010: e7ec 9bbd 3d4c 4dbe f20a 873c 2bb5 dabd
00000020: 6406 a73e

filter.8.conv1.convI.weight f4 [1, 1, 3, 3, 1]
-0.023886347 -0.13760367 0.37731436 -0.027189022 -0.19346449 0.07000622 0.17072971 -0.121715076
-0.028463302
00000000: 4dad c3bc fae7 0cbe 592f c13e 83bb debc
00000010: 8e1b 46be 6c5f 8f3d c5d3 2e3e c145 f9bd
00000020: df2b e9bc

filter.8.conv2.convR.weight f4 [1, 1, 3, 3, 1]
0.07841947 0.16096166 0.1842036 0.24063106 0.084764 -0.01820548 -0.06170781 0.26088068
-0.07871102
00000000: 639a a03d 22d3 243e de9f 3c3e fd67 763e
00000010: bf98 ad3d a923 95bc 54c1 7cbd 2792 853e
00000020: 3e33 a1bd

filter.8.conv2.convI.weight f4 [1, 1, 3, 3, 1]
0.0068860515 0.13025789 0.14419927 0.314205 0.28683323 0.14489979 0.05501959 0.18463108
-0.094594486
00000000: 63a4 e13b 5362 053e f9a8 133e 7adf a03e
00000010: cedb 923e 9c60 143e 395c 613d ee0f 3d3e
00000020: c1ba c1bd

filter.8.conv3.convR.weight f4 [1, 1, 3, 3, 1]
0.20733319 0.08938503 0.06350833 -0.12645058 -0.11375199 -0.036971834 0.046693947 0.08036202
-0.1195846
00000000: 274f 543e 800f b73d a810 823d 437c 01be
00000010: cef6 e8bd c76f 17bd 2742 3f3d d894 a43d
00000020: c5e8 f4bd

filter.8.conv3.convI.weight f4 [1, 1, 3, 3, 1]
-0.08668605 -0.035166774 -0.06310498 0.1287038 0.06548203 0.07719222 -0.13281038 -0.14481314
0.024261678
00000000: 7588 b1bd 090b 10bd 2f3d 81bd eeca 033e
00000010: 711b 863d f416 9e3d 72ff 07be e549 14be
00000020: 6dc0 c63c

filter.8.conv4.convR.weight f4 [1, 1, 3, 3, 1]
-0.18176866 -0.088475846 0.059425894 -0.17658138 -0.13043219 -0.12871577 -0.116237134 -0.12744737
-0.19669269
00000000: 9021 3abe d332 b5bd 9168 733d c0d1 34be
00000010: 0490 05be 11ce 03be bc0d eebd 9081 02be
00000020: cf69 49be

filter.8.conv4.convI.weight f4 [1, 1, 3, 3, 1]
0.23182459 -0.14536624 -0.15867622 0.060978122 0.09453643 0.15192659 -0.07263593 0.0047145514
-0.25131822
00000000: 6d63 6d3e e3da 14be 057c 22be 32c4 793d
00000010: 519c c13d a592 1b3e 25c2 94bd 867c 9a3b
00000020: c8ac 80be

filter.8.conv5.convR.weight f4 [1, 1, 3, 3, 1]
-0.14091454 -0.13992351 0.022946393 -0.14864929 -0.07093831 -0.112029456 -0.1936866 -0.10704718
0.11336681
00000000: e74b 10be 1c48 0fbe 13fa bb3c 8537 18be
00000010: 1b48 91bd b36f e5bd c855 46be 8d3b dbbd
00000020: dc2c e83d

filter.8.conv5.convI.weight f4 [1, 1, 3, 3, 1]
-0.0054213405 0.013372384 -0.19202688 -0.14185159 -0.27175084 0.1295982 -0.043571822 -0.09696021
-0.16551727
00000000: 80a5 b1bb d817 5b3c b2a2 44be 8b41 11be
00000010: ed22 8bbe 64b5 043e 5e78 32bd 1393 c6bd
00000020: 5c7d 29be

filter.8.conv6.convR.weight f4 [1, 1, 3, 3, 1]
-0.12880565 0.028485516 -0.13754089 0.13974959 -0.05456564 0.10641361 -0.03967583 -0.01984268
-0.0058007343
00000000: a1e5 03be 755a e93c 85d7 0cbe 841a 0f3e
00000010: 3880 5fbd 61ef d93d 2083 22bd 1e8d a2bc
00000020: 1614 bebb

filter.8.conv6.convI.weight f4 [1, 1, 3, 3, 1]
-0.047954764 -0.01160975 0.009714822 -0.124002196 -0.017166847 0.091761015 0.22782698 0.006311857
-0.15522946
00000000: 376c 44bd d236 3ebc eb2a 1f3c ddf4 fdbd
00000010: 7da1 8cbc 33ed bb3d 7a4b 693e b2d3 ce3b
00000020: 79f4 1ebe

filter.9.conv1.convR.weight f4 [1, 1, 3, 3, 1]
0.06686774 0.30887204 -0.3640716 0.13416494 0.36902282 0.22333747 -0.30391863 0.22306204
-0.053526044
00000000: f4f1 883d 7a24 9e3e 9867 babe 8962 093e
00000010: 8ff0 bc3e 94b2 643e 399b 9bbe 606a 643e
00000020: 203e 5bbd

filter.9.conv1.convI.weight f4 [1, 1, 3, 3, 1]
-0.144325 -0.14065205 0.2161078 0.075803034 0.18245287 -0.20297456 0.10982305 -0.08433579
-0.056533787
00000000: efc9 13be 1707 10be 5d4b 5d3e 9f3e 9b3d
00000010: edd4 3a3e 90d8 4fbe e8ea e03d 3eb8 acbd
00000020: f98f 67bd

filter.9.conv2.convR.weight f4 [1, 1, 3, 3, 1]
0.10188097 0.03699545 -0.14340186 -0.011828065 -0.33607462 -0.13630551 -0.12785022 -0.1980762
0.13838042
00000000: f8a6 d03d 8a88 173d f0d7 12be 80ca 41bc
00000010: f911 acbe ac93 0bbe 2beb 02be 7dd4 4abe
00000020: 99b3 0d3e

filter.9.conv2.convI.weight f4 [1, 1, 3, 3, 1]
0.008819572 -0.089163736 0.16860001 0.032978967 -0.1746409 -0.1228069 -0.07201494 0.20050634
0.16604741
00000000: f77f 103c 7a9b b6bd 7ba5 2c3e f414 073d
00000010: 10d5 32be 2f82 fbbd 927c 93bd 8951 4d3e
00000020: 5508 2a3e

filter.9.conv3.convR.weight f4 [1, 1, 3, 3, 1]
0.23614287 0.2591489 0.07592338 0.13559538 0.0970211 0.09995008 0.21971843 -0.09068703
-0.095472604
00000000: 70cf 713e 2aaf 843e b87d 9b3d 84d9 0a3e
00000010: 00b3 c63d a1b2 cc3d defd 603e 1fba b9bd
00000020: 2487 c3bd

filter.9.conv3.convI.weight f4 [1, 1, 3, 3, 1]
0.21919946 -0.1508374 0.12472543 0.02372273 -0.1825281 -0.09306186 0.04037188 -0.052761953
0.009709146
00000000: d375 603e 1f75 1abe 0c70 ff3d 2c56 c23c
00000010: a5e8 3abe 3797 bebd fc5c 253d eb1c 58bd
00000020: 1c13 1f3c

filter.9.conv4.convR.weight f4 [1, 1, 3, 3, 1]
0.081227414 0.1925616 -0.10683842 0.26824018 0.4489041 0.37986076 -0.0981698 0.22029635
0.020431897
00000000: 8f5a a63d de2e 453e 1ace dabd c756 893e
00000010: c2d6 e53e 1c7d c23e 400d c9bd 5e95 613e
00000020: cb60 a73c

filter.9.conv4.convI.weight f4 [1, 1, 3, 3, 1]
-0.07268884 0.10024967 -0.09763057 -0.10857497 -0.06915441 0.15940729 0.07881167 0.0005298487
0.014774927
00000000: e3dd 94bd b34f cd3d 89f2 c7bd 8e5c debd
00000010: d4a0 8dbd aa3b 233e 0368 a13d 8be5 0a3a
00000020: 8912 723c

filter.9.conv5.convR.weight f4 [1, 1, 3, 3, 1]
0.07396595 0.21207784 -0.08775744 0.27193204 0.22702365 0.38745484 -0.22117102 0.4475314
0.032958016
00000000: 767b 973d ef2a 593e 2cba b3bd ad3a 8b3e
00000010: e378 683e 7b60 c63e a87a 62be d622 e53e
00000020: fcfe 063d

filter.9.conv5.convI.weight f4 [1, 1, 3, 3, 1]
0.05733213 -0.16353185 -0.014567083 -0.15195069 -0.10942805 0.14759824 -0.027094696 0.13989462
-0.15554537
00000000: 18d5 6a3d e574 27be c6aa 6ebc f698 1bbe
00000010: d01b e0bd fe23 173e b2f5 ddbc 8940 0f3e
00000020: 4947 1fbe

filter.9.conv6.convR.weight f4 [1, 1, 3, 3, 1]
0.0023866612 0.16662449 -0.14823484 0.0019021028 0.12910558 0.21064839 -0.18419297 0.14349307
-0.06787947
00000000: 8869 1c3b 9c9f 2a3e e0ca 17be fb4f f93a
00000010: 4134 043e 36b4 573e 159d 3cbe d9ef 123e
00000020: 6404 8bbd

filter.9.conv6.convI.weight f4 [1, 1, 3, 3, 1]
0.059378464 -0.20873801 0.038561564 -0.108955815 0.06255226 0.15072982 -0.017240983 0.11737421
-0.12702072
00000000: d536 733d 6bbf 55be bbf2 1d3d 3a24 dfbd
00000010: 661b 803d eb58 1a3e f63c 8dbc e461 f03d
00000020: b811 02be
