Res3dC/Results/Res_sim10epochs/Res3dC_sim10_sim_Res3dC_Model_Tr2400_epoch10_lr2.00e-03.pkl (torch_old, 111802 bytes, 50 tensors)

conv1.convR.weight f4 [16, 1, 5, 5, 5]
00000000: a2d2 f6bc 7664 e53c cf39 74bc 5478 623d
00000010: 96c1 8abd 4ca5 a13d 1b3b 2dbd 170f 3dbd
00000020: 7c67 11bd 8ed0 353d 9bfc 49bc c018 8e3d
00000030: 6ebd 50bd 9e19 05bd 274a d6bc 42dc 33bb
00000040: 2940 26bd 66f4 a03d ae98 90bb fe2f d73c
00000050: 7364 9c3d dda1 123d 5365 2a3d b8d3 cd3d
00000060: 0e07 26bd cf2b f23c 74d8 d3bc a771 b73d
00000070: f28f b33d e214 aabd 36bd a73d 9f9c 6e3d
00000080: c66d 6f3d 74c0 4e3d 7303 923d eb55 863c
00000090: 68c3 44bd 66fa f13a 5c62 14bd 5e5d 353c
000000a0: f596 da3b b540 e1bc 06fd 3f3c af2b d53d
000000b0: 8157 7dbc e8a6 a63c 9467 ec3b ac4f 003d
000000c0: 07c5 c53d ad84 523d 51a5 173d d77a fc3c
000000d0: 2fae 783d fadf a83d 6e46 393c 6f01 99bd
000000e0: 1cb3 25bd 978d dc3d 1e80 183d 0eb2 4cbd
000000f0: 096a 183d 7e85 d13d 7d1e 32bd f075 8abc
00000100: 6d8f 8bbb 8cee ac3c 4596 81b9 2ed5 983c
00000110: 49a1 59bd cb9b 5b3d 6c0b d43d 5f5e 9f3d
00000120: 1e38 17bd 2dcb 38bd 2445 3e3d 9e5c 603b
00000130: 0da1 3d3d a104 43bd 0043 453d 0c2b c33d
00000140: 57e1 3f3d 926c 923c 620e 593d 3453 243d
00000150: b5fa 73bb 58c1 8dbc 455e c7bc a500 073e
00000160: 2024 c93d 40ab ed3d 0369 65bd 1752 ba3d
00000170: b250 853d abb3 da3d 91bb 7e3b 588c 0d3d
00000180: 35e0 df3d 8efa b63d 6136 da3d 093e 783c
00000190: 4978 723d d738 80bd 13d2 0e3d a5ff 64bc
000001a0: 6ce9 a4bc c814 ccbc 91dc b23c 7713 f23d
000001b0: 6f4e a83d 52eb 3d3c 00da 963d 56b0 eabb
000001c0: c98a 0a3e 75f6 de3c fc14 a23c 1f33 943c
000001d0: 9071 24bd 7aab 533d ceec 7c3d aad8 a43d
000001e0: 22fe 80bc f3b8 8d3d e290 183e 9e3f 42bc
000001f0: 63e9 b23d 9992 28bb 65f1 803d ad75 3a3d
00000200: 1185 1c3d af64 9e3d 214d 523d a821 833d
00000210: 53a6 8f3c f660 07bd eadd cbbb a0eb 2ebc
00000220: 6a35 973d 9956 a83a bb32 b63c 3eac 7dbc
00000230: 3be3 043d 40c1 4c3c 38f0 c43c 668c bd3d
00000240: 314e cc3c 8a57 e839 03bc 633c 48e4 d03c
00000250: 3951 5dbd d810 44bd d036 01bc 4a79 02bd
00000260: f1c6 5ebc e1bc 953d 7367 3d3d e2f6 c03d
00000270: 78f8 b3bd a0ad 8dbd 86bd 83bd 4482 953d
00000280: 0119 cf3c c858 863c e896 0dbe 4b99 993d
00000290: 7d92 af3d c675 9c3d 4498 4fbd cbee 0d3d
000002a0: c5db 723d 05c0 933d 0dda 9d3b f1fc b4bd
000002b0: 37ec bebc 6fcf a63c 0f78 55bd 55cc 24bc
000002c0: 23eb c8bd 971e 9bbd 31a1 a23d ed24 e83c
000002d0: c04d 193b 381d 86bd 8db1 91bd 5540 9cbd
000002e0: 36cc 54bd 3c4d 1fbd 3a46 32be 4204 6ebd
000002f0: 717c 803d 4e62 9cbd 742a acbd e09d 32be
00000300: af0c d7bc cb55 973d df65 83bd cd7c 31bd
00000310: 3731 77bc 9f08 b9bd 3a1b ad3d 0416 d63c
00000320: 0ad3 fd3c dd0f 753c 460c 353c d7cc a7bc
00000330: a3e9 54bd d90f 023d 52a8 c1bc bd59 63bd
00000340: 5d34 4ebb 1b12 a13d c066 b8bc 719d 89bd
00000350: 7da5 4ebc af20 4abd 527a 1f3d c963 b3bc
00000360: 36e7 8c3c 5c5b 8fbd a2c0 763c c9ee 9f3c
00000370: ace0 8fbd 73d2 8bbd f01e 053d aa7c e2bb
00000380: 27f1 7b3d 7563 34bd 26e9 37bc c77d 64bd
00000390: abb8 373d 6522 653c 68d3 d83c 7f03 be3c
000003a0: db4e 69bd ea53 0b3d cd47 be3c b268 5abd
000003b0: 8cf6 353d 0b2f bc39 8a94 a8bd aaf5 813d
000003c0: 546a 3f3d 08f0 c8bb 7548 55bd 1540 543c
000003d0: cedc a13d 2863 a83d 4980 3dbd 2548 adbc
000003e0: dd20 ac3d a69a 443d 69c3 203d 8789 55bd
000003f0: f3dd bc3d fcbf 93bd a230 97bb 4095 69bc
-0.030129734 0.028002005 -0.014906361 0.055290535 -0.06775205 0.07892856 -0.042292695 -0.04615697
-0.03549908 0.044388346 -0.012328292 0.069383144 -0.050961904 -0.032495134 -0.026158405 -0.0027444516
-0.04058853 0.07859115 -0.004412732 0.026268002 0.07636347 0.035798896 0.041600537 0.10050148
-0.04053407 0.029561905 -0.025860049 0.08957224 0.0876769 -0.08304764 0.08190386 0.058254834
0.058454297 0.050476506 0.07129564 0.01639839 -0.048037916 0.0018461465 -0.036226615 0.011069624
0.0066708275 -0.027496675 0.01171804 0.104087226 -0.015462757 0.020343259 0.007214496 0.03132598
0.096567206 0.05139606 0.037022892 0.030820293 0.06071299 0.08245845 0.011308296 -0.074709766
-0.040454015 0.107691936 0.037231557 -0.049974494 0.037210498 0.1023054 -0.043486107 -0.01690194
-0.004259041 0.021109842 -0.00024716757 0.01865634 -0.05313233 0.053615373 0.10353741 0.07781672
-0.036918752 -0.04511564 0.046452656 0.0034234892 0.046296168 -0.047611836 0.0481596 0.09529695
0.04684576 0.017874036 0.052992232 0.04011841 -0.003722829 -0.017304108 -0.024336943 0.1318384
0.098213434 0.11604929 -0.05600835 0.09097689 0.06509532 0.106788 0.0038869123 0.03455767
0.10931436 0.08934508 0.10654903 0.015151509 0.059196744 -0.06260841 0.03486831 -0.013976966
-0.020130835 -0.024912253 0.02183369 0.11820119 0.08218085 0.011591749 0.07365799 -0.007162134
0.13529505 0.02721713 0.019785397 0.018090783 -0.040147364 0.051677205 0.061749272 0.08049138
-0.01574618 0.06920042 0.14899018 -0.011855988 0.08735921 -0.0025722145 0.06296042 0.04552238
0.03821284 0.077340476 0.051343087 0.06402904 0.017535364 -0.033051454 -0.0062215226 -0.010676295
0.07383235 0.0012843191 0.022240987 -0.01548296 0.032443266 0.012497246 0.024040326 0.092552945
0.024939628 0.0004431571 0.013899806 0.025499478 -0.054032538 -0.047867626 -0.0078866035 -0.03185395
-0.013597236 0.073114164 0.046241235 0.09422089 -0.08787626 -0.06917882 -0.06432633 0.07300237
0.025280477 0.016399756 -0.13827097 0.074999414 0.08572862 0.07639651 -0.05068232 0.03465156
0.05929162 0.07214359 0.0048172534 -0.08837307 -0.023305995 0.020362584 -0.05211645 -0.010058482
-0.09810474 -0.07574194 0.07940901 0.02833792 0.002339229 -0.06548542 -0.07113943 -0.07629458
-0.051952563 -0.038892016 -0.17409602 -0.05810953 0.06273735 -0.07635938 -0.08406535 -0.17443037
-0.026251165 0.073894106 -0.06415915 -0.04333191 -0.015087417 -0.090348475 0.08452459 0.026133545
0.03098442 0.014957395 0.0110502895 -0.020483417 -0.051980626 0.031753395 -0.023639832 -0.055505503
-0.0031464316 0.078647815 -0.022509933 -0.06719483 -0.012612698 -0.049347576 0.038935013 -0.021898167
0.017200094 -0.06999847 0.015060576 0.019523041 -0.07025275 -0.068272494 0.032500207 -0.006911834
0.061509278 -0.044040162 -0.0112250205 -0.055784013 0.044853847 0.013985251 0.026467994 0.023195026
-0.056959968 0.034015574 0.023227597 -0.0533225 0.04442458 0.00035893204 -0.082314566 0.06345685
0.04673226 -0.0061321296 -0.052071054 0.0129547315 0.07903443 0.082220376 -0.04626492 -0.021152565
0.08404706 0.047999047 0.039248858 -0.05213311 0.09222021 -0.072143525 -0.004613952 -0.014256775

conv1.convR.bias f4 [16]
00000000: 5f22 fd3d 97fa 2f3c 8e26 b03d b08a 87bd
00000010: 465d b73d 72d1 05be 81b6 023e 13ce b5bd
00000020: 0aae 133e 7ec1 593b fc58 f5bc 57fb c23d
00000030: e1d0 10bd cd8c 4e3d ec18 b6bd 8ca4 09bc
0.123600714 0.010740898 0.08601104 -0.066182494 0.08953337 -0.13068178 0.12764932 -0.08877196
0.1442186 0.0033226903 -0.029949658 0.095205955 -0.035355452 0.050427247 -0.08891472 -0.008401047

conv1.convI.weight f4 [16, 1, 5, 5, 5]
00000000: 68b7 97bc 4102 1abd 1df9 4f3d cb5d 193d
00000010: 7611 e0bc 3fa0 133d 07ca 9d3d 538b 54bd
00000020: 33d3 813d 3dd9 75bd a990 89bd 4523 a8bd
00000030: be1e d53c 4070 ae3d bb27 82bd 232c 8cbd
00000040: 140f 803d 4f00 d5bc 67bd 7f3d 9bdd a13c
00000050: a8fd 813d 4c9f d93c 68af aa3d 432b abbc
00000060: 2395 803c dd24 5dbd 9a80 773d 070d acbb
00000070: 0aa1 62bd b094 343d d4cf 213d d641 77bd
00000080: 39c5 d1bb fbc3 a0bd 154c 453c c352 8f3c
00000090: b98d b33d 76a8 e9bc 425b 4f3d 1a75 42bb
000000a0: 459c 2ebd c5a9 8cbd 7ca6 dc3c 8a28 a03d
000000b0: 2edc 4abc 6749 c53c bf9c a7bb 321f 48bd
000000c0: afda d03c a7d3 0dbd 7827 fd3c 3afe c5bc
000000d0: 32c9 8b3d 54b7 9c3b 698e c6bd bbe3 5d3d
000000e0: 154b afbc 7294 94bd 3a26 ad3d 300f ba3a
000000f0: b6c8 753c 70be 89bd 98ff 18bd bd70 ae3d
00000100: e952 68bd 8e42 b0bd ef1e 9f3d a6f9 99bc
00000110: 0c81 c63b 68cd 913d 17ad 263c 34bd 36bd
00000120: 3bed cabc 6b7b 8c3d 578d cabc 3af6 813d
00000130: 8a9f a63d b2b9 243d 945c 01b9 3b00 65bd
00000140: 2e06 64bd 0f3d 93bd cf56 2cbc c733 833d
00000150: 5929 ab3c 607f da3b b90d 75bd b84e 193d
00000160: 1d85 33bc 74ff c2ba 1e85 64bd 966a cc3c
00000170: 2e64 893c 7dec 57bc addb 42bd b696 833c
00000180: daf0 0e3c f114 6d3d 28bb 69bd 3ef2 8e3d
00000190: 90ef 85bd c32e 52bd da0f 80bc 6ec1 82bd
000001a0: 9cf5 2d3d f850 1cbb c59f 443c a294 e13c
000001b0: ee3f b13c 0ede 683d f4c1 be3d 9b58 7c3d
000001c0: 6eb8 87bd ec12 3a3d 8f13 11bd 48df 2b3d
000001d0: e8ba b13d fa97 d5bc 0646 bc3b f40b c0bd
000001e0: b359 4b3d 8e48 40bc f7c7 82bc b7a3 8e3c
000001f0: 2879 f3bb a707 ab3c 332e a13d 1c34 ad3d
00000200: 7dbe 853d 8ac3 eebc 351a 9ebd 55da 7b3d
00000210: 610a ed3d e220 243d 0151 3fbd 8cf9 31bd
00000220: 5f93 923d b22a 20bd 0b58 a5bd 5053 6a3c
00000230: fb22 8d3d 026c fcbc ca53 2dbc b585 4ebd
00000240: 60cf 42bd d833 493c 2d44 5c3c c1c3 9a3d
00000250: 1952 adbd 0dd2 bfbc 835d b0bd ed7b bfbd
00000260: 08fc 1b3d 4280 05bc 78b3 67bd 53d1 24bc
00000270: 885f ba3c f76a a53d 66ab 443d 41fe 8bbd
00000280: 117a 8f39 2e42 c8bd 28cd 473d acd8 353d
00000290: fc81 b4bd dced 8bbc 8866 e73c 1e75 1abc
000002a0: 4a42 c2bd 9763 9d3d 9adf 33bd 9815 573d
000002b0: 0507 933d d2fb bebd d55e ffbc dd4e 88bd
000002c0: a6ab 9d3d f846 21bd dbeb acbd 6614 94bd
000002d0: 6bf3 4fbd 04a4 7a3d 2e51 aebd 7218 8cbd
000002e0: b4a4 aabd d303 093d dd1d b63c 7da5 34bc
000002f0: aa9a 4e3d 6a89 403c 116d 593c ef10 0bbd
00000300: 9b37 0cbd 6abf 8cbd 5dba 15bd 390c cdbc
00000310: 0d3c 0bbd 8eb1 8cbd 5393 48bd 41ad 323d
00000320: c84e 5e3c c0c6 10bd f798 b03a f2fd 4bbd
00000330: 6941 7a3d 8194 b1bd 40a3 75bd 5d3d 223d
00000340: ca13 aabd 3b40 07bd 37a5 063b f113 2abd
00000350: a64d b6bd 258f 593d d044 bebc 193f 533d
00000360: 2108 fdbc ee9c c0bd 5661 5f3d 978f 8fbd
00000370: ac2b c0bd 3cdc 523d 3d34 8cbd 3e7a 823c
00000380: 76f1 84bd 5026 653d d017 6d3c ce21 8c3d
00000390: 0f51 d7bd d1be 8a3c 026f 26bd abb7 203d
000003a0: 2f17 10bd 7a27 903d a455 993d 2453 cc3b
000003b0: 9e43 8abd 1b93 203d 6749 dcbd 934b 0a3d
000003c0: 604e 3a3c 4fc4 1d3d c0f0 553c 9530 5d3d
000003d0: bf59 74bd f7d9 103d 4491 163d 4525 c53c
000003e0: f641 943c d435 5abc d5fd b73c 6f72 6fbd
000003f0: 7d86 243d 785d 713d 82f4 143b 8824 01bd
-0.018520072 -0.037599806 0.050774682 0.037442964 -0.027352076 0.036041494 0.07704549 -0.051890682
0.06339111 -0.060021628 -0.06717045 -0.08209852 0.026015636 0.08517504 -0.06355234 -0.06844356
0.06252876 -0.026001124 0.062436488 0.01975899 0.06347209 0.026565216 0.08334237 -0.020894652
0.015696114 -0.053990234 0.06042538 -0.0052505764 -0.05532936 0.044087112 0.03950484 -0.06036552
-0.0064016846 -0.0784988 0.012042065 0.017495519 0.08767266 -0.028522711 0.05062414 -0.0029671849
-0.0426295 -0.068683185 0.026934855 0.07820232 -0.0123815965 0.024082853 -0.005115121 -0.048857875
0.025494901 -0.034625676 0.03090261 -0.024169076 0.06825484 0.0047825966 -0.09695131 0.05417226
-0.021398107 -0.07254876 0.08454557 0.00141952 0.0150014665 -0.06725776 -0.03735313 0.08517597
-0.056719694 -0.08606444 0.07769572 -0.0187958 0.006057864 0.07119256 0.010173104 -0.044614032
-0.024771323 0.068594776 -0.0247256 0.06345792 0.081358984 0.040216155 -0.00012336887 -0.055908423
-0.055669956 -0.071893804 -0.010518744 0.0640636 0.02089374 0.0066680163 -0.05982754 0.037428588
-0.01095703 -0.0014877156 -0.055791013 0.024953168 0.016771402 -0.013178942 -0.04757278 0.016063076
0.008724416 0.0578813 -0.05706325 0.06979798 -0.065398335 -0.051314127 -0.015632559 -0.0638455
0.04247056 -0.0023851972 0.012000983 0.027536694 0.02163693 0.056852393 0.093143374 0.06160794
-0.06626974 0.0454282 -0.035419043 0.041960984 0.08678228 -0.026073445 0.005745652 -0.0937728
0.04964609 -0.011736048 -0.015964491 0.01741205 -0.0074302144 0.020877672 0.0787014 0.08457205
0.065304734 -0.029145975 -0.07719842 0.061487515 0.11574245 0.040070422 -0.04670811 -0.043450877
0.07157015 -0.039103217 -0.080734335 0.01430209 0.068914376 -0.03081322 -0.010579059 -0.05042048
-0.04756105 0.012280427 0.013443989 0.07556868 -0.084629245 -0.02341559 -0.08611586 -0.09349809
0.038082153 -0.008148255 -0.05656764 -0.010059672 0.022750631 0.080770425 0.04801502 -0.068356045
0.00027366032 -0.09778248 0.048779637 0.044396088 -0.08813855 -0.017081194 0.028247133 -0.009427337
-0.094853 0.07685011 -0.043914415 0.052510828 0.07179073 -0.09325375 -0.03117315 -0.06655667
0.07698755 -0.03937432 -0.08443423 -0.07230453 -0.05076925 0.061191574 -0.085115775 -0.068406
-0.08332196 0.033450913 0.022231037 -0.011025784 0.050440468 0.011751512 0.013270632 -0.033951696
-0.034232717 -0.06872447 -0.036554683 -0.025030242 -0.033992816 -0.06869803 -0.048968624 0.04362226
0.013568588 -0.035345793 0.0013473321 -0.049802728 0.061097536 -0.08670903 -0.05997014 0.0396093
-0.08304556 -0.03302024 0.0020545253 -0.041522924 -0.08901529 0.05311503 -0.023226172 0.051573846
-0.030887665 -0.09404932 0.054536186 -0.070098095 -0.0938333 0.051479563 -0.06845901 0.01592743
-0.064913675 0.05594474 0.014471009 0.06842385 -0.105135076 0.016936691 -0.04063321 0.03923766
-0.03517836 0.070387796 0.07487038 0.006235497 -0.06751178 0.03920279 -0.10756188 0.03376348
0.011371225 0.038517293 0.013057888 0.05400141 -0.0596559 0.035364117 0.03675963 0.024065623
0.018097859 -0.013318498 0.022459904 -0.05845874 0.04016732 0.05892703 0.0022728746 -0.03152898

conv1.convI.bias f4 [16]
00000000: e5d7 553d f30e 07be 46b6 213d 8b55 2cbd
00000010: 10da 59bd c2ee 52bd bde8 163e 5c3a fd3d
00000020: af48 06bd 12d4 8a3d f4e2 723c 4691 6abd
00000030: c131 863d 5c67 49bc 954e f2bd c78a 083e
0.052207846 -0.13189296 0.03948047 -0.042073768 -0.053186476 -0.05149723 0.1473722 0.12364647
-0.03278416 0.067787305 0.014824618 -0.05726745 0.065524586 -0.012292709 -0.118313946 0.1333419

bn1R.weight f4 [16]
00000000: 6329 7c3f 6d66 013f f16d 8d3e 4501 313f
00000010: f7b1 773f b26d 203f 4b49 1a3f 3ebd 243f
00000020: 55d0 3e3f ff85 4c3e 3cb7 d83e a468 873e
00000030: bc63 d33e f7cb 473f f653 9b3e e5de c83e
0.9850065 0.50546914 0.2762294 0.6914256 0.9675593 0.6266738 0.60268086 0.6435126
0.7453664 0.1997299 0.42327297 0.26447022 0.4128703 0.780456 0.30337495 0.39232555

bn1R.bias f4 [16]
00000000: d50e 02bc ff2e aebd 0fbe 6e3d 47f6 a73c
00000010: eb02 0abe b85b 0ebe 335a 65bd 2adc edbc
00000020: aa73 68bd 37e9 debc 5500 85bd 9107 cbbb
00000030: 9330 f1bc 3d3c 04be 27e7 d1bc 63bf dcbc
-0.007938107 -0.085050575 0.058286723 0.020503176 -0.13477676 -0.13902175 -0.055994224 -0.029035646
-0.05675093 -0.027210815 -0.06494204 -0.0061959703 -0.029442107 -0.12913604 -0.025622917 -0.026946729

bn1R.running_mean f4 [16]
00000000: aa33 5f3d e9cd 4b3e a014 463e 5c9a 2dbe
00000010: 8adb 0e3e aa5e 853d 1acd ccbc f500 8ebe
00000020: 1708 3e3e e840 ce3d 137e 7d3d cd97 f93d
00000030: 4a44 cdbd 106c cdba c7e4 ab3c 7dd6 0abe
0.05449263 0.19902767 0.19343805 -0.16953415 0.13950935 0.06512196 -0.025000144 -0.27735105
0.18557774 0.10070974 0.061887812 0.12187157 -0.10022791 -0.0015672464 0.020983113 -0.13558383

bn1R.running_var f4 [16]
00000000: 94f0 ab3d 7bab b73c a01c b83d f371 813d
00000010: 2eec a13d 8ed3 843d d5dc c93c f017 ab3c
00000020: 8146 d83b e938 bd3d 9762 1b3d 3267 f33d
00000030: c841 713b 8e29 183d 5d0f 433d 8e3c d33b
0.08395496 0.022420635 0.08989835 0.06320562 0.07906376 0.06485663 0.024641434 0.020885438
0.0066002016 0.092393704 0.03793582 0.11884917 0.003681289 0.037149005 0.047622073 0.0064464277

bn1I.weight f4 [16]
00000000: ec40 173f add6 393f a996 203c cc58 113f
00000010: 369a 603e 70a8 303f 1fa5 153f 77ca a43e
00000020: 3620 af3e ad7a 783f 72e2 e33e 4cf7 673f
00000030: 5079 953e 9c45 3b3f 2b7e 8e3e 7307 e73e
0.5908344 0.72593194 0.009801545 0.5677612 0.21933827 0.69007015 0.5845508 0.32185718
0.34204262 0.9706219 0.44508702 0.9061172 0.29194117 0.7315309 0.27830634 0.4512287

bn1I.bias f4 [16]
00000000: f730 11be a210 b6bb c974 40bd 5c3b eabc
00000010: 5f8d b1bd 30dc 053c c20e a1bd 0621 2dbd
00000020: ba2e 89bc c4c6 50be 9ff7 58bc a863 f7bd
00000030: 6121 073c 994a 7dbd 231d 3bbd b4c9 a6bd
-0.14178835 -0.005556182 -0.046986375 -0.028592758 -0.086695425 0.008170173 -0.07864143 -0.04226782
-0.016745914 -0.20388323 -0.013242631 -0.12079555 0.008247704 -0.06183872 -0.045682084 -0.081439406

bn1I.running_mean f4 [16]
00000000: 32bd b63e 35ad 13be d4ff 513e 9262 03be
00000010: 3595 533e 91a2 27be f9ed 4d3e 0be1 0c3d
00000020: fdad d83d f87f 30bd 0eed 8fbc 2385 7d3e
00000030: 5844 e73c 0d16 0b3e 9476 adbe 291e f63d
0.3569122 -0.14421542 0.20507747 -0.1283057 0.20662387 -0.16370608 0.2011031 0.034394305
0.10580061 -0.04309079 -0.017569091 0.24757819 0.028230831 0.1358263 -0.3387953 0.12017471

bn1I.running_var f4 [16]
00000000: ecb5 c33d 29eb c93c 4925 843d caf1 5f3d
00000010: cf52 b23d 9a85 633d 7aa3 c33c 55af 923c
00000020: 297d cc3b 8829 033e 6875 163d 083c 0a3e
00000030: 60fb 553b 1dae 523d f808 473d 4044 be3b
0.09556183 0.024648266 0.06452424 0.054673947 0.08707201 0.055547334 0.023881663 0.01790587
0.006240506 0.12808812 0.03673306 0.13499463 0.0032651052 0.05143558 0.048592538 0.005806476

conv2.convR.weight f4 [8, 16, 3, 3, 3]
00000000: 8ab0 6abd 4616 bb3c 26a5 903c c2c1 2abd
00000010: 4440 4fbd 928f d6bc d20b 313d 54db 9a3a
00000020: 7e10 173c ad85 2cbd 951e 69bd d374 21bd
00000030: 869c 1dbd 6d7a d2bc 7997 41bd fbe6 3ebb
00000040: bd10 adbc 1c3a dfbc 7cd2 3fbd 8c39 b0ba
00000050: 1373 fe3c dee9 52bd c306 023d 1301 e4bc
00000060: c50e 3b3d 26f5 223c eaff 173d a305 eabc
00000070: 8477 1b3d 083b 5e3c e531 443c 6fc0 563d
00000080: 9351 213d 8d24 acbb ec65 293c 3a80 a1bc
00000090: 6e88 52bc e56c 0e3c 881d 173c 1082 4d3d
000000a0: 5f9a f03c ceda a639 6bc2 3cbb 7923 f53c
000000b0: 9d3c e83c bc7c 0b3d 272c febc 323f d4bc
000000c0: b706 03bd 4e38 37bc 2d8d 41bd 21a3 15bc
000000d0: 3b3c 49bd 3773 2cbd 1fb4 153d 9606 3a3d
000000e0: de23 283d 8262 88bc 137e 023d 0827 2cbd
000000f0: e64d a6bc c655 02bd c6a8 fe3a c2ff 403d
00000100: c3de 9fbb 2454 22bc 39cf e43a 5047 4d3d
00000110: 65f6 103d 9e69 4fbd be29 47bc b511 83bc
00000120: 3131 aebb 238a d7bc 846e abbd bb1c af3c
00000130: 6a87 33bc b7da 6cbd dc07 6abd 2ecb 44bd
00000140: 2645 7bbd 4220 b93b 015d 50bc 7feb f0bb
00000150: c95e 12bc 7779 bf3c b206 1d3d 1eec e2bc
00000160: 556e 253d f649 f13c 4602 0bbc 63dd 3f3d
00000170: 71a6 0dbd 2b07 7fbd 6197 b33c 2a08 39bd
00000180: 3792 763c 6354 063d 9eff 483d e0e1 2abd
00000190: 3da1 a0bc 6480 783c 50d9 9dbc 9988 003c
000001a0: 7496 04bd b916 32bd 363c dc3c d504 1e3b
000001b0: 67a4 18bd fb8f eb3a 56e4 023d 6867 3bbd
000001c0: 2857 ebbb 7dee f7bc c410 0abd 6f8d cf3b
000001d0: 1c84 413d ae6b 65bc 45ac 1a3d 78c5 113d
000001e0: bee6 90bd 6a27 383d eb60 a43c c8d3 753c
000001f0: dc5c c53c 7421 aa3c 7ae3 30bd 3fdd e73c
00000200: 6c63 bc3d 8e22 9a3c c06b d33c 3cbf 473d
00000210: ea56 18bd 43eb 143d e281 973d 6cbe 353c
00000220: b429 643d 9747 8f3c ad00 943c 6f30 b03d
00000230: a08e f8bc 6012 553d fbee a93d c476 0d3c
00000240: b207 3b3d 8ad0 303d e8a4 173c 8fba 033c
00000250: f183 543d 1bb3 d4bc b5fb 813d 5332 0d3c
00000260: 61a4 813d 6d72 913d 0b69 aa3d 4371 923d
00000270: a460 013d 5be4 8abc 77d1 453d d4a2 653d
00000280: d3af 073d c9a1 6c3b 12aa 353d 7f8a 273d
00000290: 3a3d 00bd 1ce0 6dbc 8dfa af3b c41e eebc
000002a0: e72b 61bc 7ede a1bc 996a b5bd 432c 02bd
000002b0: 1272 41bd 78a9 4bbd 94fa 2dbc 4adc 12bc
000002c0: e45a bdbd 1487 b7bc fbf1 713c a3b5 8cbc
000002d0: 353a 6bbc 721e 343d 2243 26bd 769a 69bb
000002e0: aa92 a03d 7873 8cbd 6802 7fbc 5f08 9f3c
000002f0: 3593 a0ba 9a52 f9bc e307 463d 31da 7dbb
00000300: 1aec 583c 9c0b b33d b705 813d 39f0 533d
00000310: ca40 963d c7e4 323c b435 3e3d 1f68 89bc
00000320: f8bb 793d 8b72 1fbd 84ac 18bc 4a04 c23c
00000330: 808f ed3c 4c6f 303d 5df3 223d 9a34 0dbc
00000340: 8f31 a5ba c586 213d de0d b1bc 96ee e4bc
00000350: a777 67bd e5b3 193d 28a2 6d3b 3499 b83c
00000360: ec76 3abd c1ae 9bbd 0202 20bd acef e43b
00000370: 41e2 b13b 7af6 9e3d 5841 173b afc2 123e
00000380: bbc1 753a eecb aabb 3e6b 90bc 61f0 183b
00000390: c060 023c e2ca 04bc 5974 7f3d e381 10bb
000003a0: 6f42 563d 305f 333d 355d 1fbc 37fe 6abd
000003b0: cdd4 bdbc 6b74 19bd 6d9f a4bd 4eaf e7bc
000003c0: c053 a0bd 063c 9dbd a157 90bd b316 033c
000003d0: 0a4a bb3c 27d3 9c3d 7650 ff3c be3d 2d3c
000003e0: e560 d03c 103c 1ebc 9f54 203c e68e 463d
000003f0: 7954 2b3d b21b b53b 527a b5bb 9df9 403d
-0.057297267 0.02283777 0.017656874 -0.041688688 -0.050598398 -0.026191507 0.043224163 0.0011814632
0.009220241 -0.04211967 -0.05691393 -0.039418053 -0.03847935 -0.025693143 -0.047263596 -0.0029129374
-0.021126145 -0.027249388 -0.046831593 -0.0013444885 0.031060731 -0.051492564 0.03174473 -0.027832543
0.045668382 0.009946143 0.037109293 -0.02856714 0.037955776 0.013563879 0.011974786 0.052429613
0.039384436 -0.0052533806 0.0103392415 -0.019714464 -0.01284991 0.008692955 0.009223349 0.050172865
0.029370485 0.0003182501 -0.0028802406 0.029924141 0.028349215 0.034054503 -0.031026913 -0.02590904
-0.031988826 -0.011182858 -0.047253776 -0.009133131 -0.049129706 -0.042102065 0.03654873 0.045416437
0.04104983 -0.016648535 0.031858515 -0.04202941 -0.020300817 -0.03182008 0.001942896 0.04711891
-0.00487885 -0.009907756 0.0017456777 0.050116837 0.03539123 -0.050637834 -0.012155948 -0.015999654
-0.0053159227 -0.026310986 -0.083706886 0.021376004 -0.010957578 -0.05782577 -0.0571364 -0.04804533
-0.061345242 0.0056495974 -0.012717486 -0.007352292 -0.008933731 0.023373349 0.038336463 -0.02770048
0.040388424 0.029454213 -0.008484429 0.04684199 -0.03458256 -0.062262695 0.021922769 -0.0451738
0.015049509 0.03279532 0.0490719 -0.041719317 -0.019608134 0.015167329 -0.019268662 0.007845067
-0.032370046 -0.0434787 0.02688418 0.0024111767 -0.03726616 0.0017971987 0.03195604 -0.045752913
-0.0071820207 -0.030265087 -0.033707395 0.006333999 0.04724513 -0.014002724 0.037761945 0.03558871
-0.070752606 0.044959463 0.020065745 0.015004106 0.02409213 0.020767905 -0.04318569 0.02830374
0.09198651 0.018815305 0.025808215 0.04876636 -0.037192263 0.036357176 0.0739782 0.011092763
0.055703834 0.017490191 0.018066728 0.08602988 -0.030341446 0.052019477 0.08297535 0.008634273
0.045661636 0.04316763 0.009255625 0.0080400845 0.05188364 -0.02596431 0.063468374 0.008617955
0.06330181 0.07101903 0.083208166 0.07150509 0.031586304 -0.016954591 0.048295464 0.056063488
0.033126663 0.0036107174 0.044351645 0.040903565 -0.03130839 -0.014518764 0.005370444 -0.029067405
-0.013743377 -0.019759413 -0.088582225 -0.031780493 -0.047227927 -0.049722165 -0.0106188245 -0.008963654
-0.09245852 -0.022403277 0.014767165 -0.017176455 -0.014357139 0.043974347 -0.040591367 -0.0035645044
0.07840474 -0.068579614 -0.015564539 0.019413171 -0.0012250902 -0.030434895 0.048347365 -0.0038734789
0.013239885 0.08742449 0.06299918 0.051742766 0.07336576 0.010918803 0.046437934 -0.016773282
0.060970277 -0.038927596 -0.009318475 0.023683686 0.02899909 0.04307489 0.03978287 -0.008618498
-0.0012603271 0.039435167 -0.021613058 -0.027945798 -0.056510594 0.037525076 0.0036259983 0.02253399
-0.04552357 -0.07601691 -0.039064415 0.006986579 0.005428583 0.077618554 0.002307972 0.14332078
0.00093748764 -0.0052122986 -0.017629262 0.0023336636 0.007957637 -0.008105012 0.062366817 -0.0022050075
0.05230945 0.04379195 -0.009726812 -0.057371344 -0.02317276 -0.03746454 -0.080382206 -0.028281834
-0.07828474 -0.07677464 -0.07047964 0.008001017 0.022862453 0.076574616 0.031166296 0.0105738025
0.025436828 -0.009657875 0.0097858 0.048476122 0.041828606 0.005526983 -0.0055382634 0.04711305

conv2.convR.bias f4 [8]
00000000: f2ab 973c efe1 253a 8dc9 00bb a841 d3bb
00000010: 05ec 0ebd 4309 083d 0d57 b3bd 12e7 cf3c
0.018514607 0.0006327917 -0.0019651384 -0.006447036 -0.034893055 0.033211958 -0.08756838 0.025378738

conv2.convI.weight f4 [8, 16, 3, 3, 3]
00000000: f5fe 933c 02aa 3abc c0ee e2b9 00e4 4ebb
00000010: 8bee 4bbb 6876 123d 513d ad3c dd57 2f3d
00000020: 708c e7bc 3f2e 6d3c a58a 15bd a5b9 a43c
00000030: 44ec 5a3d 5ed9 bdbb a777 cd3c 31b9 afbc
00000040: 5288 9b3b 2223 133d a021 ab3c 41b2 173d
00000050: d0d9 823c d77b 9bbc a649 42bc fe20 fb3c
00000060: 557c 05bd eb26 223c 833d acbc 3c59 07bd
00000070: 8739 2bbd 5d1a 2a3b 7d13 0bbb 2c03 a53c
00000080: 8922 c0ba 6ffb 75bb 5c47 cf3b c535 843d
00000090: 1aea ebbc eb71 46bc c23a 013c 464b ffbc
000000a0: de86 053d ae54 4dbc a8ee 01bc cba8 c0bc
000000b0: acf0 9cbc 026f 55bd 8fb3 55bd 255c 85bb
000000c0: 0461 aabc d84e 30bd 9355 b3bd 4c85 82bd
000000d0: db59 67bc 92f8 8fbb d4e1 f23c b9f6 81ba
000000e0: 93ce b53b 431c 3abd 0510 31bc 7788 fdbb
000000f0: 5e01 faba 6ac6 0a3d 7a2f 573d 1105 493d
00000100: 927c 753d ba4a e5bb 37b1 16bd 267c bcbb
00000110: 1970 b43b e069 73ba ccc0 533d f529 583c
00000120: 3e41 27bc c342 54bb 35ee eebc 9dd2 d43b
00000130: 0b70 ba3c 5fb3 da3c 8729 26bc 0f6a 85bc
00000140: f219 eb3c 615c 12bc b0a9 1f3d c9e7 10bc
00000150: 1100 313d 5e15 f93c 18a5 663d 76f9 f5bc
00000160: 04b4 353d c80d c5bb d2c9 813d 83fe 683d
00000170: c7df 3c3d f122 973c 7a43 58bc 1dea 643b
00000180: eee3 8a3c b092 863d 1f8a c53c c3ff fa3c
00000190: e81d 533d c847 543d b1be 8f3a 5d26 3c3d
000001a0: 330d 233d 3db2 d2bc 8c4e 2b3d 52f7 c03c
000001b0: a15a 09bd 7573 de3c b32d 2a3d cd6c ecbb
000001c0: 080d 233d aaef f93c 42e5 b1bc 128e 64bc
000001d0: ca88 05bc 42a4 aebc 0cb8 98bb ad43 f63b
000001e0: 17e1 14bd a94d 46bd c489 41bd 6c91 fbbb
000001f0: 807b 05bd ddcc 043d 1bfe 6bbc 953e bb3c
00000200: daba ff3c 35ed 863c d035 e9bc e433 a6bc
00000210: e6f9 943b e9cb babc dcc8 6f3c de34 1abc
00000220: 760c 2d3d d246 1ebc 9531 c83b 09ae 233b
00000230: c3d7 a6bc 6902 403c 57ce 3bbd 5879 d43c
00000240: 988c 973a f1cd 97bb 530d 57bc c07b 9abd
00000250: 634e 41bd 5d5b 83bc eadc 16bd e87d 3ebd
00000260: 4a02 0f3a 41a2 7cbc dcc1 cabc 2889 6c3c
00000270: b37e c1bc edf2 dfbc 3353 e73b 648c b03c
00000280: af20 1abd 642f c8bc d452 453d 9356 8bbc
00000290: 12e2 a0bc cd46 663c 8005 343d c7c2 2ebb
000002a0: 033a 643c a149 423a f2e5 5d3c 79f0 1a3b
000002b0: 8abd d73c b78c 023d 177e c53c 739c 5ebd
000002c0: a789 553c 8025 053d ea13 4ebd 824d 2bbd
000002d0: 9cb8 0f3b 1780 9cbc 6ac3 e7bc c058 d43b
000002e0: 4d3c 7dbd aa33 db3b d021 f13c 6c9d 87bc
000002f0: 5613 423b c23e e9ba 96fb 723d 7b9d 973b
00000300: c729 483d b96c e83b e69a 103d 2b6f b9bb
00000310: 54ee e43c 9beb 563d 39b0 6c3d 5c35 cabc
00000320: 5274 0d3c 4f7c 97bc cf43 af3c ce24 5b3d
00000330: 4fa0 ebbc 3f4e 80bb 4ae7 f83c 2b8e b1bc
00000340: 61a8 323d fff1 d3bc ba2f 083d 20f1 883d
00000350: 55f0 b0bc 3afe 423b 3a86 233d a4e7 e53c
00000360: 988a 3b3d 4127 86bd b8da 9b3c 833b 353a
00000370: 6421 f4bc 7186 da3c 6358 9e3c a8d8 63bb
00000380: c05a 123d 02eb 57bb c555 b8bc 5829 3a3d
00000390: 0e0c 96bc 8a72 4fbc 1710 b63c 20cc a03c
000003a0: 1ce9 c2bc 54a6 ae3b b6aa e63c 54c9 62ba
000003b0: d0e9 f8bb 2bd4 bb3b 5609 9e3c e400 2fbd
000003c0: 61d3 bc3c 0b4d 133d ad32 013d c5b5 2a3d
000003d0: 9b79 95bb df05 e13c 4134 943d 9a27 c13b
000003e0: c960 36bd 34d5 a43d f5d6 9ebc 4130 42bb
000003f0: e188 203c b50c 96bc ae42 ca3c 7aba 023c
0.018065909 -0.011393072 -0.00043283962 -0.0031569004 -0.0031117524 0.035757452 0.021147402 0.042808402
-0.028265208 0.014476358 -0.036509175 0.020108053 0.053447977 -0.0057937345 0.025081469 -0.02145061
0.0047464753 0.035922177 0.020890057 0.03703523 0.015973002 -0.01897995 -0.0118583795 0.03065538
-0.032589275 0.009896974 -0.021025425 -0.033044085 -0.04180291 0.0025955655 -0.0021221333 0.020143114
-0.001465873 -0.00375339 0.0063256454 0.06455568 -0.028798152 -0.012112121 0.007887544 -0.031163823
0.032599322 -0.012532396 -0.007930435 -0.023517987 -0.01915773 -0.05210782 -0.052173194 -0.0040698224
-0.020798214 -0.04304394 -0.08756556 -0.063730806 -0.014120544 -0.0043936456 0.029648699 -0.0009915448
0.005548307 -0.04543711 -0.010807042 -0.007737215 -0.0019073894 0.03388063 0.05253551 0.049077097
0.059933253 -0.0069974335 -0.0367901 -0.0057521043 0.005506527 -0.0009285491 0.051697537 0.013193597
-0.010208426 -0.0032388426 -0.02916632 0.0064948336 0.022758504 0.026696859 -0.010141737 -0.016285924
0.028698895 -0.008933158 0.038980186 -0.008844324 0.043212954 0.030405696 0.05630979 -0.030026179
0.04436113 -0.0060136057 0.06337322 0.056883346 0.04611185 0.018449279 -0.013199681 0.0034929581
0.016954388 0.06570947 0.024113713 0.030639535 0.051542193 0.05182627 0.0010966865 0.045935024
0.03980751 -0.025719756 0.041822955 0.023555432 -0.033533696 0.027154664 0.04154749 -0.0072151185
0.03980735 0.030509789 -0.021715764 -0.013949888 -0.008150289 -0.021318559 -0.004660612 0.007515392
-0.036347475 -0.048413906 -0.047250524 -0.0076772477 -0.032588482 0.032421935 -0.014403845 0.02285699
0.031217027 0.016470531 -0.028468043 -0.020288415 0.004546392 -0.02280231 0.014635291 -0.009412019
0.04224821 -0.00966044 0.0061094263 0.002497556 -0.020366555 0.011719325 -0.045851078 0.025936767
0.0011562286 -0.0046327044 -0.013125735 -0.07543135 -0.047193896 -0.016034776 -0.036831774 -0.046506792
0.0005455358 -0.015419544 -0.024750642 0.0144369975 -0.023619985 -0.027337516 0.0070594787 0.021551318
-0.037628826 -0.02443666 0.048174694 -0.017009055 -0.019639049 0.014054966 0.043950558 -0.002666639
0.013929847 0.0007411484 0.013543593 0.0023641868 0.026335496 0.031872477 0.024107976 -0.05434842
0.013033307 0.032506466 -0.05031196 -0.041821964 0.0021930104 -0.019104047 -0.028291423 0.0064803064
-0.061825085 0.0066895084 0.029435068 -0.016554557 0.0029613576 -0.0017795193 0.059321962 0.0046269274
0.048867967 0.007093039 0.035303973 -0.005659004 0.027945675 0.052470785 0.057785247 -0.024683647
0.00863369 -0.018491892 0.021394638 0.053501897 -0.028762965 -0.0039155777 0.030383725 -0.021674236
0.04361761 -0.025872229 0.03324864 0.06686616 -0.021598974 0.0029753582 0.03992293 0.028064556
0.04578647 -0.06550456 0.019025192 0.000691347 -0.029801078 0.026675435 0.019329255 -0.0034766588
0.035731077 -0.0032946472 -0.022501836 0.045449585 -0.018316295 -0.012661586 0.02222447 0.019628584
-0.023792796 0.0053298865 0.028157573 -0.0008651216 -0.007596232 0.0057320795 0.019291561 -0.04272546
0.023050012 0.035962146 0.03154247 0.041677255 -0.0045616156 0.02746862 0.07236529 0.0058946135
-0.044525895 0.08048478 -0.019389609 -0.0029630812 0.0097982595 -0.018316606 0.024689998 0.00797903

conv2.convI.bias f4 [8]
00000000: f315 843d c70e 5b3c 701c 6dbb d160 e2bb
00000010: b9bc 3d3c d77a b93c da3b 98bd d49f 1bbb
0.06449499 0.013370222 -0.003618028 -0.006908514 0.0115806395 0.022641582 -0.07433291 -0.0023746388

bn2R.weight f4 [8]
00000000: 0096 873e d681 513f 2a2c 393f 141d fe3e
00000010: 867b 1e3f 8006 983e a908 3a3e 88d7 543f
0.26481628 0.8183874 0.72333014 0.4963156 0.6190723 0.2969246 0.18167366 0.83141375

bn2R.bias f4 [8]
00000000: ac44 ebbd 1515 81bd 3a9c 28be 280c a73c
00000010: 43b9 8dbd 82ed 79bd dd76 e9bc e945 c1bd
-0.114877075 -0.06302849 -0.16465846 0.020391539 -0.069201015 -0.06101752 -0.028499061 -0.094371624

bn2R.running_mean f4 [8]
00000000: cf03 5c3e e4b1 95bf 3516 98bf b653 06be
00000010: 3be2 373e 605a 203e 49d7 e4bb 8ac5 11bf
0.21485828 -1.1694913 -1.1881777 -0.1311787 0.17957394 0.15659475 -0.006983672 -0.56942046

bn2R.running_var f4 [8]
00000000: f58e dd3e b34d d93f a326 2f40 0b96 563f
00000010: aedc 863f 6aaf 043f ae71 8d3e 35d8 0440
0.4327313 1.6976837 2.7367332 0.838227 1.0536096 0.5183016 0.27625793 2.0756962

bn2I.weight f4 [8]
00000000: 3f38 003f 4189 e03d 51c5 b13d 9044 603f
00000010: be6d 223f fd14 a33d 2387 eb3e 289c 0c3f
0.50085825 0.10963679 0.08680213 0.8760462 0.63448703 0.079629876 0.4600154 0.54925776

bn2I.bias f4 [8]
00000000: 0f65 39be c94a 01bc c43d 93bc da43 ecbd
00000010: a136 38bd da86 d0bc 18b4 71bd 9a19 48bd
-0.18104957 -0.007891365 -0.017973788 -0.11536379 -0.044973973 -0.025454927 -0.05900964 -0.04885254

bn2I.running_mean f4 [8]
00000000: 9c54 453f 9cdc 423f e93b b53e 00d0 10bf
00000010: 9f9c 113f 426b fcbe 78a8 123e 8709 753d
0.7708223 0.76117873 0.3539727 -0.5656738 0.5687961 -0.4930058 0.14322078 0.05982354

bn2I.running_var f4 [8]
00000000: 8024 963f 4e9a ff3e d49e 933f d15e 8e3f
00000010: 57f9 753f c5d3 1a3f 97fe 0f3f 55f6 1140
1.1729889 0.49922413 1.1532845 1.1122686 0.9608359 0.60479385 0.5624785 2.28066

res3.convR1.weight f4 [8, 8, 3, 3, 3]
00000000: 8199 0bbc eb54 83bc 49d6 d23c dfb9 013c
00000010: 4a77 c53b 6c41 593d 05ba b7bc 4191 703c
00000020: bfe7 04bd e9b9 9c3d db04 693d b7e6 98bc
00000030: b8d8 4a3d 1c59 983d 123d 353c 12af 0ebd
00000040: 1eb5 20bc 2a35 033d 8f69 923d 058a 843b
00000050: be79 133d 0466 823d 1c6a e8bc b65e 013d
00000060: 93d6 5b3d 71bf 973c 0b83 2d3d ffe2 89bc
00000070: 3dba 323d 5f95 9b3d 598b d9bb 8009 823c
00000080: 53fc d5b9 a8b5 023c c84e ae3c 2dd5 003d
00000090: d74c 733d abc4 27bd 1141 a83d 32c1 b7bc
000000a0: 2120 12bd 3510 3cbd 9b6b 603d 22f6 48bd
000000b0: 6aa7 573d 02af 5d3d 3ab7 6fbc 9eeb 663c
000000c0: f931 283d 3004 9e3d 5b90 173c 402e 493d
000000d0: 9e0e 0e3d d180 3c3b d2a7 18bd c1f3 0ebb
000000e0: 6d14 3fbd 5580 21bd daa3 2d3d cdeb c73d
000000f0: 9357 77bd d3de 86bd 3dcf bfbc 92ed 99bb
00000100: 3512 1e3d 9612 4a3d d533 14bd 1397 883c
00000110: 6ca0 d83c 3173 523c 5408 8f3d 12d8 a53d
00000120: ee42 27bd b80d 8d3c 1cb3 953d 44bb dcbc
00000130: 65e6 c93d 6744 993d ba0a b13c 1326 0dbc
00000140: 0827 cb3d 6eb9 58bd c6a0 5abd 2e59 813d
00000150: 3aa2 bfbc 9b2a ff39 de36 e83a dacf ff3c
00000160: d2b8 eb3b 3ac7 75bd 2da0 653d 8494 6d3b
00000170: ba1d 8cba ce7f 0c3d 1dd2 893b 9c68 6d3d
00000180: a2b7 e93c eb55 453d 0e9e b63c 55f4 9dbd
00000190: 929b 2fbd eac2 87bd f9ed f9ba 1f41 c43b
000001a0: 8aed 0cbd 48d3 c3bd 455a 013c 384d e13c
000001b0: 29fc 403b b4d2 44bc b0e0 b8bb 9f65 c4bd
000001c0: d10b b5bc 6672 173d 001b aebb 8d9d d3bb
000001d0: 3669 d33a cb87 82bd 393d 193c 69c0 65bc
000001e0: 0c12 d53b 7231 493d f6ff 043d a9a0 0ebd
000001f0: dcfd 123d 9c8d 6d3d e8e0 443d 73b1 23bc
00000200: 0279 c9bc b01e 04bc 291f 053d 476c 19bd
00000210: ae63 e1bc b0d0 c9bc 30fa 78bb e5ec a53d
00000220: c3b9 923d b976 723d 5bbd 923d 22e2 b53c
00000230: 6556 5b3d 4e92 0b3c cf96 ea3c 1ab4 2a3d
00000240: 39aa 313d 5fe1 9e3d 0b0c 0c3d 1e44 4d3d
00000250: ef0f 7c3d d39a 793c 0137 9f3d 4861 993b
00000260: 94b0 1abd 2519 4dbc 2552 a13b e362 1a3d
00000270: a32e f03c 3bdf 893c 1651 b8bc 0479 e1bb
00000280: 8717 283d caaf b23d 2c48 f0bc 678a 45bd
00000290: 89e2 593c 91d4 b4bc a651 413c 8c26 01bd
000002a0: 766b 24bd 8735 49bc a788 e63c a91d 333d
000002b0: 0ce4 9cbc 98f9 5b3d 6fb8 963c 1e72 5d3d
000002c0: 66a3 66bd ba35 173d 3691 9bbd e0f2 a6bd
000002d0: e94f 22bd 15b0 3639 117b 6a3d 905b 0dbd
000002e0: 9456 d5bc e0fd 8fbd 1758 beba 8144 873d
000002f0: af8c ffbc e98e 56bb 8507 4a3d 921c 0d3d
00000300: 1d65 4cbb 1ae4 73bd 5524 513d 8d87 203d
00000310: 1b5d db3c f363 833d ec5f 623d 5175 f53c
00000320: 741d 6dbc dc4e 753d 35f3 a9bc d8f4 a73d
00000330: c291 b43d 7668 a43c d2b5 803d f0ce f6bc
00000340: 7d9b 1a3d d44d 453c 389a 13bd 67fd b5bc
00000350: f076 033d 986a 923d 77ac 9d3c 74bb 863d
00000360: 2e77 373d 5394 0dbb d4e5 a43c 4204 553d
00000370: e592 dbbc bafb ae3b 0fcd 783d 850c 89bc
00000380: 4ef8 93bc 4ce5 9f3c abc1 743d cb37 9e3d
00000390: 3c0d ad3d bb3d 8b3c 7b51 6a3d 23de b8bc
000003a0: 2902 563d 52b4 023d 935e 2b3d c41f c5bc
000003b0: 55ba e4bc 06de 8e3d f196 29bd 97d2 61bc
000003c0: 6b18 27bd 1d8d b3bc 495e 3a3d 27ba c0bc
000003d0: 3379 cbbc 3cca 6aba 0438 28bd 7b1f 753b
000003e0: 9687 f1bc fee3 fcbc d5dd bfbc 159c 183d
000003f0: 0b80 173d aec0 153c 2978 13bc e76b 89bd
-0.008520485 -0.016031703 0.025736945 0.00791785 0.0060261833 0.053040907 -0.022427568 0.014683069
-0.032447573 0.07652647 0.056889396 -0.0186647 0.049523085 0.07438871 0.011061924 -0.03483493
-0.009808807 0.032033123 0.0714904 0.0040447735 0.036004774 0.06367114 -0.02837091 0.031584464
0.05367143 0.018523904 0.0423613 -0.016831873 0.043634642 0.0759685 -0.006638926 0.01587367
-0.00040814522 0.007977881 0.0212778 0.0314533 0.059399452 -0.04095904 0.082155354 -0.02243099
-0.03567517 -0.045913894 0.05479012 -0.049062856 0.052649893 0.05412198 -0.014631087 0.014094261
0.041063283 0.077156425 0.009250726 0.049116373 0.03468191 0.0028763304 -0.03726942 -0.002181277
-0.04665034 -0.039429028 0.04239259 0.09761772 -0.06038625 -0.06585469 -0.023414249 -0.00469751
0.038591582 0.04933413 -0.036182243 0.0166736 0.026443683 0.012844847 0.0698401 0.08097853
-0.040835313 0.017218456 0.07309553 -0.026944764 0.098583974 0.0748375 0.02161156 -0.008615035
0.09919554 -0.052911215 -0.05337598 0.06315838 -0.023392785 0.00048669134 0.0017716547 0.031227041
0.007193663 -0.06000445 0.05606096 0.0036251852 -0.0010690012 0.03430157 0.0042059557 0.05796109
0.028529946 0.04817764 0.022292163 -0.07712618 -0.042872973 -0.06628974 -0.0019068114 0.0059892084
-0.034406222 -0.09561783 0.007895057 0.027502641 0.0029447174 -0.012013126 -0.005642019 -0.09589695
-0.022100361 0.036974333 -0.0053132772 -0.0064579905 0.0016129378 -0.06373557 0.0093529755 -0.014022925
0.0065023955 0.04911942 0.032470666 -0.034821186 0.03588663 0.057996377 0.04806605 -0.009991038
-0.024593834 -0.008063957 0.03250042 -0.037456777 -0.027513351 -0.024635643 -0.003799092 0.08101825
0.071643375 0.059195254 0.07165023 0.022202555 0.05354919 0.0085187685 0.028636364 0.041675664
0.043375228 0.0775783 0.034191173 0.05011379 0.061538633 0.015234667 0.07774163 0.0046807863
-0.037766054 -0.012518202 0.0049231225 0.037691962 0.029319113 0.016830077 -0.022499602 -0.0068808813
0.041038062 0.08724935 -0.02933129 -0.048227694 0.013298639 -0.022074016 0.011799252 -0.0315309
-0.040141545 -0.012280828 0.028141333 0.043729458 -0.01915171 0.053704828 0.018398492 0.05406391
-0.056308173 0.036916472 -0.07596056 -0.081517935 -0.03962699 0.00017422468 0.05724627 -0.03451115
-0.02604226 -0.07030845 -0.0014522102 0.06604863 -0.031195013 -0.003273899 0.049323577 0.034451075
-0.0031188198 -0.059543706 0.05106004 0.03919177 0.026777795 0.06415548 0.05526726 0.029963167
-0.014472354 0.05988966 -0.020745853 0.08200997 0.088168636 0.020069342 0.062846795 -0.030127972
0.03774594 0.012042481 -0.036035746 -0.022215558 0.03209585 0.071492374 0.019247277 0.065787226
0.044791393 -0.00216033 0.020129122 0.052006014 -0.026803443 0.0053400667 0.060742434 -0.016729603
-0.018062737 0.019518517 0.05975501 0.077254854 0.0844979 0.016997209 0.057206612 -0.02256686
0.052248154 0.031910248 0.04183824 -0.024062999 -0.027920881 0.06975941 -0.041403715 -0.013783119
-0.04079477 -0.021917874 0.045500074 -0.023526264 -0.024838066 -0.0008956527 -0.041069046 0.0037402797
-0.029483598 -0.030870434 -0.023421207 0.037258226 0.036987346 0.009140177 -0.009000816 -0.06710034

res3.convI1.weight f4 [8, 8, 3, 3, 3]
00000000: 1fa0 713c e8f4 04bc dabf d4bc 017f 0cbd
00000010: 6953 813b afa7 d63c 6820 77bb 5d2a 3d3d
00000020: fda8 123d 41b6 21bc 3f30 643d b50a 4c3d
00000030: ec12 01bc dfd8 d0bc d7d0 d0bc ac63 e7bc
00000040: f0ec 9ebc c12f e23b e44e 373d 8f16 6fbd
00000050: d8cd 7ebd d926 94bd cc9f 53bd ff66 efbb
00000060: 84c1 33bd e29f 9abd a59b 933c 1d46 ebbc
00000070: 0bfc e9bc 4f9a 2fbd a160 4abd 419c fb3c
00000080: 111a 7bbd c118 02bd 4b4d 49bd fab8 a6bd
00000090: faad 55bc a8f7 a53b 4976 113d 304b 5b3d
000000a0: fd25 543d c258 2ebd c5c9 01bc a1a9 66bd
000000b0: d565 9ebc a03b e3bb 8a57 c43c 658b 5ebd
000000c0: 2a58 27bd 4525 43bd 2187 213d 093b b4bd
000000d0: ad16 0abc bb7b bbbb 7c96 6f3d 190e 8e3d
000000e0: ce2b 053d ccc6 9d3c 3f07 443c 010c 0a3d
000000f0: 8fbf 1f3c 36b6 a43d 4bab 6fbd fe63 5e3d
00000100: 7046 3abc c45f cabc f3c6 493d f2b9 f53b
00000110: 8b65 c63d ca2b 493c af34 b73d a5aa 513d
00000120: e4bc ca3d 1010 3c3c e931 a9bc 1900 043d
00000130: fdb5 613c 79a1 b23d cbb9 4abc 27c1 86bc
00000140: 806f 453b efc1 d63c 8158 26bd 3202 8a3b
00000150: 6de5 3f3c 545f 12bd 649e 02bb 8f3a 82bd
00000160: 1f81 8e3d 4742 08bc 2f7f 0abc 44e2 9c3c
00000170: a0b4 6cbd 0841 4d3b 2c49 6fbc c934 a13d
00000180: 5d3a d43c 24dd 313d 4056 413c 593a b0bd
00000190: b272 603d 617f ca3c f651 c03c baaa de39
000001a0: 3e4d e6bc 7176 f53c 9d3b 6c3d c9e6 b63d
000001b0: b5e5 7ebd 3528 46bc 8feb 8abd 7cf4 d93c
000001c0: 95fd 1e3d f817 063c eb49 abbc 7e7b 89bd
000001d0: 4b80 74b9 4976 e93c 11c3 14bd 288c 7fbd
000001e0: 0175 093d 4dce c83c 8dfe 00bd 8732 4fbd
000001f0: 4a83 89bd 0c65 483d 17f0 f539 2d7d 3a3d
00000200: 5566 b83c 2e29 f73b e4d5 c8bc cd27 63bd
00000210: 9468 4b3d c8e9 f93b 2ec6 0a3d 53e3 3c3c
00000220: 8667 bcbc 58cb 02bd 45a2 463d f332 91bc
00000230: 056e 183d 9fbb 79bc adf8 a3bc 95cc b6bc
00000240: 8a8b 873d 7ce7 993b cd28 87bc 7260 5ebd
00000250: f271 103d ea04 49bd df9b 8abc 2a0e 79bd
00000260: ec81 cabc 39d6 12bd 1924 3b3c f96a 8f3a
00000270: e0de a4bc 0f3d 12bd 919d 7f3d 8897 1ebd
00000280: 9ef6 60bb 983c b6bc 21ad eabb bb3c 6fbd
00000290: 24d4 88bd 9546 72bd 5072 de3b c0d2 68bd
000002a0: 50e7 a1bd 2bc4 83bc 6b94 443d 6239 ddbd
000002b0: 29f1 1abc 93f1 49bd 967f 27bd 7e11 aabd
000002c0: 0c48 1bbd 8d31 e23c 7cf4 e23c 7904 c1bc
000002d0: a6fe c5bd 0b7f 2fbc 6f5b de3b 1550 02bd
000002e0: 812c 83bb 3af0 27bd 8390 c3bd da9d 06bd
000002f0: 1875 dc3c b7e2 16bc ed34 313d 9ace 3a3d
00000300: d608 b33d 5ef4 a63c 37f4 53bd 17e9 8d3b
00000310: 0479 8dbc 5504 52bd 7b17 993d 03fb 543c
00000320: 78f3 763c 91fd a43c aa5e 55bd 8c84 5fbd
00000330: 463d 8a3d 5166 0abc d150 51bd 7860 a93d
00000340: 1d54 fabc 4fdc a53c c620 50bc 13de 9f3b
00000350: 55e1 e53c 6041 4c3c cdbd 38bb 270f 193c
00000360: bbed c5bb 6b32 22bd 22da 5ebc 49df 473d
00000370: 37fd 19bd 33f0 b5bc 3007 d83c e08d adbc
00000380: 2943 323d 11a0 ad3c e55a 5ebd b82e 00bd
00000390: d154 9cbb cb7f 92bd 89da 9bbd 9ccc 2d3d
000003a0: 6410 823c f90b b43c 6ab3 903d c270 1e3d
000003b0: 1809 743c 2d4d 35bc 31ec 7fbd 747c 2ebd
000003c0: c69a 1c3d e308 9ebd 20b5 2dbc fde3 d83c
000003d0: 4124 52bd 725b ddbc 8496 94bc d1fd 52bd
000003e0: b2b8 d8bc ea15 173c 6ae5 74bd cede 94bd
000003f0: 36b3 623d 0e0a 0a3d 9fb4 64bd 5cab b2bc
0.0147476485 -0.008115031 -0.025970388 -0.034300808 0.003946711 0.026203005 -0.0037708525 0.04618298
0.03580569 -0.009870113 0.055710074 0.0498149 -0.0078780465 -0.025494037 -0.025490208 -0.02824577
-0.01940009 0.0069026654 0.04475297 -0.058371123 -0.062208027 -0.07233972 -0.051666066 -0.0073059793
-0.043885723 -0.075500265 0.018018553 -0.028719956 -0.028562566 -0.04287177 -0.04940856 0.030714156
-0.061304156 -0.03176189 -0.049145978 -0.0814075 -0.0130419675 0.0050649233 0.035513196 0.0535385
0.05179404 -0.042565115 -0.007921641 -0.056314114 -0.019335667 -0.006934598 0.023967523 -0.054332156
-0.040855564 -0.047642965 0.03943551 -0.088003226 -0.008428258 -0.005721537 0.058493122 0.06936283
0.03251248 0.019259833 0.011964618 0.033702854 0.009750261 0.080425665 -0.058512967 0.05429458
-0.011369333 -0.024703868 0.049262 0.007498973 0.096873365 0.0122785065 0.089455955 0.05118813
0.09899309 0.011478439 -0.020653682 0.032226656 0.0137763 0.08722205 -0.012373398 -0.016449524
0.0030126274 0.026215522 -0.040611748 0.0042116875 0.011712414 -0.035735443 -0.0019930834 -0.063588254
0.06958222 -0.008316583 -0.0084531745 0.01915086 -0.057789445 0.003131928 -0.014604848 0.07871396
0.025906736 0.043423787 0.011800349 -0.08604879 0.054796882 0.024718942 0.023476582 0.0004247034
-0.028113004 0.029963704 0.05767404 0.089307375 -0.062230784 -0.012094547 -0.067832105 0.026605837
0.038816053 0.0081844255 -0.02090927 -0.067130074 -0.00023317446 0.028498786 -0.036318842 -0.062389523
0.03355885 0.024512434 -0.03149276 -0.050585296 -0.067144945 0.04892449 0.00046908922 0.045529533
0.022509733 0.007542751 -0.024516053 -0.05545788 0.04966028 0.007626746 0.033880405 0.011528808
-0.022998583 -0.031932205 0.048494596 -0.01772449 0.037214298 -0.015242486 -0.020016039 -0.02231435
0.06618412 0.0046967845 -0.016498948 -0.054291196 0.035264917 -0.049076952 -0.016920028 -0.060804524
-0.024720155 -0.03584883 0.011422181 0.0010941915 -0.020125806 -0.03570276 0.062406126 -0.03871873
-0.0034326683 -0.02224569 -0.007161752 -0.058407526 -0.066810876 -0.059149344 0.0067885295 -0.05684161
-0.079054475 -0.016084751 0.047993105 -0.108019605 -0.009456911 -0.04930265 -0.04089316 -0.083041176
-0.037910506 0.027611518 0.02770447 -0.023561703 -0.09667711 -0.010711442 0.006785802 -0.031814653
-0.004003108 -0.041000582 -0.09549048 -0.032865383 0.026911303 -0.0092093265 0.043263365 0.045607187
0.0874192 0.020380195 -0.051746573 0.004330765 -0.017269619 -0.051273663 0.07475182 0.012999299
0.015072696 0.020140441 -0.05209223 -0.054569766 0.06749968 -0.008447246 -0.051102463 0.08270353
-0.030557686 0.020246653 -0.012703126 0.004878768 0.028061548 0.0124667585 -0.0028189302 0.0093419915
-0.0060403026 -0.039598864 -0.013601812 0.048796926 -0.037595 -0.022209262 0.026370615 -0.021185815
0.04352108 0.02119449 -0.054285903 -0.031294554 -0.004770853 -0.07153281 -0.07610042 0.04243146
0.015876956 0.021978365 0.070654705 0.038681753 0.014894746 -0.011065763 -0.06248111 -0.042599156
0.03823354 -0.07716539 -0.010602266 0.0264759 -0.051304106 -0.027021144 -0.018138178 -0.05151159
-0.026455257 0.009221533 -0.0597891 -0.07269059 0.05534669 0.033700995 -0.055836316 -0.021810226

res3.bn1.weight f4 [8]
00000000: da89 6e3e 86be 4d3f df98 6e3f 8bc1 d63e
00000010: 18db 053f c8e4 543f 1060 323f abac db3d
0.23294774 0.8036884 0.9320201 0.41944537 0.52287436 0.8316159 0.6967783 0.10726293

res3.bn1.bias f4 [8]
00000000: f16d 673d 6a41 923d 641d b9bb d77d 4b3d
00000010: 8f41 2c3e 6db5 de3b 413b b03c da47 083d
0.056501333 0.07141383 -0.0056492556 0.049680557 0.16821884 0.00679653 0.02151263 0.033271648

res3.bn1.running_mean f4 [8]
00000000: 3076 573e 3dee 6abd ded4 d33c 1091 47be
00000010: f257 21be 125f cdbc 7579 2d3d b68e 89bd
0.21041179 -0.057356108 0.025858339 -0.1948893 -0.15756205 -0.025069747 0.04235216 -0.06716673

res3.bn1.running_var f4 [8]
00000000: 8442 743d 1fb7 8b3e e3cc e33d b641 9c3e
00000010: b435 af3e 1006 8f3e 6a28 a53e ed05 1b3d
0.059633747 0.27288148 0.111230634 0.30518883 0.3422066 0.27934313 0.32257396 0.03784745
