Unfolded/Results/Unf_3lay_sim/sim_3lay_sim_Unfolded_Model_al0.50_Tr2400_epoch50_lr2.00e-03.pkl (torch_old, 18495 bytes, 36 tensors)

filter.0.conv1.convR.weight f4 [1, 1, 5, 5, 1]
0	0x3c14f850	0.009092405
1	0x3d6b8d51	0.057507817
2	0xbdf0928b	-0.11746701
3	0x3c8621e5	0.016373584
4	0xbe371cf6	-0.17882141
5	0x3e30a965	0.17252119
6	0xbe107984	-0.14108855
7	0xbe4cf2d8	-0.20014513
8	0xbe49c9a5	-0.19705828
9	0x3d79e1ba	0.061006285
10	0xbc1810c0	-0.009281337
11	0x3e0e91a0	0.13922739
12	0xbe0a06e0	-0.13479185
13	0xbe020edf	-0.12700985
14	0xbd962200	-0.07330704
15	0x3d50a6bc	0.05094026
16	0xbcbb0099	-0.022827433
17	0x3e7bb405	0.24580391
18	0x3c1cf977	0.009580961
19	0x3da5ede4	0.08102015
20	0x3dbcb5e2	0.09214379
21	0x3d5c9867	0.05385628
22	0x3d93478d	0.071913816
23	0x3e1c4048	0.15258896
24	0xbe399f3f	-0.18127154

filter.0.conv1.convI.weight f4 [1, 1, 5, 5, 1]
0	0xbe43111f	-0.190495
1	0x3d7fba97	0.062433805
2	0x3de8de88	0.113705695
3	0xbe841eef	-0.2580485
4	0x3d400062	0.046875365
5	0x3d9159c4	0.070971996
6	0x3da0dab2	0.07854213
7	0x3dcf6604	0.1012688
8	0x3e146db1	0.14494969
9	0xbdb594b3	-0.08866253
10	0x3d006fff	0.031356808
11	0x3e1ee196	0.15515742
12	0x3db202fc	0.086919755
13	0x3e377cc6	0.17918691
14	0x3d8fc87f	0.070206635
15	0xbd7f5e99	-0.062346075
16	0x3d1809d9	0.037118766
17	0x3e7ea266	0.24866638
18	0xbcdaa455	-0.026689688
19	0xbd96f9db	-0.07371875
20	0xbd9e5395	-0.07730786
21	0xbc0588e1	-0.00815031
22	0x3e07161b	0.13192026
23	0x3bd3c73d	0.00646296
24	0xbde787e7	-0.11305218

filter.0.conv2.convR.weight f4 [1, 1, 5, 5, 1]
0	0x3d412958	0.04715857
1	0x3d9e3dfa	0.07726665
2	0xbcd3b840	-0.025844693
3	0xbe3e57ca	-0.18588176
4	0xbdfd4d30	-0.12368238
5	0x3e2ed079	0.17071714
6	0x3c43dda0	0.011954695
7	0xbe25e72e	-0.1620147
8	0x3d0135d8	0.03154549
9	0x3e29386f	0.16525434
10	0xbe418933	-0.18899994
11	0xbe09e122	-0.13464788
12	0xbda3212d	-0.07965312
13	0x3c0385d0	0.008027509
14	0xbd3f0fc0	-0.04664588
15	0xbcb40bb0	-0.02197823
16	0xbe47a852	-0.19497803
17	0x3dbfcea2	0.09365584
18	0x3e33c307	0.17554866
19	0x3dfa5cfe	0.12224768
20	0xbe110688	-0.14162648
21	0xbe251708	-0.16122067
22	0x3daa165e	0.083050475
23	0x3b932f40	0.0044917166
24	0x3da7e862	0.081986204

filter.0.conv2.convI.weight f4 [1, 1, 5, 5, 1]
0	0xbc435f60	-0.011924595
1	0x3e106f15	0.14104874
2	0x3dbe04a2	0.092782274
3	0x3bef5200	0.0073034763
4	0x3d211200	0.039323807
5	0xbc9b1fb0	-0.018936008
6	0xbde1363a	-0.10996671
7	0xbd9ac99d	-0.07557986
8	0xbdf97027	-0.121795945
9	0x3e2a1bd9	0.16612186
10	0x3de165be	0.11005734
11	0x3d8f3f12	0.069944516
12	0xbe1d0d28	-0.1533705
13	0x3e1e0735	0.15432437
14	0x3d806d56	0.06270854
15	0x3e0dadf7	0.13835894
16	0xbda121f0	-0.07867801
17	0x3d2daaf8	0.042399377
18	0x3e47f68f	0.19527648
19	0x3e09c2b7	0.13453184
20	0x3e243fb9	0.16039933
21	0xbd2c0500	-0.041996956
22	0x3e1c084f	0.15237544
23	0xbe2067ed	-0.15664645
24	0x3c8db418	0.01729779

filter.0.conv3.convR.weight f4 [1, 1, 5, 5, 1]
0	0xbd3f0cc8	-0.04664305
1	0xbd51cb88	-0.051219493
2	0x3c752ad0	0.014963821
3	0x3e3a6589	0.18202795
4	0x3dcac952	0.0990168
5	0xba5e1a00	-0.0008472502
6	0x3e116059	0.1419691
7	0xbdd1e6dd	-0.10249112
8	0x3dd3189e	0.1030743
9	0xbc97eee8	-0.018546537
10	0xbd0e8cb8	-0.03480217
11	0x3cbfd028	0.023414686
12	0xbe1ce588	-0.15321934
13	0x3cbd5440	0.023111463
14	0x3d89b91e	0.067247614
15	0x3e2f170b	0.17098634
16	0xbd7f0d60	-0.062268615
17	0x3d9377a2	0.072005525
18	0x3e4cb339	0.19990243
19	0xbdafb4aa	-0.08579381
20	0x3e42ae6b	0.19011848
21	0xbdcb5cf7	-0.09929841
22	0x3db48cb2	0.08815898
23	0x3da075fa	0.07835002
24	0x3d64d35c	0.05586563

filter.0.conv3.convI.weight f4 [1, 1, 5, 5, 1]
0	0xbda58bb7	-0.08083289
1	0x3d574d24	0.0525638
2	0x3a931e80	0.00112243
3	0xbe1a09e2	-0.15042832
4	0xbd46e9c8	-0.048562795
5	0xbe08c52a	-0.13356462
6	0x3db51b5a	0.088431075
7	0x3c934918	0.01797919
8	0x3ca08158	0.019592926
9	0xbd788574	-0.060674146
10	0x3a7c1b00	0.00096170604
11	0xbd7ece78	-0.062208623
12	0x3d6b62c4	0.057467237
13	0x3e46e543	0.19423394
14	0x3cf82b58	0.030294105
15	0xbdb56b5a	-0.08858366
16	0xbdfa31f7	-0.12216561
17	0x3c7a79b0	0.015287802
18	0xbe17ee1b	-0.14836924
19	0xbe19f01e	-0.15033004
20	0xbe054cb4	-0.13017541
21	0xbd8b1e56	-0.067928955
22	0x3c728a60	0.014803499
23	0x3e0d0715	0.13772233
24	0x3d9ea77a	0.07746787

filter.0.conv4.convR.weight f4 [1, 1, 5, 5, 1]
0	0xbd362914	-0.04447277
1	0xbc83f4bb	-0.016107908
2	0xbe842f31	-0.25817254
3	0x3d38817e	0.04504537
4	0xbd83a016	-0.06427018
5	0x3e5051fe	0.20343778
6	0xbe069a2e	-0.13144752
7	0x3e4af913	0.19821577
8	0x3e88589f	0.26630113
9	0x3e7b6984	0.2455197
10	0xbe1d35a9	-0.15352501
11	0xbcd76665	-0.026293943
12	0xbd96851b	-0.073496066
13	0xbc9eba91	-0.019376071
14	0xbe28f27e	-0.16498753
15	0x3b8623a4	0.004093604
16	0x3d806563	0.06269338
17	0x3d50403c	0.05084251
18	0xbdc78db8	-0.097438276
19	0xbcbf26aa	-0.023333866
20	0xbccf4825	-0.025302956
21	0xbd5bdb27	-0.053675797
22	0x3de52b18	0.1118986
23	0xbcd8e489	-0.026476162
24	0x3b70a762	0.0036720862

filter.0.conv4.convI.weight f4 [1, 1, 5, 5, 1]
0	0x3e59007d	0.21191593
1	0xbd3b98de	-0.045800082
2	0xbd026b26	-0.031840466
3	0x3ca128d7	0.019672794
4	0x3d378309	0.0448027
5	0xbca612e6	-0.020272683
6	0x3d432afb	0.04764841
7	0xbe86110f	-0.2618489
8	0xbe89ad15	-0.26889864
9	0xbe616151	-0.2200978
10	0x3d366c8f	0.044537123
11	0x3e50413f	0.2033739
12	0x3b13cbfa	0.0022552
13	0x3d94f8a1	0.07273985
14	0x3e9748a1	0.295476
15	0xbe7a9f22	-0.24474767
16	0x3da147df	0.078750364
17	0x3d605375	0.05476709
18	0xbd8a4b84	-0.06752685
19	0xbc317c3d	-0.010832843
20	0x3d80cd0b	0.06289109
21	0xbabaad0c	-0.0014242246
22	0xbb9f501c	-0.0048618447
23	0x3d758f4d	0.059951115
24	0xbcf4086a	-0.029789168

filter.0.conv5.convR.weight f4 [1, 1, 5, 5, 1]
0	0xbcef1798	-0.029186055
1	0x3e037f25	0.1284147
2	0xbd649af4	-0.055811837
3	0xbc9e95d0	-0.019358546
4	0x3da86c26	0.08223753
5	0xbe00e8a5	-0.12588747
6	0x3d5b590c	0.05355172
7	0xbd352354	-0.044223145
8	0x3dc4796a	0.095934704
9	0xbdde3183	-0.10849287
10	0x3bf235c0	0.0073916614
11	0x3ca04898	0.019565865
12	0xbe24c808	-0.16091931
13	0xbe14eb32	-0.14542845
14	0x3d9d164a	0.07670267
15	0xbd6e6ef8	-0.058211297
16	0x3df34292	0.11877932
17	0xbe4a5073	-0.19757251
18	0xbdca7a1d	-0.098865725
19	0xbe28af9b	-0.16473238
20	0x3da39f9e	0.07989429
21	0xbbbdff60	-0.0057982653
22	0xbd18cc60	-0.037304282
23	0xbd084a98	-0.033274263
24	0xbe2014ea	-0.15632978

filter.0.conv5.convI.weight f4 [1, 1, 5, 5, 1]
0	0x3ba35aa0	0.0049851686
1	0xbe0d55cb	-0.13802259
2	0x3d9a20a2	0.075257555
3	0xbb83b8a0	-0.0040198117
4	0xbe461263	-0.19342951
5	0x3ddc5506	0.107584044
6	0x3ddb16fa	0.10697742
7	0xbd1a5878	-0.037682027
8	0xbe0d66d8	-0.13808763
9	0x3c039050	0.008030012
10	0x3e1a89b7	0.15091597
11	0x3e3b762b	0.18306796
12	0xbe1a9550	-0.1509602
13	0xbdb900ed	-0.0903338
14	0x3e1f7659	0.1557249
15	0x3dc8341e	0.097755656
16	0x3dfd8c36	0.12380259
17	0xbdcbdf3a	-0.099546865
18	0x3e307139	0.17230691
19	0xbe285bee	-0.16441318
20	0xbc1dd700	-0.0096337795
21	0x3b881260	0.004152581
22	0x3d099968	0.033593565
23	0xbe1a89ee	-0.15091679
24	0x3e3be5a9	0.18349327

filter.0.conv6.convR.weight f4 [1, 1, 5, 5, 1]
0	0xbe0d6fb8	-0.13812149
1	0x3bf21860	0.0073881596
2	0xbdda2dad	-0.10653243
3	0x3e44612b	0.19177692
4	0x3de46b7e	0.11153315
5	0x3df136b6	0.117780134
6	0x3d84238a	0.06452091
7	0xbca31d28	-0.019911364
8	0x3de6a162	0.1126125
9	0x3b5f3140	0.0034056455
10	0xbd95632a	-0.07294305
11	0x3dd37ad6	0.103261635
12	0x3d8088fa	0.06276126
13	0xbd544448	-0.05182293
14	0xbd6081b8	-0.05481121
15	0xbe351cdd	-0.17686792
16	0xbd608ecc	-0.05482368
17	0xbda5ef4d	-0.081022836
18	0xbddf4083	-0.109009765
19	0xbe38faa8	-0.18064368
20	0x3e206a39	0.1566552
21	0xbe37072d	-0.17873831
22	0x3e4b4ed5	0.19854291
23	0xbdd6d833	-0.104904555
24	0xbc7be0d0	-0.015373424

filter.0.conv6.convI.weight f4 [1, 1, 5, 5, 1]
0	0x3d8721b6	0.06598227
1	0xbd69e18c	-0.057099864
2	0xbe24e02b	-0.16101138
3	0xbda77797	-0.08177107
4	0x3e24ed3b	0.16106121
5	0xbd9aab40	-0.075521946
6	0x3e2aaf41	0.16668417
7	0xbd0d146c	-0.034443304
8	0xbcd0f370	-0.025506705
9	0x3da379f2	0.079822436
10	0xbcf0bcb0	-0.029386848
11	0xbadcc500	-0.0016843379
12	0x3e0dd7d3	0.13851862
13	0x3d88e33e	0.06683968
14	0xbc026e60	-0.007960886
15	0x3d9bfcd6	0.07616584
16	0x3e325e8b	0.17418878
17	0x3d4e78ac	0.05040805
18	0xbd703b6c	-0.05865042
19	0x3d8636d2	0.06553425
20	0xbc8f57c0	-0.017497897
21	0xbe201e18	-0.1563648
22	0xbd9e2883	-0.07722571
23	0x3dba4aaa	0.09096272
24	0x3bd6eb60	0.0065588206

filter.1.conv1.convR.weight f4 [1, 1, 5, 5, 1]
0	0xbda4c5fc	-0.08045575
1	0x3e431a51	0.19053008
2	0xbe66f9c1	-0.22556211
3	0x3deead42	0.1165414
4	0x3cbe8ce4	0.023260541
5	0xbd22116a	-0.03956739
6	0x3dff425e	0.124638304
7	0xbe28c145	-0.16479976
8	0xbcfc0bda	-0.03076737
9	0x3d101582	0.03517676
10	0x3d787e76	0.060667478
11	0x3c7c4f03	0.015399697
12	0xbe084ecf	-0.13311313
13	0xbe7f1433	-0.24910049
14	0x3c4b2794	0.012399573
15	0x3dbd022a	0.092289284
16	0xbdf86910	-0.12129414
17	0xbe0c9f3a	-0.13732615
18	0x3d7ac25f	0.061220523
19	0xbdaae501	-0.0834446
20	0x3d0de2c2	0.03464008
21	0x3e72b9a4	0.23703629
22	0xbdecb07e	-0.11557101
23	0x3d902e05	0.070400275
24	0xbcefd74d	-0.029277468

filter.1.conv1.convI.weight f4 [1, 1, 5, 5, 1]
0	0x3db7b0ef	0.08969294
1	0x3c5004aa	0.0126964245
2	0xbd0dd5e4	-0.03462781
3	0x3d169dc9	0.03677157
4	0xbe6e304e	-0.23260614
5	0xbe1c22b4	-0.15247613
6	0xbe28aa92	-0.16471317
7	0x3e245525	0.16048105
8	0xbdaa806d	-0.083252765
9	0x3d933c92	0.07189287
10	0x3e4690c5	0.19391163
11	0x3da4843f	0.080330364
12	0x3e6bd235	0.23029406
13	0xbd75e46c	-0.060032293
14	0x3e10edc4	0.141532
15	0xbddda088	-0.108216345
16	0xbd8d472b	-0.0689834
17	0x3de30e51	0.11086715
18	0xbe400c84	-0.18754774
19	0x3d8faba2	0.07015158
20	0x3ce065fb	0.027392378
21	0xbd67500b	-0.05647282
22	0x3e1151db	0.14191382
23	0x3d8094d2	0.06278385
24	0xbe1fbc30	-0.15599132

filter.1.conv2.convR.weight f4 [1, 1, 5, 5, 1]
0	0xbdd98538	-0.106211126
1	0x3d27327a	0.040819623
2	0x3d9857b1	0.07438601
3	0x3d921381	0.07132626
4	0xbc12522b	-0.008930723
5	0xbe19e3e9	-0.15028347
6	0x3e138b34	0.1440857
7	0x3caecf3a	0.021339048
8	0x3e3a59c3	0.18198304
9	0x3df20829	0.11817963
10	0xbd53b710	-0.051688254
11	0x3c8b875b	0.017032316
12	0x3e02d632	0.12777022
13	0x3defb4e1	0.11704422
14	0xbe056cea	-0.13029829
15	0xbb765faa	-0.0037593641
16	0x3d817400	0.06320953
17	0x3e086e87	0.13323413
18	0x3ddd9793	0.10819926
19	0x3d8fefb5	0.07028142
20	0xbe8b870a	-0.27251464
21	0x3cf8666d	0.030322278
22	0xbe44e370	-0.19227386
23	0xbe1bd2a3	-0.1521707
24	0x3befdc12	0.0073199356

filter.1.conv2.convI.weight f4 [1, 1, 5, 5, 1]
0	0x3d9f4c2e	0.07778202
1	0xbd7fb256	-0.062425934
2	0xbda0f9fc	-0.07860181
3	0xbdbef9f3	-0.09325018
4	0xbd6025fd	-0.05472373
5	0xbdf5d97e	-0.12004374
6	0xbe2fe1cd	-0.1717598
7	0x3e270f44	0.16314417
8	0xbe2d2733	-0.16909485
9	0xbe46aab3	-0.19401054
10	0x3e557b82	0.20847896
11	0xbd97af60	-0.07406497
12	0xbd07b76d	-0.033133913
13	0x3e2be75f	0.1678748
14	0xbe0e85c3	-0.13918214
15	0x3d029e0c	0.031889006
16	0x3e79e934	0.24405366
17	0x3d3ab777	0.045585122
18	0x3e40c303	0.18824391
19	0x3daffcc1	0.08593131
20	0x3df46b80	0.119345665
21	0x3d88e8c2	0.0668502
22	0x3c26819f	0.01016274
23	0x3dc57a6a	0.09642489
24	0xbe85bab5	-0.2611901

filter.1.conv3.convR.weight f4 [1, 1, 5, 5, 1]
0	0xbdc3a65c	-0.09553215
1	0x3d1244d6	0.03571018
2	0xbc83b1d8	-0.016076013
3	0x3e3a99d8	0.18222749
4	0x3e118385	0.14210327
5	0xbd2411d9	-0.040056083
6	0x3d7ad0c1	0.06123424
7	0xbdd686a8	-0.104749024
8	0x396b3ee8	0.00022434781
9	0x3c55ded9	0.013053619
10	0x3da1ce3b	0.079006635
11	0x3e22c9e8	0.15897334
12	0x3c55827e	0.0130316
13	0x3ea773ae	0.32705444
14	0x3cc96adc	0.024587087
15	0x3dccc716	0.0999891
16	0x3dd46aa7	0.10371905
17	0x3d6022c1	0.054720644
18	0x3de95e44	0.11394933
19	0x3e177ab9	0.14792909
20	0x3e68c0c4	0.22729784
21	0x3e564dac	0.20928067
22	0x3ec3bb29	0.3822873
23	0x3e189653	0.14901094
24	0x3e7932f0	0.24335837

filter.1.conv3.convI.weight f4 [1, 1, 5, 5, 1]
0	0x3b7226f5	0.003694949
1	0xbd0be690	-0.03415543
2	0x3d97a2db	0.07404109
3	0x3c42fc6c	0.011901002
4	0x3e27e483	0.16395764
5	0xbd894a79	-0.06703658
6	0xbd9f4937	-0.077776365
7	0x3db2e5f9	0.0873527
8	0x3e0aeeeb	0.13567702
9	0xbdc01fce	-0.09381066
10	0x3db413b5	0.08792821
11	0x3da77e8b	0.08178433
12	0xbd8237a0	-0.06358266
13	0x3e816b08	0.2527697
14	0xbd423ef7	-0.04742333
15	0x3e1de781	0.15420343
16	0xbe12056d	-0.14259882
17	0x3d9b0e24	0.075710565
18	0x3e68507b	0.22686951
19	0xbe613981	-0.21994592
20	0x3e0b431b	0.13599817
21	0x3d70fae9	0.058833037
22	0x3e58481b	0.21121256
23	0x3e2a82f5	0.16651519
24	0x3d780119	0.06054792

filter.1.conv4.convR.weight f4 [1, 1, 5, 5, 1]
0	0x3d5bb3f4	0.053638414
1	0x3e7429eb	0.23844115
2	0xbd29b9d5	-0.04143699
3	0x3de02c6e	0.10945974
4	0x3d826ce1	0.06368423
5	0xbe0f2db0	-0.13982272
6	0xbe83520b	-0.2564853
7	0xbe873787	-0.26409552
8	0xbe4380aa	-0.1909205
9	0xbe199442	-0.14997962
10	0x3d27dc4c	0.040981576
11	0x3e0cbbbd	0.13743491
12	0x3ccdcf81	0.02512336
13	0xbdfa7f96	-0.12231366
14	0xbdaf1f89	-0.08550937
15	0x3df6bd4e	0.12047826
16	0xbe3b805f	-0.18310688
17	0xbb8d888e	-0.004319257
18	0xbda9959d	-0.082804896
19	0x3e211d33	0.15733795
20	0x3cf54061	0.029937925
21	0x3c958d8e	0.018255975
22	0xbbd2b28c	-0.006429976
23	0x3ce96651	0.028491171
24	0x3d10f4fe	0.035389893

filter.1.conv4.convI.weight f4 [1, 1, 5, 5, 1]
0	0x3dbacea6	0.09121446
1	0xbd263da6	-0.040586136
2	0x3d6bbda9	0.05755392
3	0x3bb21b99	0.005435419
4	0x3d9d5528	0.07682258
5	0x3a84a1dd	0.001011904
6	0xbe3a23f0	-0.18177772
7	0xbdd0f43e	-0.102028355
8	0xbe297442	-0.16548255
9	0xbc0dc6eb	-0.008653383
10	0xbdaa3fd3	-0.08312955
11	0xbdf0119b	-0.11722108
12	0xbe169299	-0.1470436
13	0x3d1fa257	0.03897318
14	0x3e4e91c0	0.20172787
15	0x3e09142e	0.13386604
16	0x3dbaa512	0.09113516
17	0xbc86e940	-0.016468644
18	0x3ce0c4c7	0.02743758
19	0xbdee6c2c	-0.11641726
20	0xbd9ec4c2	-0.07752372
21	0xbd19a20c	-0.037508056
22	0x3cd8c8d3	0.026462948
23	0x3de17440	0.11008501
24	0x3be8ad74	0.0071007553

filter.1.conv5.convR.weight f4 [1, 1, 5, 5, 1]
0	0xbb9e6059	-0.004833263
1	0xbd3d5d64	-0.046231642
2	0xbe0418ee	-0.12900135
3	0xbe137957	-0.14401756
4	0xbe46cec5	-0.19414814
5	0x3e1c036a	0.15235677
6	0x3d515495	0.051106054
7	0xbdb6624e	-0.08905469
8	0x3db91f15	0.090391316
9	0xbcf55b93	-0.029950893
10	0x3dbecc7e	0.093163475
11	0x3e4d5ca8	0.20054877
12	0x3e64e8be	0.22354409
13	0xbda39297	-0.07986944
14	0xbd946f27	-0.07247763
15	0xbe2c80a3	-0.16845946
16	0x3e4cceb1	0.20000722
17	0x3d95cc9c	0.07314417
18	0xbda4c050	-0.08044493
19	0xbd371e24	-0.04470648
20	0x3db1fa32	0.08690299
21	0x3d53e312	0.051730223
22	0x3d8fecda	0.07027598
23	0x3dd4845b	0.10376807
24	0xbdd88d09	-0.10573775

filter.1.conv5.convI.weight f4 [1, 1, 5, 5, 1]
0	0x3d58bb4b	0.05291299
1	0xbe5346f3	-0.20632534
2	0xbd30dacd	-0.043177415
3	0xbdda8c92	-0.10671343
4	0xbd8a3193	-0.06747737
5	0xbd57b2b9	-0.052660678
6	0x3da4276e	0.08015333
7	0xbde91160	-0.11380267
8	0xbe9ae171	-0.30250123
9	0x3e0adc71	0.13560654
10	0xbb2c67d9	-0.0026307015
11	0xbd9275ee	-0.071513996
12	0xbe1d943a	-0.15388575
13	0xbe187c08	-0.14891064
14	0xbe2b2dbe	-0.16716668
15	0x3e416d83	0.18889432
16	0xbe261ee3	-0.1622272
17	0xbe40ac08	-0.18815625
18	0x3d161a42	0.036646135
19	0x3d06c021	0.032898072
20	0x3e0bfcb4	0.13670617
21	0x3d7d7ebc	0.06188844
22	0xbd849693	-0.06474032
23	0x3dc5556c	0.096354336
24	0xbd4f90c4	-0.05067517

filter.1.conv6.convR.weight f4 [1, 1, 5, 5, 1]
0	0x3d82d7a9	0.0638879
1	0xbd766767	-0.060157206
2	0xbd774a96	-0.060373865
3	0x3da86def	0.08224093
4	0x3cc7f09c	0.024406724
5	0xbd97732f	-0.073950164
6	0x3c631981	0.013861061
7	0x3d4710d3	0.04860003
8	0xbdc540c4	-0.09631494
9	0x3de4b052	0.11166443
10	0x3ddfe9b8	0.1093325
11	0x39fcffed	0.00048255865
12	0xbc0dc8fd	-0.008653876
13	0x3e2550c3	0.1614409
14	0xbd9dda3d	-0.07707641
15	0x3e09c917	0.13455616
16	0xbe2b9afa	-0.16758338
17	0xbbe1a9a2	-0.006886677
18	0x3d2e4196	0.042543016
19	0xbc458c4b	-0.012057374
20	0xbd8fcfe2	-0.070220724
21	0x3cfaa468	0.030595973
22	0x3d8feee8	0.070279896
23	0xbd2a2a1e	-0.041544072
24	0x3dc7440a	0.09729774

filter.1.conv6.convI.weight f4 [1, 1, 5, 5, 1]
0	0x3c3e3a94	0.011610646
1	0xbc664c67	-0.014056302
2	0xbcd17c96	-0.025572103
3	0xbe185e8b	-0.14879815
4	0xbcdf1dba	-0.027235854
5	0xbe2d4567	-0.16921006
6	0xbe094c87	-0.13408099
7	0xbaf09f8f	-0.0018358099
8	0xbe074adc	-0.1321215
9	0xbcfc556b	-0.03080245
10	0xbdcf5274	-0.101231486
11	0xbd96551a	-0.073404506
12	0xbe4998d5	-0.19687207
13	0xbdf8973a	-0.12138219
14	0xbccee79e	-0.025256928
15	0xbd29c52c	-0.041447803
16	0xbe13408b	-0.1438009
17	0xbe11bd50	-0.14232373
18	0xbe0fdb90	-0.140486
19	0x3e214000	0.1574707
20	0x3cee5471	0.029093
21	0x3db181c7	0.08667331
22	0x3d08f92e	0.03344076
23	0xbe260a85	-0.1621495
24	0xbd3d98f6	-0.046288453

filter.2.conv1.convR.weight f4 [1, 1, 5, 5, 1]
0	0xbdb3eb62	-0.0878513
1	0x3ddad070	0.106842875
2	0x3ce09422	0.027414385
3	0xbd9f3074	-0.077729136
4	0x3dbdc522	0.09266116
5	0x3c157879	0.009122961
6	0xbd2b330d	-0.041796733
7	0x3e7a1a9c	0.24424213
8	0xbd8c4887	-0.06849771
9	0xbe11addc	-0.14226478
10	0x3e1475dc	0.14498085
11	0x3e01f6e4	0.12691838
12	0x3e80ab8a	0.25130874
13	0x3eac40dd	0.33643237
14	0x3d46484c	0.04840879
15	0xbdcbf222	-0.099582925
16	0x3d1c4571	0.038152162
17	0x3e1de1f6	0.15418229
18	0xbe0f4ed0	-0.13994908
19	0x3d592286	0.05301144
20	0xbd2337ab	-0.03984801
21	0xbc4986cc	-0.0123002045
22	0x3e3e05d9	0.18556918
23	0xbdd36d7c	-0.10323617
24	0xbcf3fb36	-0.029782873

filter.2.conv1.convI.weight f4 [1, 1, 5, 5, 1]
0	0xbdc94a4d	-0.09828625
1	0xbcca20aa	-0.024673779
2	0xbc8c94ea	-0.017160852
3	0xbc0069ea	-0.007837752
4	0x3d13c5da	0.036077358
5	0x3e0f61f1	0.14002205
6	0x3e0281aa	0.12744775
7	0xbd25ff82	-0.040526874
8	0x3d1d216c	0.03836195
9	0xbe1b5f26	-0.15173015
10	0xbd813d7b	-0.063105546
11	0xbd136b22	-0.03599084
12	0xbc39329d	-0.011303571
13	0x3ac833f8	0.0015274277
14	0xbc7abba2	-0.015303524
15	0xbd85e40c	-0.06537637
16	0x3ddc2d88	0.10750872
17	0xbdcdd847	-0.10051017
18	0x3db49a90	0.08818543
19	0x3d50b4b2	0.050953574
20	0x3d45ec8e	0.0483213
21	0xbd2c8982	-0.042123325
22	0x3e1a5dad	0.15074797
23	0xbb8ce3c7	-0.004299614
24	0xbded670b	-0.115919195

filter.2.conv2.convR.weight f4 [1, 1, 5, 5, 1]
0	0xbbcb7e1a	-0.006210101
1	0x3e4d8f44	0.20074183
2	0xbe77c806	-0.24197397
3	0x3d9b8409	0.07593543
4	0xbdb8f794	-0.09031597
5	0xbde71aa9	-0.11284382
6	0xbc2446b5	-0.0100266235
7	0x3da6cbc5	0.08144335
8	0xbddae083	-0.106873535
9	0xbddc15c8	-0.10746342
10	0xbcfc8ca8	-0.030828789
11	0xbb9d6b7b	-0.0048040724
12	0xbe7a085f	-0.24417256
13	0xbd31635d	-0.04330765
14	0x3d9dbf4e	0.07702504
15	0xbdb57353	-0.08859887
16	0xbda01b14	-0.07817665
17	0xbe230a2b	-0.15921848
18	0x3d968aff	0.0735073
19	0xbc96fd9d	-0.01843148
20	0xbb45b5da	-0.0030168206
21	0xbcfd006b	-0.030883988
22	0xbdb6c8c0	-0.08925009
23	0x3d91a83a	0.07112165
24	0xbc0726c7	-0.008248991

filter.2.conv2.convI.weight f4 [1, 1, 5, 5, 1]
0	0x3d05d3ae	0.032672577
1	0x3cf7726a	0.030205924
2	0xbe3ed567	-0.18636094
3	0x3e24b35a	0.16084042
4	0x3dd3d616	0.10343568
5	0xbd902b46	-0.07039504
6	0xbe01b2e3	-0.12665896
7	0x3c915d33	0.017744636
8	0xbe52d92d	-0.20590658
9	0x3b9340e8	0.0044938214
10	0xbe0e4d13	-0.13896589
11	0x3d877b6f	0.0661534
12	0xbd1e6201	-0.038667683
13	0x3d5a6bee	0.053325586
14	0xbdd4c521	-0.10389162
15	0xbc936bf5	-0.017995814
16	0xbd21b3aa	-0.03947798
17	0xbc5b777e	-0.013395188
18	0xbc2183c0	-0.009858072
19	0x3e18f469	0.14936985
20	0x3e063b67	0.13108598
21	0x3ca1cc5b	0.019750765
22	0xbde08960	-0.10963702
23	0xbd339d92	-0.043851443
24	0xbe1a3116	-0.15057787

filter.2.conv3.convR.weight f4 [1, 1, 5, 5, 1]
0	0xbc9e35e8	-0.019312814
1	0xbd8654c0	-0.065591335
2	0x3e3054c3	0.17219834
3	0x3db434e8	0.087991536
4	0xbcf13273	-0.029443001
5	0xbd4b8bfb	-0.049694043
6	0x3e548aa4	0.20756012
7	0x3c456a92	0.012049334
8	0xbc8034e4	-0.01565022
9	0x3ccff2dc	0.025384359
10	0x3e770d1f	0.24126099
11	0x3e2ea07d	0.17053409
12	0x3e0db8de	0.13840052
13	0xbd436bfe	-0.04771041
14	0x3e4321a4	0.19055802
15	0x3d9d70ff	0.07687568
16	0x3e4831a4	0.19550186
17	0x3e398a0b	0.18119065
18	0x3d17a51f	0.037022706
19	0x3e2f94a9	0.17146553
20	0x3d6800e4	0.056641474
21	0x3ea26f1f	0.31725404
22	0x3d8a123f	0.067417614
23	0x3e778eb8	0.24175537
24	0xbb9e6dc7	-0.004834864

filter.2.conv3.convI.weight f4 [1, 1, 5, 5, 1]
0	0xbe2d4293	-0.16919927
1	0x3b5d4b78	0.0033766907
2	0x3d388a61	0.045053843
3	0xbd47468e	-0.04865127
4	0x3d57b57e	0.05266332
5	0x3d342304	0.043978706
6	0xbe40c335	-0.18824466
7	0x3df9857f	0.121836655
8	0xbdecf697	-0.11570471
9	0xbd78b792	-0.06072194
10	0xbe6905b2	-0.22756079
11	0x3d313da1	0.043271665
12	0x3d101c24	0.035183087
13	0xbd843587	-0.06455522
14	0xbd94a06b	-0.0725716
15	0xbe44579d	-0.19174047
16	0xbe28ecb0	-0.16496539
17	0x3c603434	0.013684321
18	0xbd926370	-0.071478724
19	0xbd7e5bef	-0.062099393
20	0xbe8880b7	-0.26660702
21	0xbdba9ba0	-0.09111714
22	0xbbfd44c6	-0.0077291457
23	0x3c6dc667	0.014512635
24	0xbd7b4d84	-0.06135322

filter.2.conv4.convR.weight f4 [1, 1, 5, 5, 1]
0	0xbde93988	-0.11387926
1	0xbd856503	-0.06513407
2	0xbd948259	-0.07251424
3	0x3a8c870a	0.0010721397
4	0xbd8339ac	-0.064074844
5	0xbda551f3	-0.08072271
6	0x3e25c4e5	0.1618839
7	0x3d6f0404	0.05835344
8	0xbd5d2287	-0.053988006
9	0xbe144859	-0.14480723
10	0x3dced89e	0.1009991
11	0x3e1316d0	0.14364171
12	0x3f1d795f	0.6151332
13	0x3e22fa5b	0.15915816
14	0x3e417deb	0.1889569
15	0xbd87ce2c	-0.06631121
16	0x3dca8a82	0.098896995
17	0x3e6877fc	0.2270202
18	0x3d3cd4f4	0.046101525
19	0xbe71aca1	-0.23601009
20	0x3bc9158e	0.0061366027
21	0xbe27a793	-0.16372518
22	0x3ba82aea	0.005132069
23	0xbd814a06	-0.06312947
24	0x3d577f96	0.05261191

filter.2.conv4.convI.weight f4 [1, 1, 5, 5, 1]
0	0xbc182fe8	-0.0092887655
1	0xbcc7a0d0	-0.024368674
2	0x3d8f1c25	0.0698779
3	0xbd85df3e	-0.06536721
4	0xbd855862	-0.06510998
5	0x3ac2ee1d	0.0014871989
6	0xbda5d22c	-0.08096728
7	0x3d937357	0.07199734
8	0x3d7af5e3	0.061269652
9	0x3ce95dc2	0.02848709
10	0x3d764136	0.060120784
11	0x3df65bca	0.12029226
12	0xbe1394a6	-0.14412174
13	0xbd5baf36	-0.05363389
14	0xbba054d6	-0.0048929257
15	0x3cb93f98	0.022613332
16	0x3ccf15ee	0.025279012
17	0xbbdabcfc	-0.0066753607
18	0x3be49b20	0.0069765
19	0x39d88259	0.00041295847
20	0xbca35f0b	-0.019942781
21	0xbd996cde	-0.07491468
22	0x3c1f9666	0.009740448
23	0x3d6dd040	0.05805993
24	0x3b918b04	0.004441621

filter.2.conv5.convR.weight f4 [1, 1, 5, 5, 1]
0	0xbd523e92	-0.051329203
1	0xbbde38d2	-0.006781676
2	0x3d6122b3	0.054964732
3	0x3d9e6c49	0.077354975
4	0xbe0429c0	-0.12906551
5	0x3e6d4e7d	0.23174472
6	0x3e0a641f	0.13514756
7	0x3e383eed	0.17992754
8	0xbbd789f4	-0.0065777246
9	0x3e1dab64	0.15397412
10	0xbabb6b09	-0.0014298867
11	0x3ea99ce8	0.33127522
12	0x3e81c0c7	0.2534239
13	0xbd28fb55	-0.041255314
14	0x3e621f54	0.22082263
15	0xbca16936	-0.019703489
16	0x3e195975	0.14975531
17	0x3e4732e2	0.19453004
18	0x3e0bba38	0.13645256
19	0xbe711b6c	-0.23545617
20	0x3d2ae5f7	0.041723218
21	0x3bc39b65	0.005969452
22	0x3e22aebd	0.1588697
23	0x3d54955a	0.051900245
24	0x3d22866b	0.039678972

filter.2.conv5.convI.weight f4 [1, 1, 5, 5, 1]
0	0xbd097726	-0.033560894
1	0x3d8d4ad8	0.06899041
2	0x3d969964	0.07353476
3	0xbd6ee245	-0.058321256
4	0xbe311673	-0.1729372
5	0x3e0897cd	0.13339157
6	0x3d8d18fc	0.06889531
7	0x3e16e22c	0.14734715
8	0xbd919cac	-0.07109961
9	0x3e01713e	0.12640855
10	0x3d8587a7	0.06520014
11	0x3deea7c9	0.11653096
12	0x3e185437	0.14875875
13	0x3e6b2476	0.22963127
14	0xbb49b790	-0.0030779578
15	0x3e241df8	0.16027057
16	0x3e0116eb	0.12606399
17	0x3c3c2236	0.011482766
18	0xbde8a24f	-0.11359083
19	0xbd251516	-0.040303312
20	0xbd4b569a	-0.049643137
21	0xbcdd39ea	-0.027005155
22	0x3ddcad34	0.107752234
23	0x3e414fb0	0.18878055
24	0xbd13dfb2	-0.036102004

filter.2.conv6.convR.weight f4 [1, 1, 5, 5, 1]
0	0xbde04a3d	-0.1095166
1	0x3bb0bb87	0.0053934488
2	0x3d51c138	0.05120966
3	0xbdb49b6b	-0.08818706
4	0xbbffa9ae	-0.00780221
5	0xbc5ee06c	-0.013603311
6	0xbe00c1f5	-0.12573989
7	0x3d6a790f	0.057244357
8	0xbe1b445a	-0.15162793
9	0xbd59aa72	-0.053141065
10	0xbd3e9654	-0.046530083
11	0x3d7eecc1	0.062237505
12	0xbe20dbe4	-0.15708882
13	0xbcceba80	-0.025235415
14	0xbb80ad51	-0.003926911
15	0xbdff0393	-0.124518536
16	0x3eb5c9ad	0.3550543
17	0x3d301391	0.04298741
18	0x3d33e01a	0.04391489
19	0xbdc4e547	-0.09614044
20	0xbd2fea22	-0.042947896
21	0xbdad8b75	-0.08473865
22	0x3c5c08d9	0.013429844
23	0xbd7b2575	-0.06131502
24	0xbd63f533	-0.055653762

filter.2.conv6.convI.weight f4 [1, 1, 5, 5, 1]
0	0x3e0f8857	0.14016853
1	0xbdbf5de4	-0.0934408
2	0x3d48e818	0.049049467
3	0xbc814c1c	-0.015783362
4	0x3d19e52d	0.037572075
5	0x3d485395	0.048907835
6	0xbd1c99cd	-0.038232613
7	0x3e030d02	0.12797931
8	0x3d013511	0.03154475
9	0xbdcdd8bc	-0.100511044
10	0x3df5dfaf	0.12005555
11	0xbc37bc19	-0.01121428
12	0x3c38a65c	0.011270132
13	0xbdaeb562	-0.0853069
14	0x3e211ecc	0.15734404
15	0x3c3e3b87	0.011610872
16	0x3d216c6f	0.03941005
17	0xbe87231e	-0.2639398
18	0x3dbd7b5e	0.09252046
19	0xbc986aaf	-0.018605558
20	0x3da46ed6	0.08028953
21	0xbd521309	-0.051287685
22	0x3d9d7496	0.07688253
23	0x3ca70c4a	0.020391602
24	0x3d81a528	0.06330329
