Unfolded/Results/Unf_6lay_sim/sim_6lay_sim_Unfolded_Model_al0.50_Tr2400_epoch50_lr2.00e-03.pkl (torch_old, 35051 bytes, 72 tensors)

filter.0.conv1.convR.weight f4 [1, 1, 5, 5, 1]
-0.078893974 -0.029207585 -0.13419536 0.048323546 -0.112052456 0.12443831 -0.1789303 -0.17057289
-0.124271564 0.15350394 -0.04337916 0.12376512 -0.09156243 -0.048703678 0.008302439 -0.013871697
-0.08160331 0.228402 0.020956954 0.09381325 0.07243952 0.017505439 0.05380751 0.15510456
-0.17392471
00000000: 2a93 a1bd bf44 efbc 826a 09be e9ee 453d
00000010: c27b e5bd 83d9 fe3d 8139 37be a9aa 2ebe
00000020: 1782 febd 2330 1d3e 59ae 31bd 9178 fd3d
00000030: 1585 bbbd 827d 47bd f406 083c 1d46 63bc
00000040: a31f a7bd 37e2 693e ebad ab3c 2921 c03d
00000050: 2c5b 943d 9167 8f3c 4365 5c3d bbd3 1e3e
00000060: 5219 32be

filter.0.conv1.convI.weight f4 [1, 1, 5, 5, 1]
-0.05550582 0.11773206 0.070403494 -0.28401572 0.08848989 0.13397329 0.07853053 0.014143271
0.07607938 -0.11575248 -0.122720115 -0.048761323 -0.18924636 -0.05437131 -0.10445806 -0.09863058
-0.05245729 0.10249842 -0.11360884 -0.078303695 -0.051927604 -0.053537045 0.0395121 -0.0077038677
-0.015095838
00000000: 125a 63bd 821d f13d b52f 903d 826a 91be
00000010: 303a b53d 4b30 093e 9dd4 a03d 2eb9 673c
00000020: 82cf 9b3d a30f edbd af54 fbbd f4b9 47bd
00000030: ccc9 41be 73b4 5ebd 1bee d5bd d4fe c9bd
00000040: 75dd 56bd b1ea d13d c0ab e8bd b05d a0bd
00000050: 0ab2 54bd a949 5bbd 71d7 213d ba70 fcbb
00000060: 8954 77bc

filter.0.conv2.convR.weight f4 [1, 1, 5, 5, 1]
0.04715857 0.07726665 -0.025844693 -0.18588176 -0.12368238 0.17071714 0.011954695 -0.1620147
0.03154549 0.16525434 -0.18899994 -0.13464788 -0.07965312 0.008027509 -0.04664588 -0.02197823
-0.19497803 0.09365584 0.17554866 0.12224768 -0.14162648 -0.16122067 0.083050475 0.0044917166
0.081986204
00000000: 5829 413d fa3d 9e3d 40b8 d3bc ca57 3ebe
00000010: 304d fdbd 79d0 2e3e a0dd 433c 2ee7 25be
00000020: d835 013d 6f38 293e 3389 41be 22e1 09be
00000030: 2d21 a3bd d085 033c c00f 3fbd b00b b4bc
00000040: 52a8 47be a2ce bf3d 07c3 333e fe5c fa3d
00000050: 8806 11be 0817 25be 5e16 aa3d 402f 933b
00000060: 62e8 a73d

filter.0.conv2.convI.weight f4 [1, 1, 5, 5, 1]
-0.011924595 0.14104874 0.092782274 0.0073034763 0.039323807 -0.018936008 -0.10996671 -0.07557986
-0.121795945 0.16612186 0.11005734 0.069944516 -0.1533705 0.15432437 0.06270854 0.13835894
-0.07867801 0.042399377 0.19527648 0.13453184 0.16039933 -0.041996956 0.15237544 -0.15664645
0.01729779
00000000: 605f 43bc 156f 103e a204 be3d 0052 ef3b
00000010: 0012 213d b01f 9bbc 3a36 e1bd 9dc9 9abd
00000020: 2770 f9bd d91b 2a3e be65 e13d 123f 8f3d
00000030: 280d 1dbe 3507 1e3e 566d 803d f7ad 0d3e
00000040: f021 a1bd f8aa 2d3d 8ff6 473e b7c2 093e
00000050: b93f 243e 0005 2cbd 4f08 1c3e ed67 20be
00000060: 18b4 8d3c

filter.0.conv3.convR.weight f4 [1, 1, 5, 5, 1]
-0.04664305 -0.051219493 0.014963821 0.18202795 0.0990168 -0.0008472502 0.1419691 -0.10249112
0.1030743 -0.018546537 -0.03480217 0.023414686 -0.15321934 0.023111463 0.067247614 0.17098634
-0.062268615 0.072005525 0.19990243 -0.08579381 0.19011848 -0.09929841 0.08815898 0.07835002
0.05586563
00000000: c80c 3fbd 88cb 51bd d02a 753c 8965 3a3e
00000010: 52c9 ca3d 001a 5eba 5960 113e dde6 d1bd
00000020: 9e18 d33d e8ee 97bc b88c 0ebd 28d0 bf3c
00000030: 88e5 1cbe 4054 bd3c 1eb9 893d 0b17 2f3e
00000040: 600d 7fbd a277 933d 39b3 4c3e aab4 afbd
00000050: 6bae 423e f75c cbbd b28c b43d fa75 a03d
00000060: 5cd3 643d

filter.0.conv3.convI.weight f4 [1, 1, 5, 5, 1]
-0.08083289 0.0525638 0.00112243 -0.15042832 -0.048562795 -0.13356462 0.088431075 0.01797919
0.019592926 -0.060674146 0.00096170604 -0.062208623 0.057467237 0.19423394 0.030294105 -0.08858366
-0.12216561 0.015287802 -0.14836924 -0.15033004 -0.13017541 -0.067928955 0.014803499 0.13772233
0.07746787
00000000: b78b a5bd 244d 573d 801e 933a e209 1abe
00000010: c8e9 46bd 2ac5 08be 5a1b b53d 1849 933c
00000020: 5881 a03c 7485 78bd 001b 7c3a 78ce 7ebd
00000030: c462 6b3d 43e5 463e 582b f83c 5a6b b5bd
00000040: f731 fabd b079 7a3c 1bee 17be 1ef0 19be
00000050: b44c 05be 561e 8bbd 608a 723c 1507 0d3e
00000060: 7aa7 9e3d

filter.0.conv4.convR.weight f4 [1, 1, 5, 5, 1]
-0.16861829 -0.05156512 -0.29997736 -0.014949321 -0.20707127 0.22506897 -0.04257085 0.27207008
0.30841652 0.17721532 -0.052929725 0.17489706 0.14194804 0.22495668 -0.020047426 -0.16505386
-0.06335647 -0.08274507 -0.17228174 -0.17349903 8.213484e-06 -0.04577412 0.07211063 0.00045774327
-0.05399607
00000000: 46aa 2cbe f335 53bd a296 99be ffed 74bc
00000010: 7e0a 54be 7b78 663e c65e 2ebd c54c 8b3e
00000020: c5e8 9d3e ef77 353e d7cc 58bd 3718 333e
00000030: d45a 113e 0b5b 663e 803a a4bc e103 29be
00000040: 09c1 81bd 3f76 a9bd a06a 30be bba9 31be
00000050: a5cc 0937 a57d 3bbd bdae 933d 43fd ef39
00000060: fc2a 5dbd

filter.0.conv4.convI.weight f4 [1, 1, 5, 5, 1]
0.0936637 -0.061704796 0.058289986 0.18462795 0.15897042 -0.01220834 0.048006773 -0.26509285
-0.24370593 -0.24723378 0.08338815 0.19508593 -0.12118601 -0.07331915 0.07566195 -0.19367765
0.1761745 0.09834238 -0.006185484 0.019431852 0.008005124 -0.015018666 -0.055386703 0.097181365
0.005492562
00000000: c1d2 bf3d 2bbe 7cbd 7bc1 6e3d 1c0f 3d3e
00000010: 24c9 223e 7d05 48bc c0a2 443d 40ba 87be
00000020: 0c8e 79be da2a 7dbe 68c7 aa3d 9bc4 473e
00000030: 5f30 f8bd 5a28 96bd a7f4 9a3d 6f53 46be
00000040: 1767 343e bb67 c93d 9aaf cabb 8c2f 9f3c
00000050: ec27 033c da10 76bc 2bdd 62bd 0607 c73d
00000060: f3fa b33b

filter.0.conv5.convR.weight f4 [1, 1, 5, 5, 1]
-0.029186055 0.1284147 -0.055811837 -0.019358546 0.08223753 -0.12588747 0.05355172 -0.044223145
0.095934704 -0.10849287 0.0073916614 0.019565865 -0.16091931 -0.14542845 0.07670267 -0.058211297
0.11877932 -0.19757251 -0.098865725 -0.16473238 0.07989429 -0.0057982653 -0.037304282 -0.033274263
-0.15632978
00000000: 9817 efbc 257f 033e f49a 64bd d095 9ebc
00000010: 266c a83d a5e8 00be 0c59 5b3d 5423 35bd
00000020: 6a79 c43d 8331 debd c035 f23b 9848 a03c
00000030: 08c8 24be 32eb 14be 4a16 9d3d f86e 6ebd
00000040: 9242 f33d 7350 4abe 1d7a cabd 9baf 28be
00000050: 9e9f a33d 60ff bdbb 60cc 18bd 984a 08bd
00000060: ea14 20be

filter.0.conv5.convI.weight f4 [1, 1, 5, 5, 1]
0.0049851686 -0.13802259 0.075257555 -0.0040198117 -0.19342951 0.107584044 0.10697742 -0.037682027
-0.13808763 0.008030012 0.15091597 0.18306796 -0.1509602 -0.0903338 0.1557249 0.097755656
0.12380259 -0.099546865 0.17230691 -0.16441318 -0.0096337795 0.004152581 0.033593565 -0.15091679
0.18349327
00000000: a05a a33b cb55 0dbe a220 9a3d a0b8 83bb
00000010: 6312 46be 0655 dc3d fa16 db3d 7858 1abd
00000020: d866 0dbe 5090 033c b789 1a3e 2b76 3b3e
00000030: 5095 1abe ed00 b9bd 5976 1f3e 1e34 c83d
00000040: 368c fd3d 3adf cbbd 3971 303e ee5b 28be
00000050: 00d7 1dbc 6012 883b 6899 093d ee89 1abe
00000060: a9e5 3b3e

filter.0.conv6.convR.weight f4 [1, 1, 5, 5, 1]
-0.13812149 0.0073881596 -0.10653243 0.19177692 0.11153315 0.117780134 0.06452091 -0.019911364
0.1126125 0.0034056455 -0.07294305 0.103261635 0.06276126 -0.05182293 -0.05481121 -0.17686792
-0.05482368 -0.081022836 -0.109009765 -0.18064368 0.1566552 -0.17873831 0.19854291 -0.104904555
-0.015373424
00000000: b86f 0dbe 6018 f23b ad2d dabd 2b61 443e
00000010: 7e6b e43d b636 f13d 8a23 843d 281d a3bc
00000020: 62a1 e63d 4031 5f3b 2a63 95bd d67a d33d
00000030: fa88 803d 4844 54bd b881 60bd dd1c 35be
00000040: cc8e 60bd 4def a5bd 8340 dfbd a8fa 38be
00000050: 396a 203e 2d07 37be d54e 4b3e 33d8 d6bd
00000060: d0e0 7bbc

filter.0.conv6.convI.weight f4 [1, 1, 5, 5, 1]
0.06598227 -0.057099864 -0.16101138 -0.08177107 0.16106121 -0.075521946 0.16668417 -0.034443304
-0.025506705 0.079822436 -0.029386848 -0.0016843379 0.13851862 0.06683968 -0.007960886 0.07616584
0.17418878 0.05040805 -0.05865042 0.06553425 -0.017497897 -0.1563648 -0.07722571 0.09096272
0.0065588206
00000000: b621 873d 8ce1 69bd 2be0 24be 9777 a7bd
00000010: 3bed 243e 40ab 9abd 41af 2a3e 6c14 0dbd
00000020: 70f3 d0bc f279 a33d b0bc f0bc 00c5 dcba
00000030: d3d7 0d3e 3ee3 883d 606e 02bc d6fc 9b3d
00000040: 8b5e 323e ac78 4e3d 6c3b 70bd d236 863d
00000050: c057 8fbc 181e 20be 8328 9ebd aa4a ba3d
00000060: 60eb d63b

filter.1.conv1.convR.weight f4 [1, 1, 5, 5, 1]
-0.09937984 0.17814042 -0.14954066 0.061116934 -0.063089 -0.105120376 0.08198259 -0.109216996
-0.09117118 -0.051995244 0.019524574 -0.008174525 -0.04967291 -0.24525073 0.012745538 -0.0006172316
-0.20275852 -0.10643862 0.01654729 -0.13094737 -0.09646667 0.12989675 -0.092316166 0.022272542
-0.072356306
00000000: a887 cbbd 716a 363e 3021 19be c055 7a3d
00000010: ce34 81bd 5a49 d7bd 7de6 a73d 29ad dfbd
00000020: f5b7 babd f7f8 54bd 00f2 9f3c 71ee 05bc
00000030: d275 4bbd 0223 7bbe a9d2 503c b6cd 21ba
00000040: ee9f 4fbe 7efc d9bd 2f8e 873c 1117 06be
00000050: 5190 c5bd a703 053e 4210 bdbd e874 b63c
00000060: 8b2f 94bd

filter.1.conv1.convI.weight f4 [1, 1, 5, 5, 1]
0.22658299 0.09401891 -0.03720236 0.17243993 -0.086033896 -0.18930492 -0.22823413 0.023065394
-0.09369221 0.050331805 0.14544903 0.033434168 0.11981808 -0.051388424 0.11719276 -0.14784534
-0.09417624 0.04100404 -0.14855227 0.07065138 -0.028438704 -0.106376074 0.04100278 0.076086104
-0.17431179
00000000: 5f05 683e fc8c c03d 8061 18bd 1894 303e
00000010: 8a32 b0bd 26d9 41be 35b6 69be a3f3 bc3c
00000020: b4e1 bfbd b928 4e3d 97f0 143e 44f2 083d
00000030: 2e63 f53d ab7c 52bd c202 f03d c564 17be
00000040: 79df c0bd daf3 273d 161e 18be acb1 903d
00000050: 49f8 e8bc b3db d9bd 88f2 273d 08d3 9b3d
00000060: ca7e 32be

filter.1.conv2.convR.weight f4 [1, 1, 5, 5, 1]
-0.03724989 0.1266895 0.09314324 0.14450088 0.06955765 -0.1797722 0.12959775 -0.050252374
0.16405103 0.10278834 -0.09668679 -0.019441897 0.026897667 0.05597153 -0.20085882 -0.019676058
0.04879106 0.05062329 0.046264373 -0.022678949 -0.22090596 0.06821707 -0.23674871 -0.18817076
-0.069577515
00000000: 5793 18bd e4ba 013e e2c1 be3d 0af8 133e
00000010: 3e74 8e3d 3416 38be 46b5 043e 6fd5 4dbd
00000020: fefc 273e b182 d23d b903 c6bd 9d44 9fbc
00000030: 7f58 dc3c 6742 653d efad 4dbe af2f a1bc
00000040: 22d9 473d 5e5a 4f3d b67f 3d3d 34c9 b9bc
00000050: 2c35 62be 64b5 8b3d 416e 72be d6af 40be
00000060: a87e 8ebd

filter.1.conv2.convI.weight f4 [1, 1, 5, 5, 1]
0.18315887 0.031935606 -0.033841107 0.06358003 0.1758855 -0.07774355 -0.13357052 0.13531458
-0.09193275 -0.059947636 0.13006061 -0.17527436 -0.219326 0.09008034 -0.14657202 0.03469473
0.20573023 -0.09065617 0.17256796 0.16491647 0.14661363 0.04835813 -0.10251877 0.12654476
-0.090776116
00000000: 008e 3b3e e9ce 023d f99c 0abd 3f36 823d
00000010: 541b 343e 0338 9fbd b6c6 08be e88f 0a3e
00000020: 3d47 bcbd a78b 75bd 9c2e 053e 1f7b 33be
00000030: ff96 60be 0b7c b83d fa16 16be 101c 0e3d
00000040: f2aa 523e f1a9 b9bd a8b5 303e dddf 283e
00000050: e221 163e 2d13 463d 5cf5 d1bd f394 013e
00000060: d4e8 b9bd

filter.1.conv3.convR.weight f4 [1, 1, 5, 5, 1]
-0.10617964 0.042810038 -0.0026774185 0.08374579 0.05805361 -0.01916434 0.11255288 -0.062856354
-0.08613889 -0.07186864 0.019901255 0.15428261 0.008579462 0.19561091 -0.10114816 -0.023364017
-0.003284345 0.0008578406 -0.03556528 0.10391972 0.13390234 0.0808135 0.28074786 -0.06103494
0.14922479
00000000: b674 d9bd 9459 2f3d a177 2fbb ea82 ab3d
00000010: 9fc9 6d3d 89fe 9cbc 2082 e63d d5ba 80bd
00000020: 9669 b0bd de2f 93bd f507 a33c 43fc 1d3e
00000030: df90 0c3c 3a4e 483e c426 cfbd e565 bfbc
00000040: 2a3e 57bb b5e0 603a e6ac 11bd ddd3 d43d
00000050: b21d 093e 8c81 a53d 2fbe 8f3e c6ff 79bd
00000060: 62ce 183e

filter.1.conv3.convI.weight f4 [1, 1, 5, 5, 1]
-0.024397833 -0.10549773 0.11380889 -0.007797415 0.15710942 -0.12212498 -0.0998778 0.1205829
0.06461354 -0.1666513 0.1081742 0.14383774 0.107146464 0.25917837 -0.07252098 0.19319236
-0.13609932 0.1903573 0.19600001 -0.27357417 0.190698 0.069215834 0.31384873 0.089532994
0.02410276
00000000: f7dd c7bc 320f d8bd a314 e93d 7581 ffbb
00000010: 4be1 203e a91c fabd bb8c ccbd 2bf4 f63d
00000020: 1b54 843d a3a6 2abe 6f8a dd3d 334a 133e
00000030: 9b6f db3d 07b3 843e e185 94bd 38d4 453e
00000040: 9f5d 0bbe 06ed 423e 3ab4 483e ea11 8cbe
00000050: 5646 433e 08c1 8d3d c8b0 a03e 135d b73d
00000060: 2773 c53c

filter.1.conv4.convR.weight f4 [1, 1, 5, 5, 1]
-0.06483028 0.17671672 -0.06515033 0.09155716 0.068186074 -0.1891709 -0.21660076 -0.17092346
-0.115107134 -0.090103686 -0.081493005 0.115436874 0.026058378 -0.15153323 -0.15696819 0.23829848
-0.024090394 0.123411104 -0.005109479 0.18612395 0.19514526 0.1657812 0.09668045 0.10989809
0.09745765
00000000: bdc5 84bd 3af5 343e 896d 85bd 5282 bb3d
00000010: 24a5 8b3d 04b6 41be 97cc 5dbe 8f06 2fbe
00000020: 4abd ebbd 4888 b8bd cee5 a6bd 2b6a ec3d
00000030: 6178 d53c 872b 1bbe 45bc 20be 8404 743e
00000040: 3859 c5bc f6be fc3d 6b6d a7bb 4797 3e3e
00000050: 29d4 473e 8cc2 293e 6600 c63d 4012 e13d
00000060: e097 c73d

filter.1.conv4.convI.weight f4 [1, 1, 5, 5, 1]
0.06013193 -0.045169868 0.018810418 -0.07484589 -0.110546455 0.10094947 -0.023996495 0.057942845
-0.014182841 0.045525163 -0.15481023 -0.13833497 -0.14241913 0.064668186 0.13711151 0.13633409
0.05937148 -0.06748235 -0.034343075 -0.25441974 0.082362495 0.04447074 0.0896389 0.1913903
0.06388576
00000000: e64c 763d 0a04 39bd 4e18 9a3c cd48 99bd
00000010: 2e66 e2bd 99be ce3d 4c94 c4bc 7a55 6d3d
00000020: 265f 68bc 9878 3a3d 9386 1ebe afa7 0dbe
00000030: 52d6 11be c170 843d f666 0c3e 2a9b 0b3e
00000040: 822f 733d 3034 8abd 53ab 0cbd 4e43 82be
00000050: abad a83d f326 363d 9994 b73d d2fb 433e
00000060: 8ad6 823d

filter.1.conv5.convR.weight f4 [1, 1, 5, 5, 1]
-0.06577224 0.0396277 -0.030249447 -0.015664378 -0.054398935 0.10171764 0.07825069 -0.08579145
0.108518034 0.014535493 0.0611143 0.2153419 0.21325581 -0.082191646 -0.026266871 -0.12441016
0.24091329 0.07266101 -0.055131346 0.058850925 0.03144718 -0.054999176 -0.07789532 -0.028622331
-0.173303
00000000: 99b3 86bd a850 223d b0cd f7bc 9552 80bc
00000010: 6bd1 5ebd 5751 d03d e641 a03d 6eb3 afbd
00000020: b43e de3d 4726 6e3c fd52 7a3d 9682 5c3e
00000030: bb5f 5a3e 1854 a8bd 9f2d d7bc c1ca febd
00000040: f9b1 763e 4ccf 943d 68d1 61bd ab0d 713d
00000050: c2ce 003d d146 61bd 9587 9fbd 6179 eabc
00000060: 5776 31be

filter.1.conv5.convI.weight f4 [1, 1, 5, 5, 1]
0.069148146 -0.1638678 0.036310814 -0.0145668145 0.006340662 0.0009406645 0.18827689 0.04659464
-0.14335191 0.27522445 0.01189549 0.018909762 -0.009209739 -0.002042535 -0.07441832 0.036859453
-0.20517509 -0.1782824 -0.007695134 -0.12681109 -0.048067912 -0.008167663 -0.08323881 -0.0044275285
-0.25682658
00000000: 8b9d 8d3d f6cc 27be a6ba 143d a6a9 6ebc
00000010: 54c5 cf3b ed96 763a a8cb 403e 05da 3e3d
00000020: d8ca 12be 38ea 8c3e 4de5 423c a5e8 9a3c
00000030: 72e4 16bc 0ddc 05bb a268 98bd f0f9 163d
00000040: 6b19 52be a98f 36be 7627 fcbb c4da 01be
00000050: dce2 44bd a9d1 05bc 1c79 aabd cd14 91bb
00000060: c67e 83be

filter.1.conv6.convR.weight f4 [1, 1, 5, 5, 1]
0.10376327 -0.06443546 -0.12408876 0.025793334 0.033207834 0.077112935 0.08961952 0.07543831
-0.104225636 0.16799025 0.09280111 -0.06134652 -0.023792146 0.19247478 -0.08336413 0.20884237
-0.080591656 0.07245635 0.15785937 0.0071229334 0.03465634 0.15367244 0.1613142 0.04309318
0.08268145
00000000: d681 d43d bdf6 83bd 3f22 febd 8b4c d33c
00000010: f004 083d 63ed 9d3d 708a b73d 677f 9a3d
00000020: 4074 d5bd a305 2c3e 820e be3d 7d46 7bbd
00000030: bfe7 c2bc 1c18 453e d0ba aabd c6da 553e
00000040: 3d0d a5bd ff63 943d e3a5 213e 7f67 e93b
00000050: cef3 0d3d 4f5c 1d3e 8d2f 253e 7982 303d
00000060: e454 a93d

filter.1.conv6.convI.weight f4 [1, 1, 5, 5, 1]
-0.011354579 0.08325253 -0.08860752 -0.1693324 0.016813269 -0.079423964 0.10528105 0.19225833
-0.0082859 -0.05144997 0.070271604 0.08271012 0.003772391 0.047587067 -0.1263281 -0.011915156
-0.14373168 -0.121890925 -0.045784645 0.00739627 0.3346831 0.41142777 0.31437942 0.068256415
-0.021513183
00000000: 8e08 3abc 4d80 aa3d dc77 b5bd 7965 2dbe
00000010: fbbb 893c 08a9 a2bd 979d d73d 5edf 443e
00000020: 95c1 07bc 34bd 52bd 8fea 8f3d ec63 a93d
00000030: 383a 773b a8ea 423d 275c 01be c937 43bc
00000040: 662e 13be f3a1 f9bd ae88 3bbd 695c f23b
00000050: 955b ab3e a9a6 d23e 57f6 a03e 05ca 8b3d
00000060: 6a3c b0bc

filter.2.conv1.convR.weight f4 [1, 1, 5, 5, 1]
-0.13710359 0.08210123 -0.15136996 -0.11830134 0.1379704 0.06292933 0.020866212 0.12843873
-0.08383118 -0.12666267 0.1594158 0.14047258 0.086925715 0.26679873 -0.01078553 -0.022939963
0.1581452 0.11050425 -0.12830976 0.07681644 -0.057999223 0.050208323 0.113637775 -0.15083842
-0.073741175
00000000: e264 0cbe b124 a83d ba00 1bbe f947 f2bd
00000010: 1d48 0d3e 18e1 803d 9eef aa3c 7185 033e
00000020: afaf abbd dcb3 01be e53d 233e 0bd8 0f3e
00000030: 1c06 b23d d899 883e cbb5 30bc 97ec bbbc
00000040: d1f0 213e 0d50 e23d a263 03be f051 9d3d
00000050: 9890 6dbd 3ea7 4d3d ecba e83d 6375 1abe
00000060: 9d05 97bd

filter.2.conv1.convI.weight f4 [1, 1, 5, 5, 1]
-0.098798335 0.011353316 0.05806623 0.007476255 0.055449 0.11994235 0.13153474 -0.00061566435
0.023171023 -0.14111774 0.01935018 0.081639156 0.15761288 0.12761971 0.14814511 -0.10115121
0.10769996 -0.05484796 0.08709244 0.078317896 -0.042195447 -0.10610608 0.12305387 -0.09292983
-0.19619459
00000000: c856 cabd 4203 3a3c dbd6 6d3d 5ffb f43b
00000010: 7e1e 633d 56a4 f53d 0bb1 063e 8964 21ba
00000020: 28d1 bd3c 2b81 10be 4584 9e3c 6e32 a73d
00000030: 4565 213e beae 023e 5ab3 173e 5e28 cfbd
00000040: cc91 dc3d 41a8 60bd 855d b23d 2265 a03d
00000050: 22d5 2cbd 254e d9bd ab03 fc3d ff51 bebd
00000060: 3ce7 48be

filter.2.conv2.convR.weight f4 [1, 1, 5, 5, 1]
0.11053111 0.28445965 -0.11076974 0.12511313 -0.06350208 -0.05516312 0.01876109 0.19451168
-0.06063315 -0.050234813 -0.02695124 -0.031632483 -0.17182426 -0.015684906 0.13259116 -0.12550807
-0.18742299 -0.17327023 0.054765932 -0.0010469314 0.09079819 -0.05363429 -0.032412075 0.11902399
0.076857686
00000000: 225e e23d b2a4 913e 3fdb e2bd a81d 003e
00000010: 610d 82bd b9f2 61bd dbb0 993c 122e 473e
00000020: 775a 78bd 05c3 4dbd d9c8 dcbc 1091 01bd
00000030: b3f2 2fbe a27d 80bc fac5 073e 3085 00be
00000040: d0eb 3fbe c06d 31be 3e52 603d 3039 89ba
00000050: 67f4 b93d a1af 5bbd 86c2 04bd dac2 f33d
00000060: 9067 9d3d

filter.2.conv2.convI.weight f4 [1, 1, 5, 5, 1]
0.09055078 0.054238472 -0.12517542 0.17650282 0.10482442 -0.042879097 -0.13353744 0.06778308
-0.18949296 0.03157501 -0.12552701 0.031785 -0.02334089 0.039481957 -0.10498936 0.013553893
-0.08776199 -0.016301766 -0.012120912 0.1668587 0.20852058 -0.005490884 -0.094818756 -0.023249649
-0.10313432
00000000: b072 b93d 2929 5e3d fc2d 00be 28bd 343e
00000010: 2fae d63d fea1 2fbd 0abe 08be dbd1 8a3d
00000020: 710a 42be cc54 013d 278a 00be fd30 023d
00000030: 6535 bfbc d5b7 213d a904 d7bd 2611 5e3c
00000040: 8fbc b3bd 488b 85bc ca96 46bc 02dd 2a3e
00000050: 6b86 553e e0ec b3bb 5630 c2bd 0c76 bebc
00000060: 1638 d3bd

filter.2.conv3.convR.weight f4 [1, 1, 5, 5, 1]
-0.1454936 -0.17487623 0.1061797 -0.008416617 -0.14432867 -0.22627613 0.034047514 -0.16182716
-0.22987634 -0.20041655 0.058313534 0.007902346 -0.014795617 -0.19225554 0.08048456 -0.10783573
0.041927274 0.046856496 -0.103018776 0.05627284 -0.10908563 0.16246985 -0.07114473 0.09406779
-0.14477104
00000000: 46fc 14be c112 33be be74 d93d dae5 09bc
00000010: e5ca 13be eeb4 67be 6875 0b3d 05b6 25be
00000020: b464 6bbe ff39 4dbe 2cda 6e3d d778 013c
00000030: 5169 72bc a3de 44be 17d5 a43d fbd8 dcbd
00000040: efbb 2b3d 99ec 3f3d 82fb d2bd 597e 663d
00000050: 4968 dfbd 7f5e 263e 54b4 91bd 9da6 c03d
00000060: dc3e 14be

filter.2.conv3.convI.weight f4 [1, 1, 5, 5, 1]
-0.16205104 -0.047260366 -0.00635866 -0.085768476 0.031131294 0.081928626 -0.24328378 0.0459406
-0.22146975 -0.1970135 -0.093068436 0.13058111 0.11426673 -0.0032502573 -0.08197205 -0.060077697
-0.094084755 0.07222629 -0.02474399 -0.04779613 -0.060415246 0.04548401 0.09222613 0.07960271
-0.026958656
00000000: b5f0 25be 1694 41bd 4e5c d0bb 62a7 afbd
00000010: 0e07 ff3c 32ca a73d 621f 79be 362c 3c3d
00000020: f7c8 62be e8bd 49be aa9a bebd 0eb7 053e
00000030: ad04 ea3d 4502 55bb f6e0 a7bd 0814 76bd
00000040: 82af c0bd 61eb 933d e8b3 cabc e0c5 43bd
00000050: fa75 77bd 714d 3a3d 0ee1 bc3d bf06 a33d
00000060: 66d8 dcbc

filter.2.conv4.convR.weight f4 [1, 1, 5, 5, 1]
-0.023449203 -0.0014492378 -0.114742585 0.09559153 -0.072976574 -0.1322156 -0.04594298 -0.41897646
-0.29178977 -0.42298266 0.091668904 -0.06840017 0.23273394 0.06904598 0.11866584 0.12870724
0.07292147 0.093862385 0.08463212 -0.25147375 0.091597386 -0.1268683 0.10548912 0.11288259
0.14552455
00000000: 8b18 c0bc 5af4 bdba 29fe eabd 7ec5 c33d
00000010: be74 95bd 8763 07be b52e 3cbd 1584 d6be
00000020: 7865 95be 2f91 d8be e8bc bb3d 6315 8cbd
00000030: ce51 6e3e fb67 8d3d 1307 f33d d5cb 033e
00000040: da57 953d ec3a c03d 9b53 ad3d 2bc1 80be
00000050: 6997 bb3d c3e9 01be ae0a d83d fd2e e73d
00000060: 6304 153e

filter.2.conv4.convI.weight f4 [1, 1, 5, 5, 1]
0.02679189 -0.0027452954 0.1359914 -0.00019477383 -0.005830375 -0.0061221677 -0.013411583 0.2794349
0.37428105 0.25355518 0.04511511 0.0959283 -0.21658133 -0.070320666 -0.044871096 -0.1010741
-0.14407644 -0.28464258 -0.20515887 -0.12973344 0.1253286 0.019525714 -0.0037912866 0.10600537
0.15279193
00000000: aa7a db3c 6aea 33bb 5441 0b3e 343c 4cb9
00000010: bb0c bfbb 779c c8bb 42bc 5bbc 1712 8f3e
00000020: c4a1 bf3e fcd1 813e 9fca 383d 0e76 c43d
00000030: 7fc7 5dbe 4804 90bd c1ca 37bd f0ff cebd
00000040: c688 13be acbc 91be 2b15 52be d8d8 04be
00000050: 2456 003e 64f4 9f3c 3c77 78bb 5819 d93d
00000060: 7d75 1c3e

filter.2.conv5.convR.weight f4 [1, 1, 5, 5, 1]
0.17901728 -0.121745296 -0.069909036 0.092884116 -0.08873517 0.09609871 -0.24177031 -0.22007492
-0.1775502 -0.019551631 -0.13739526 0.046541717 -0.18178433 -0.31384557 -0.0522775 -0.0029483968
0.11205642 0.0018301393 0.15179068 -0.18776995 0.09772602 0.02122022 0.0051751886 0.13645874
0.16555458
00000000: 4e50 373e 9955 f9bd 782c 8fbd 073a be3d
00000010: c9ba b5bd 67cf c43d a392 77be 525b 61be
00000020: b8cf 35be be2a a0bc 58b1 0cbe 87a2 3e3d
00000030: ac25 3abe 5eb0 a0be ef20 56bd e439 41bb
00000040: d67d e53d 49e1 ef3a 046f 1b3e c446 40be
00000050: 9424 c83d 07d6 ad3c a194 a93b d7bb 0b3e
00000060: 2487 293e

filter.2.conv5.convI.weight f4 [1, 1, 5, 5, 1]
0.01417741 0.07944176 0.09309428 0.021107154 -0.15140845 0.1316383 0.066902146 0.22424147
0.062120758 0.23259261 -0.13726562 -0.08017195 0.034934513 0.20156373 -0.031235924 0.09154472
0.048591457 -0.019613875 -0.0907566 -0.001645915 -0.12947704 -0.13128987 0.010987465 0.14376712
-0.059444096
00000000: 5e48 683c 5db2 a23d 37a8 be3d e9e8 ac3c
00000010: d10a 1bbe 31cc 063e fe03 893d 8e9f 653e
00000020: 5672 7e3d c22c 6e3e 5c8f 0cbe 3131 a4bd
00000030: 7e17 0f3d b966 4e3e 7be2 ffbc cc7b bb3d
00000040: d607 473d 47ad a0bc 99de b9bd bebb d7ba
00000050: a195 04be da70 06be c504 343c b037 133e
00000060: a77b 73bd

filter.2.conv6.convR.weight f4 [1, 1, 5, 5, 1]
0.03917416 0.11580739 0.08938103 -0.0081782015 0.027536009 0.024299195 -0.19329603 0.044546455
-0.0016628498 0.18729188 0.07059906 0.0226135 -0.2229397 -0.08284831 0.040769827 -0.11867368
0.22522353 -0.13090791 -0.05053764 0.021659687 -0.01303265 -0.03656414 0.062422417 -0.09241674
-0.08757726
00000000: 1675 203d 6d2c ed3d 670d b73d ddfd 05bc
00000010: 3293 e13c 1b0f c73c 65ef 45be 5876 363d
00000020: fbf3 d9ba 71c9 3f3e 3d96 903d f23f b93c
00000030: 4e4a 64be 60ac a9bd 43fe 263d 300b f3bd
00000040: ffa0 663e b90c 06be 8e00 4fbd a86f b13c
00000050: e586 55bc 48c4 15bd a6ae 7f3d fd44 bdbd
00000060: b55b b3bd

filter.2.conv6.convI.weight f4 [1, 1, 5, 5, 1]
-0.0021078829 -0.26848945 -0.058505513 -0.13475381 -0.040463384 0.028963879 0.017180862 0.30440024
0.11367729 -0.12020722 0.104002 -0.03867546 0.10025637 -0.033880472 0.20567511 -0.11172396
0.15535481 -0.03252944 0.16114849 -0.15271258 0.08859772 -0.11737974 0.07770427 0.022166884
0.07163923
00000000: 6824 0abb 7377 89be 7aa3 6fbd e7fc 09be
00000010: efbc 25bd a845 ed3c e1be 8c3c 59da 9b3e
00000020: a4cf e83d 342f f6bd 00ff d43d 296a 1ebd
00000030: 3653 cd3d 40c6 0abd 7f9c 523e 88cf e4bd
00000040: 5515 1f3e 973d 05bd 1c04 253e b060 1cbe
00000050: b972 b53d ca64 f0bd 6b23 9f3d 5397 b53c
00000060: 97b7 923d

filter.3.conv1.convR.weight f4 [1, 1, 3, 3, 1]
-0.04168367 0.019364225 0.16487783 -0.14023086 -0.05035219 0.21740884 0.00046959572 -0.0141646825
-0.04319345
00000000: 7fbc 2abd b9a1 9e3c bcd5 283e ae98 0fbe
00000010: 193e 4ebd 6ca0 5e3e 1234 f639 fc12 68bc
00000020: 9deb 30bd

filter.3.conv1.convI.weight f4 [1, 1, 3, 3, 1]
-0.19864556 0.43423566 0.12391763 -0.0008093443 0.21774185 -0.024511507 -0.09025209 -0.10583472
0.16085936
00000000: be69 4bbe 2354 de3e 87c8 fd3d 2d2a 54ba
00000010: b8f7 5e3e 5bcc c8bc 16d6 b8bd e0bf d8bd
00000020: 51b8 243e

filter.3.conv2.convR.weight f4 [1, 1, 3, 3, 1]
0.06944952 0.17812306 0.17236482 0.2702692 0.43437967 0.14402248 -0.31997916 0.32887506
-0.0752987
00000000: 8d3b 8e3d e465 363e 6780 303e b960 8a3e
00000010: 0367 de3e a17a 133e 4fd4 a3be 5062 a83e
00000020: 3436 9abd

filter.3.conv2.convI.weight f4 [1, 1, 3, 3, 1]
0.20109837 -0.061488565 -0.0662666 0.13733624 -0.006613506 -0.22561929 -0.012102772 0.32590544
-0.060822558
00000000: bbec 4d3e 6fdb 7bbd c8b6 87bd dfa1 0c3e
00000010: 1cb6 d8bb be08 67be b44a 46bc 14dd a63e
00000020: 1321 79bd

filter.3.conv3.convR.weight f4 [1, 1, 3, 3, 1]
-0.06340435 -0.2619149 -0.024910722 -0.22893976 0.13682897 0.30885014 0.2632559 -0.14728092
-0.35406226
00000000: 24da 81bd b619 86be 9211 ccbc 2f6f 6abe
00000010: e51c 0c3e 9b21 9e3e 7ac9 863e cfd0 16be
00000020: a647 b5be

filter.3.conv3.convI.weight f4 [1, 1, 3, 3, 1]
0.17980127 0.25745264 -0.10825373 0.4191103 -0.0058605163 0.31338415 0.5492766 0.19448501
0.22319856
00000000: d31d 383e d5d0 833e 22b4 ddbd a095 d63e
00000010: 9309 c0bb e373 a03e 649d 0c3f 1427 473e
00000020: 2a8e 643e

filter.3.conv4.convR.weight f4 [1, 1, 3, 3, 1]
-0.07317677 0.24378465 0.16361775 -0.11464869 -0.067182146 -0.22394107 0.077229425 -0.17816754
0.28037587
00000000: b4dd 95bd afa2 793e 698b 273e efcc eabd
00000010: cb96 89bd cf50 65be 762a 9e3d 8d71 36be
00000020: 6d8d 8f3e

filter.3.conv4.convI.weight f4 [1, 1, 3, 3, 1]
0.21027425 0.21097955 0.116442285 -0.08878547 -0.27663505 -0.20901604 -0.058129534 0.17835525
0.020651827
00000000: 2252 573e 060b 583e 4b79 ee3d 28d5 b5bd
00000010: 1ca3 8dbe 4d08 56be 3c19 6ebd c2a2 363e
00000020: 052e a93c

filter.3.conv5.convR.weight f4 [1, 1, 3, 3, 1]
-0.07912587 0.10202376 -0.15242444 -0.00092934404 -0.06508752 0.04827926 0.0031434128 0.17236768
-0.25156647
00000000: be0c a2bd d5f1 d03d 2715 1cbe 399f 73ba
00000010: 9b4c 85bd 79c0 453d b701 4e3b 2781 303e
00000020: 52cd 80be

filter.3.conv5.convI.weight f4 [1, 1, 3, 3, 1]
0.0030716066 -0.23172599 0.17507134 -0.108575866 -0.22154595 0.12063185 0.054673623 0.039988395
-0.012101352
00000000: 024d 493b 9449 6dbe e745 333e 065d debd
00000010: f1dc 62be d50d f73d 73f1 5f3d dfca 233d
00000020: c044 46bc

filter.3.conv6.convR.weight f4 [1, 1, 3, 3, 1]
0.102844544 0.08399355 0.03740164 -0.1806108 0.37806287 -0.15193403 0.23354125 0.016022446
-0.049370993
00000000: 29a0 d23d cf04 ac3d 7632 193d 0af2 38be
00000010: 7591 c13e 9894 1bbe 7025 6f3e 8141 833c
00000020: 3d39 4abd

filter.3.conv6.convI.weight f4 [1, 1, 3, 3, 1]
-0.052698266 0.16502053 0.055755388 0.17770971 -0.048332624 -0.012143659 0.16307276 -0.0724416
0.15337488
00000000: 23da 57bd 24fb 283e c35f 643d 89f9 353e
00000010: 6ef8 45bd 33f6 46bc 8cfc 263e 435c 94bd
00000020: 4e0e 1d3e

filter.4.conv1.convR.weight f4 [1, 1, 3, 3, 1]
0.08824413 -0.13863182 0.2216136 -0.15163815 0.2309046 -0.2932373 0.024200145 -0.0011708582
0.06313321
00000000: 57b9 b43d 80f5 0dbe adee 623e 0847 1bbe
00000010: 4172 6c3e 3323 96be 623f c63c 7b77 99ba
00000020: fc4b 813d

filter.4.conv1.convI.weight f4 [1, 1, 3, 3, 1]
-0.19984414 0.021048797 -0.10051894 -0.2179573 0.38524285 0.11077374 0.09649804 0.15659523
-0.20735535
00000000: f1a3 4cbe 876e ac3c e0dc cdbd 3330 5fbe
00000010: 8d3e c53e 58dd e23d c4a0 c53d 805a 203e
00000020: f654 54be

filter.4.conv2.convR.weight f4 [1, 1, 3, 3, 1]
-0.20628966 0.29010817 0.09528936 0.15008238 0.10248079 0.3203996 0.09098431 0.0383567
0.09396109
00000000: 993d 53be 0f89 943e 1127 c33d 32af 193e
00000010: 73e1 d13d 6b0b a43e fb55 ba3d ea1b 1d3d
00000020: ac6e c03d

filter.4.conv2.convI.weight f4 [1, 1, 3, 3, 1]
-0.006703833 0.27688187 -0.22996378 0.20143846 -0.15317005 -0.05248209 0.13404544 0.06931767
0.19313224
00000000: d4ab dbbb 76c3 8d3e a07b 6bbe e245 4e3e
00000010: 9cd8 1cbe 76f7 56bd 3543 093e 6cf6 8d3d
00000020: 75c4 453e

filter.4.conv3.convR.weight f4 [1, 1, 3, 3, 1]
0.2578011 -0.25509512 0.03895494 -0.06938613 -0.089814395 0.21434899 -0.20670886 0.21137571
0.07972959
00000000: 81fe 833e d49b 82be 378f 1f3d 511a 8ebd
00000010: 9cf0 b7bd 4d7e 5b3e 7dab 53be e072 583e
00000020: 4449 a33d

filter.4.conv3.convI.weight f4 [1, 1, 3, 3, 1]
0.07408513 0.24752681 -0.15827215 0.1693489 -0.16640499 -0.07086833 0.13599153 0.16875789
0.14976704
00000000: f2b9 973d ab77 7d3e 1812 22be cc69 2d3e
00000010: 1266 2abe 6a23 91bd 5d41 0b3e dece 2c3e
00000020: 885c 193e

filter.4.conv4.convR.weight f4 [1, 1, 3, 3, 1]
-0.074065484 0.032270517 -0.16361956 -0.00087893277 0.2013411 0.10219482 -0.10068033 0.04497226
-0.08758357
00000000: a5af 97bd 172e 043d e38b 27be 2e68 66ba
00000010: 5c2c 4e3e 854b d13d 7d31 cebd d534 383d
00000020: 045f b3bd

filter.4.conv4.convI.weight f4 [1, 1, 3, 3, 1]
0.40501818 0.01665464 -0.06536197 0.1824478 -0.070974335 0.3408714 0.23917812 -0.46773764
-0.0122923255
00000000: 8b5e cf3e 506f 883c 7fdc 85bd 99d3 3a3e
00000010: fe5a 91bd b286 ae3e 1ceb 743e 4f7b efbe
00000020: c065 49bc

filter.4.conv5.convR.weight f4 [1, 1, 3, 3, 1]
0.031699605 -0.2736674 0.09028955 -0.27982393 -0.2029887 0.06629371 0.00734077 -0.025011765
0.119140506
00000000: 72d7 013d 221e 8cbe bae9 b83d 1545 8fbe
00000010: 45dc 4fbe ffc4 873d d88a f03b 79e5 ccbc
00000020: f0ff f33d

filter.4.conv5.convI.weight f4 [1, 1, 3, 3, 1]
-0.07550975 -0.10612831 0.12700798 -0.15167384 -0.12077048 -0.20964614 0.3537638 -0.23320736
0.17293383
00000000: dba4 9abd cd59 d9bd 610e 023e 6350 1bbe
00000010: 8356 f7bd 7aad 56be 8720 b53e e9cd 6ebe
00000020: 9115 313e

filter.4.conv6.convR.weight f4 [1, 1, 3, 3, 1]
-0.100931205 -0.1836182 0.072875746 -0.2217666 0.020245636 0.09180572 0.07705742 0.13367257
0.09406737
00000000: 05b5 cebd 6906 3cbe e13f 953d c916 63be
00000010: 2dda a53c a304 bc3d 48d0 9d3d 76e1 083e
00000020: 65a6 c03d

filter.4.conv6.convI.weight f4 [1, 1, 3, 3, 1]
0.07933001 -0.23702662 -0.033879127 0.113838576 -0.14151642 -0.031641006 -0.031818375 0.35268015
-0.08086905
00000000: c677 a23d 1bb7 72be d7c4 0abd 3324 e93d
00000010: aee9 10be 009a 01bd fc53 02bd 7e92 b43e
00000020: ac9e a5bd

filter.5.conv1.convR.weight f4 [1, 1, 3, 3, 1]
0.21828744 0.15473567 -0.11795855 0.3088114 -0.018710867 0.3307258 -0.12318673 0.050319728
-0.18073943
00000000: be86 5f3e 0773 1e3e 4194 f1bd 871c 9e3e
00000010: 8847 99bc e454 a93e 5349 fcbd 0f1c 4e3d
00000020: c213 39be

filter.5.conv1.convI.weight f4 [1, 1, 3, 3, 1]
-0.13052654 0.24227025 -0.096168056 -0.12075302 -0.16482091 0.093309954 0.32477424 -0.1345388
-0.019784087
00000000: c0a8 05be b115 783e c2f3 c4bd 5c4d f7bd
00000010: d0c6 28be 4a19 bf3d cf48 a63e 8ac4 09be
00000020: 3d12 a2bc

filter.5.conv2.convR.weight f4 [1, 1, 3, 3, 1]
-0.21602856 0.18228446 -0.20838039 -0.054336783 0.008426447 0.17426863 -0.208454 0.19735037
0.1220665
00000000: 9736 5dbe c7a8 3a3e ab61 55be 3f90 5ebd
00000010: 150f 0a3c 7a73 323e f774 55be 3716 4a3e
00000020: 00fe f93d

filter.5.conv2.convI.weight f4 [1, 1, 3, 3, 1]
0.04416774 -0.05282811 0.1556395 -0.20124981 -0.18812701 -0.12310146 -0.120649576 -0.05757536
-0.18678807
00000000: 3be9 343d 4a62 58bd f65f 1f3e 6e14 4ebe
00000010: 5ea4 40be 9e1c fcbd 2017 f7bd 24d4 6bbd
00000020: 5f45 3fbe

filter.5.conv3.convR.weight f4 [1, 1, 3, 3, 1]
-0.07698397 0.2386729 -0.15979466 -0.1267894 0.17963038 0.1187316 -0.16137588 0.14366922
-0.08126995
00000000: c6a9 9dbd ab66 743e 36a1 23be 15d5 01be
00000010: 07f1 373e 8e29 f33d b83f 25be 061e 133e
00000020: dc70 a6bd

filter.5.conv3.convI.weight f4 [1, 1, 3, 3, 1]
0.104047656 0.18022557 -0.034812644 -0.008509346 0.42713937 0.2022359 0.1460086 0.15278235
0.09449242
00000000: f016 d53d 0d8d 383e b497 0ebd c96a 0bbc
00000010: 03b2 da3e ee16 4f3e 4783 153e fa72 1c3e
00000020: 3e85 c13d

filter.5.conv4.convR.weight f4 [1, 1, 3, 3, 1]
-0.22202526 0.20780219 0.008897201 0.36536887 0.31180122 0.16163874 -0.15854004 0.3501143
0.008142997
00000000: 975a 63be 19ca 543e 91c5 113c a111 bb3e
00000010: 69a4 9f3e a084 253e 5258 22be 2e42 b33e
00000020: 346a 053c

filter.5.conv4.convI.weight f4 [1, 1, 3, 3, 1]
0.078607745 -0.008792714 -0.095841125 -0.0093229115 -0.07734065 0.17858788 -0.05847496 0.0600037
-0.05895594
00000000: 19fd a03d 510f 10bc 5a48 c4bd 20bf 18bc
00000010: c664 9ebd bedf 363e 7183 6fbd 71c6 753d
00000020: c97b 71bd

filter.5.conv5.convR.weight f4 [1, 1, 3, 3, 1]
-0.053679243 -0.0720637 0.121033214 0.2096914 0.0321494 -0.23722246 -0.17382681 0.058954064
0.08879258
00000000: c4de 5bbd 2296 93bd 43e0 f73d 58b9 563e
00000010: 17af 033d 72ea 72be a8ff 31be d179 713d
00000020: e2d8 b53d

filter.5.conv5.convI.weight f4 [1, 1, 3, 3, 1]
0.095970266 0.31238604 -0.23666848 0.22769748 0.31894293 0.09045287 -0.09570836 0.20284799
0.1869194
00000000: 0f8c c43d 10f1 9f3e 3959 72be 8729 693e
00000010: 7d4c a33e 5b3f b93d bf02 c4bd 62b7 4f3e
00000020: cd67 3f3e

filter.5.conv6.convR.weight f4 [1, 1, 3, 3, 1]
-0.017576111 -0.0017036435 0.036631357 -0.012283774 -0.12145688 0.05958709 0.055446044 0.056210406
-0.09535428
00000000: c7fb 8fbc ca4c dfba c30a 163d e241 49bc
00000010: 62be f8bd 9811 743d 641b 633d e23c 663d
00000020: 1b49 c3bd

filter.5.conv6.convI.weight f4 [1, 1, 3, 3, 1]
0.050869968 -0.08361128 -0.023684926 -0.12341458 -0.067063816 -0.012576351 0.010212932 0.01159208
0.014120672
00000000: 075d 503d 643c abbd e406 c2bc c9c0 fcbd
00000010: c158 89bd 0a0d 4ebc 2454 273c b5ec 3d3c
00000020: 645a 673c
