Unfolded/Results/Unf_8lay_sim/Unfolded_8lay_sim50epoch_sim_Unfolded_Model_al0.50_Tr2400_epoch50_lr2.00e-03.pkl (torch_old, 46198 bytes, 96 tensors)

filter.0.conv1.convR.weight f4 [1, 1, 5, 5, 1]
0	0xbd20f368	-0.03929463
1	0x3d1c92ea	0.038226046
2	0xbda2609a	-0.079285815
3	0x3db1c73b	0.08680578
4	0xbe390efa	-0.1807212
5	0x3e2ac71c	0.16677517
6	0xbe00204c	-0.1251232
7	0xbe0bf514	-0.13667709
8	0xbdcce294	-0.10004154
9	0x3dd0f102	0.102022186
10	0xbdab8163	-0.08374288
11	0x3d94298a	0.072344854
12	0xbe26d67d	-0.16292758
13	0xbdcaefbb	-0.09909006
14	0xbd7672e0	-0.060168147
15	0xbd441c58	-0.047878593
16	0xbe2233cb	-0.1584007
17	0x3e07484c	0.13211173
18	0xbd08dc39	-0.033413146
19	0x3d843361	0.06455112
20	0x3e25785a	0.16159192
21	0x3d25ec71	0.04050869
22	0x3d51f66d	0.0512604
23	0x3e451be0	0.19248915
24	0xbdde1a63	-0.108448766

filter.0.conv1.convI.weight f4 [1, 1, 5, 5, 1]
0	0xbd8851d0	-0.066562295
1	0x3e12239d	0.14271398
2	0x3e0e6e03	0.13909154
3	0xbe52fcb1	-0.20604207
4	0x3e1659f0	0.14682746
5	0x3dae4945	0.08510069
6	0x3d70d31a	0.058795072
7	0x3d2699ef	0.040674146
8	0x3e05e9f1	0.13077523
9	0xbd6bc6ea	-0.057562746
10	0xbe7f907b	-0.24957459
11	0xbe159309	-0.1460687
12	0xbe6cbfcc	-0.2312004
13	0xbd59ecbe	-0.05320429
14	0xbda6da24	-0.08147076
15	0xbe149ad4	-0.14512187
16	0xbd96f297	-0.07370489
17	0x3e09c8e7	0.13455544
18	0xbd3141bd	-0.043275584
19	0x3c11e948	0.008905716
20	0xb92a3999	-0.0001623392
21	0x3cbe9903	0.023266321
22	0x3e1d01f1	0.15332772
23	0x3de4f851	0.11180175
24	0x3da922ff	0.08258628

filter.0.conv2.convR.weight f4 [1, 1, 5, 5, 1]
0	0x3d412958	0.04715857
1	0x3d9e3dfa	0.07726665
2	0xbcd3b840	-0.025844693
3	0xbe3e57ca	-0.18588176
4	0xbdfd4d30	-0.12368238
5	0x3e2ed079	0.17071714
6	0x3c43dda0	0.011954695
7	0xbe25e72e	-0.1620147
8	0x3d0135d8	0.03154549
9	0x3e29386f	0.16525434
10	0xbe418933	-0.18899994
11	0xbe09e122	-0.13464788
12	0xbda3212d	-0.07965312
13	0x3c0385d0	0.008027509
14	0xbd3f0fc0	-0.04664588
15	0xbcb40bb0	-0.02197823
16	0xbe47a852	-0.19497803
17	0x3dbfcea2	0.09365584
18	0x3e33c307	0.17554866
19	0x3dfa5cfe	0.12224768
20	0xbe110688	-0.14162648
21	0xbe251708	-0.16122067
22	0x3daa165e	0.083050475
23	0x3b932f40	0.0044917166
24	0x3da7e862	0.081986204

filter.0.conv2.convI.weight f4 [1, 1, 5, 5, 1]
0	0xbc435f60	-0.011924595
1	0x3e106f15	0.14104874
2	0x3dbe04a2	0.092782274
3	0x3bef5200	0.0073034763
4	0x3d211200	0.039323807
5	0xbc9b1fb0	-0.018936008
6	0xbde1363a	-0.10996671
7	0xbd9ac99d	-0.07557986
8	0xbdf97027	-0.121795945
9	0x3e2a1bd9	0.16612186
10	0x3de165be	0.11005734
11	0x3d8f3f12	0.069944516
12	0xbe1d0d28	-0.1533705
13	0x3e1e0735	0.15432437
14	0x3d806d56	0.06270854
15	0x3e0dadf7	0.13835894
16	0xbda121f0	-0.07867801
17	0x3d2daaf8	0.042399377
18	0x3e47f68f	0.19527648
19	0x3e09c2b7	0.13453184
20	0x3e243fb9	0.16039933
21	0xbd2c0500	-0.041996956
22	0x3e1c084f	0.15237544
23	0xbe2067ed	-0.15664645
24	0x3c8db418	0.01729779

filter.0.conv3.convR.weight f4 [1, 1, 5, 5, 1]
0	0xbd3f0cc8	-0.04664305
1	0xbd51cb88	-0.051219493
2	0x3c752ad0	0.014963821
3	0x3e3a6589	0.18202795
4	0x3dcac952	0.0990168
5	0xba5e1a00	-0.0008472502
6	0x3e116059	0.1419691
7	0xbdd1e6dd	-0.10249112
8	0x3dd3189e	0.1030743
9	0xbc97eee8	-0.018546537
10	0xbd0e8cb8	-0.03480217
11	0x3cbfd028	0.023414686
12	0xbe1ce588	-0.15321934
13	0x3cbd5440	0.023111463
14	0x3d89b91e	0.067247614
15	0x3e2f170b	0.17098634
16	0xbd7f0d60	-0.062268615
17	0x3d9377a2	0.072005525
18	0x3e4cb339	0.19990243
19	0xbdafb4aa	-0.08579381
20	0x3e42ae6b	0.19011848
21	0xbdcb5cf7	-0.09929841
22	0x3db48cb2	0.08815898
23	0x3da075fa	0.07835002
24	0x3d64d35c	0.05586563

filter.0.conv3.convI.weight f4 [1, 1, 5, 5, 1]
0	0xbda58bb7	-0.08083289
1	0x3d574d24	0.0525638
2	0x3a931e80	0.00112243
3	0xbe1a09e2	-0.15042832
4	0xbd46e9c8	-0.048562795
5	0xbe08c52a	-0.13356462
6	0x3db51b5a	0.088431075
7	0x3c934918	0.01797919
8	0x3ca08158	0.019592926
9	0xbd788574	-0.060674146
10	0x3a7c1b00	0.00096170604
11	0xbd7ece78	-0.062208623
12	0x3d6b62c4	0.057467237
13	0x3e46e543	0.19423394
14	0x3cf82b58	0.030294105
15	0xbdb56b5a	-0.08858366
16	0xbdfa31f7	-0.12216561
17	0x3c7a79b0	0.015287802
18	0xbe17ee1b	-0.14836924
19	0xbe19f01e	-0.15033004
20	0xbe054cb4	-0.13017541
21	0xbd8b1e56	-0.067928955
22	0x3c728a60	0.014803499
23	0x3e0d0715	0.13772233
24	0x3d9ea77a	0.07746787

filter.0.conv4.convR.weight f4 [1, 1, 5, 5, 1]
0	0xbd73259e	-0.059362046
1	0x3d6e398e	0.058160357
2	0xbe3076c4	-0.17232805
3	0x3e16a618	0.14711797
4	0x3dab091c	0.08351347
5	0x3e35c7de	0.17752025
6	0xbe4348d7	-0.19070755
7	0x3d89afdd	0.067229964
8	0x3ddc081a	0.10743733
9	0x3df7fb4a	0.121084765
10	0x3ddca2c6	0.10773234
11	0x3e58f148	0.21185791
12	0x3dca9da4	0.09893349
13	0x3e0828b8	0.13296783
14	0xbc929319	-0.017892407
15	0xbe16b69b	-0.14718096
16	0xbd0e58eb	-0.034752768
17	0xbd770f90	-0.060317576
18	0xbe5e2dc4	-0.21697146
19	0xbe430841	-0.19046117
20	0xbe0672b9	-0.131297
21	0xbd28aa45	-0.041178007
22	0x3e08e113	0.13367109
23	0x3a79b73e	0.00095259014
24	0xbd5a222d	-0.05325525

filter.0.conv4.convI.weight f4 [1, 1, 5, 5, 1]
0	0x3d5d644a	0.05405072
1	0xbe4188b8	-0.1889981
2	0xbe1f9f94	-0.15588218
3	0xbdcbef9d	-0.09957812
4	0xbe495b07	-0.1966363
5	0xbd9e12ad	-0.07718406
6	0x3d97d22b	0.07413133
7	0xbe6098cb	-0.21933286
8	0xbe4b6452	-0.19862488
9	0xbe7cb9d0	-0.24680257
10	0x3d2a9edb	0.041655403
11	0x3e951150	0.2911477
12	0x3cebf440	0.02880299
13	0x3dff1046	0.12454276
14	0x3e9b4798	0.3032806
15	0xbe87084d	-0.2637352
16	0x3e1a16c2	0.15047744
17	0x3d45b10c	0.04826455
18	0xbd22bbe8	-0.039729983
19	0x3d71789d	0.058952916
20	0x3d8322f3	0.064031504
21	0x3da5de46	0.08099036
22	0xbd2a0917	-0.041512575
23	0x3dbc1a48	0.091847
24	0x3d8ab20a	0.067722395

filter.0.conv5.convR.weight f4 [1, 1, 5, 5, 1]
0	0xbcef1798	-0.029186055
1	0x3e037f25	0.1284147
2	0xbd649af4	-0.055811837
3	0xbc9e95d0	-0.019358546
4	0x3da86c26	0.08223753
5	0xbe00e8a5	-0.12588747
6	0x3d5b590c	0.05355172
7	0xbd352354	-0.044223145
8	0x3dc4796a	0.095934704
9	0xbdde3183	-0.10849287
10	0x3bf235c0	0.0073916614
11	0x3ca04898	0.019565865
12	0xbe24c808	-0.16091931
13	0xbe14eb32	-0.14542845
14	0x3d9d164a	0.07670267
15	0xbd6e6ef8	-0.058211297
16	0x3df34292	0.11877932
17	0xbe4a5073	-0.19757251
18	0xbdca7a1d	-0.098865725
19	0xbe28af9b	-0.16473238
20	0x3da39f9e	0.07989429
21	0xbbbdff60	-0.0057982653
22	0xbd18cc60	-0.037304282
23	0xbd084a98	-0.033274263
24	0xbe2014ea	-0.15632978

filter.0.conv5.convI.weight f4 [1, 1, 5, 5, 1]
0	0x3ba35aa0	0.0049851686
1	0xbe0d55cb	-0.13802259
2	0x3d9a20a2	0.075257555
3	0xbb83b8a0	-0.0040198117
4	0xbe461263	-0.19342951
5	0x3ddc5506	0.107584044
6	0x3ddb16fa	0.10697742
7	0xbd1a5878	-0.037682027
8	0xbe0d66d8	-0.13808763
9	0x3c039050	0.008030012
10	0x3e1a89b7	0.15091597
11	0x3e3b762b	0.18306796
12	0xbe1a9550	-0.1509602
13	0xbdb900ed	-0.0903338
14	0x3e1f7659	0.1557249
15	0x3dc8341e	0.097755656
16	0x3dfd8c36	0.12380259
17	0xbdcbdf3a	-0.099546865
18	0x3e307139	0.17230691
19	0xbe285bee	-0.16441318
20	0xbc1dd700	-0.0096337795
21	0x3b881260	0.004152581
22	0x3d099968	0.033593565
23	0xbe1a89ee	-0.15091679
24	0x3e3be5a9	0.18349327

filter.0.conv6.convR.weight f4 [1, 1, 5, 5, 1]
0	0xbe0d6fb8	-0.13812149
1	0x3bf21860	0.0073881596
2	0xbdda2dad	-0.10653243
3	0x3e44612b	0.19177692
4	0x3de46b7e	0.11153315
5	0x3df136b6	0.117780134
6	0x3d84238a	0.06452091
7	0xbca31d28	-0.019911364
8	0x3de6a162	0.1126125
9	0x3b5f3140	0.0034056455
10	0xbd95632a	-0.07294305
11	0x3dd37ad6	0.103261635
12	0x3d8088fa	0.06276126
13	0xbd544448	-0.05182293
14	0xbd6081b8	-0.05481121
15	0xbe351cdd	-0.17686792
16	0xbd608ecc	-0.05482368
17	0xbda5ef4d	-0.081022836
18	0xbddf4083	-0.109009765
19	0xbe38faa8	-0.18064368
20	0x3e206a39	0.1566552
21	0xbe37072d	-0.17873831
22	0x3e4b4ed5	0.19854291
23	0xbdd6d833	-0.104904555
24	0xbc7be0d0	-0.015373424

filter.0.conv6.convI.weight f4 [1, 1, 5, 5, 1]
0	0x3d8721b6	0.06598227
1	0xbd69e18c	-0.057099864
2	0xbe24e02b	-0.16101138
3	0xbda77797	-0.08177107
4	0x3e24ed3b	0.16106121
5	0xbd9aab40	-0.075521946
6	0x3e2aaf41	0.16668417
7	0xbd0d146c	-0.034443304
8	0xbcd0f370	-0.025506705
9	0x3da379f2	0.079822436
10	0xbcf0bcb0	-0.029386848
11	0xbadcc500	-0.0016843379
12	0x3e0dd7d3	0.13851862
13	0x3d88e33e	0.06683968
14	0xbc026e60	-0.007960886
15	0x3d9bfcd6	0.07616584
16	0x3e325e8b	0.17418878
17	0x3d4e78ac	0.05040805
18	0xbd703b6c	-0.05865042
19	0x3d8636d2	0.06553425
20	0xbc8f57c0	-0.017497897
21	0xbe201e18	-0.1563648
22	0xbd9e2883	-0.07722571
23	0x3dba4aaa	0.09096272
24	0x3bd6eb60	0.0065588206

filter.1.conv1.convR.weight f4 [1, 1, 5, 5, 1]
0	0xbe307d13	-0.17235212
1	0x3dbe7cbe	0.093011364
2	0xbe2d941f	-0.16951035
3	0x3cdde1b8	0.02708517
4	0xbd8f03bf	-0.069831364
5	0xbe5780b2	-0.21045187
6	0xbd74710d	-0.059678126
7	0xbe390430	-0.18068004
8	0xbe2e37f4	-0.17013532
9	0xbd92fdd3	-0.071773194
10	0x3da7a53e	0.08185814
11	0x3d177421	0.036975984
12	0x3d96f1e4	0.07370356
13	0xbe1254df	-0.14290188
14	0x3e24d9bd	0.16098686
15	0x3d778119	0.06042585
16	0xbe0834c1	-0.13301374
17	0x3d4481b2	0.04797525
18	0x3e0b8be9	0.1362759
19	0x3b9998ca	0.0046874033
20	0xbc37e608	-0.011224277
21	0x3e60de64	0.21959835
22	0x3d8eccf5	0.06972686
23	0x3df982db	0.12183162
24	0x3bc9305e	0.006139799

filter.1.conv1.convI.weight f4 [1, 1, 5, 5, 1]
0	0x3e2548d8	0.16141069
1	0x3da5c7aa	0.080947235
2	0xbd37eae1	-0.044901732
3	0x3dc943d3	0.098273896
4	0xbe28bef8	-0.16479099
5	0xbe7d6ec5	-0.24749286
6	0xbe86eaf3	-0.26351127
7	0xbc9736ab	-0.018458685
8	0xbe41824b	-0.18897359
9	0xbc853a2f	-0.016263096
10	0x3e519dbf	0.20470332
11	0x3deca074	0.115540415
12	0x3e534807	0.20632945
13	0xbc9c2926	-0.01906259
14	0x3e2647fe	0.162384
15	0xbd9fe842	-0.078079715
16	0x3d22cd83	0.039746772
17	0x3e52c9ca	0.20584789
18	0xbcef0bfa	-0.029180516
19	0x3e3bba5f	0.18332814
20	0xbd66c523	-0.056340348
21	0xbc941edb	-0.01808112
22	0x3e363616	0.1779407
23	0x3e1a19e2	0.15048936
24	0xbe1c9e8a	-0.15294853

filter.1.conv2.convR.weight f4 [1, 1, 5, 5, 1]
0	0xbde38222	-0.11108805
1	0x3da7a189	0.08185107
2	0x3d89c93d	0.06727836
3	0x3e11ec11	0.14250208
4	0x3db729fb	0.08943554
5	0xbe87db3e	-0.26534456
6	0x3dd1eba8	0.10250026
7	0xbd41d382	-0.04732085
8	0x3e385b39	0.18003549
9	0x3df3e3ed	0.11908708
10	0xbe580344	-0.21094996
11	0xbd729bb1	-0.05923051
12	0x3c9c1716	0.019053977
13	0x3d3b3123	0.045701157
14	0xbe72c402	-0.23707584
15	0xbe0218a3	-0.1270471
16	0x3c1cba49	0.009565898
17	0x3d15df2d	0.03658979
18	0x3cc8f4fa	0.024530876
19	0xbd917786	-0.071028754
20	0xbe6f55cb	-0.23372571
21	0x3e06b729	0.13155808
22	0xbe008f69	-0.12554707
23	0xbd88c74c	-0.06678638
24	0x3d15c45b	0.036564212

filter.1.conv2.convI.weight f4 [1, 1, 5, 5, 1]
0	0x3e753a02	0.2394791
1	0xbcf704cf	-0.03015366
2	0xbe04960a	-0.1294786
3	0xbdc8c4f1	-0.098031886
4	0x3c65d241	0.014027179
5	0xbd56c0a5	-0.052429814
6	0xbe4786f0	-0.19485068
7	0x3d9d0add	0.07668088
8	0xbe3f432d	-0.1867797
9	0xbe000e43	-0.1250544
10	0x3df11bef	0.11772906
11	0xbe6024f6	-0.218891
12	0xbe6df198	-0.23236692
13	0x3d38e971	0.045144502
14	0xbe366f89	-0.17815985
15	0x3d04032e	0.032229595
16	0x3e3828f3	0.17984371
17	0xbdcfc98e	-0.101458654
18	0x3dc89a35	0.09795038
19	0x3d813554	0.06309
20	0x3e48bfbc	0.19604391
21	0x3d3cb25b	0.04606853
22	0xbdd96e49	-0.10616738
23	0x3d3256df	0.043539878
24	0xbe5f632d	-0.21815176

filter.1.conv3.convR.weight f4 [1, 1, 5, 5, 1]
0	0xbdcc0911	-0.09962667
1	0x3d632e6b	0.05546419
2	0x3d64dbde	0.055873744
3	0x3e06f44c	0.1317913
4	0x3d90a9b7	0.070636205
5	0xbdb2eb5e	-0.08736299
6	0x3cee269c	0.029071145
7	0xbe110794	-0.14163047
8	0xbe42e6a2	-0.19033292
9	0xbe4ca5c1	-0.19985105
10	0x3d728830	0.05921191
11	0x3e1e252e	0.1544387
12	0x3cf4f051	0.029899748
13	0x3e64a42f	0.22328256
14	0xbd85eea0	-0.06539655
15	0x3c882b1b	0.016622117
16	0x3b37cbef	0.0028045138
17	0xbbc56468	-0.0060239322
18	0xbd427480	-0.047474384
19	0x3d8be38c	0.068305105
20	0x3dbb1604	0.091350585
21	0x3be3497c	0.0069362503
22	0x3e3e5a39	0.18589105
23	0xbe049df4	-0.1295088
24	0x3d982c40	0.07430315

filter.1.conv3.convI.weight f4 [1, 1, 5, 5, 1]
0	0xbaf62ee3	-0.0018782284
1	0xbdb1c709	-0.08680541
2	0x3db76294	0.08954349
3	0xbe025966	-0.12729415
4	0x3dc4d756	0.096113846
5	0xbd5ab581	-0.053395752
6	0xbd02f534	-0.031972125
7	0x3e2ad1b5	0.1668156
8	0x3c8e4261	0.017365636
9	0xbe01d5ab	-0.12679164
10	0x3dfe5d44	0.12420133
11	0x3e19c723	0.15017371
12	0x3e105c7f	0.14097784
13	0x3e601e1c	0.21886486
14	0x3b285462	0.0025685062
15	0x3e0095f0	0.12557197
16	0xbe1b1312	-0.15143993
17	0x3e7e5060	0.24835348
18	0x3e55b8de	0.20871302
19	0xbdf1d1bd	-0.118075825
20	0xbe1028a1	-0.14077999
21	0xbe891275	-0.26771894
22	0x3db07cc5	0.08617548
23	0xbe0d0018	-0.13769567
24	0xbd92d8a4	-0.07170227

filter.1.conv4.convR.weight f4 [1, 1, 5, 5, 1]
0	0xbd9ab8fc	-0.07554814
1	0x3e562e5f	0.20916127
2	0xbdc53f90	-0.09631264
3	0x3d2c47e5	0.04206075
4	0xbc502ad2	-0.012705522
5	0xbe119946	-0.14218625
6	0xbdfd55e9	-0.12369902
7	0xbe01e411	-0.12684657
8	0xbd87337b	-0.06601616
9	0xbd51b712	-0.05119998
10	0xbd3c5eac	-0.045988724
11	0x3e30d74a	0.17269626
12	0x3d3991e3	0.045305144
13	0xbdb98e3a	-0.09060331
14	0xbd831037	-0.06399577
15	0x3de274a4	0.11057404
16	0xbe3943d5	-0.18092282
17	0xbd755683	-0.059896957
18	0xbdd7e198	-0.105410755
19	0x3e27301b	0.16326945
20	0x3e005142	0.12530997
21	0x3d33aa41	0.04386354
22	0xbd6819d9	-0.056665275
23	0x3cfbdc73	0.030744767
24	0x3d9898c0	0.0745101

filter.1.conv4.convI.weight f4 [1, 1, 5, 5, 1]
0	0x3ddd9b6a	0.108206585
1	0xbd2a280e	-0.041542105
2	0x3c829a50	0.015942723
3	0x3d2dd664	0.042440787
4	0xbc08a683	-0.008340481
5	0x3ddef880	0.10887241
6	0xbdaeb63c	-0.08530852
7	0xbd032e75	-0.032026727
8	0xbc6b2b41	-0.014353574
9	0x3c6eaeca	0.01456804
10	0xbe43340d	-0.19062825
11	0xbe5d1be0	-0.21592665
12	0xbe6a0a4e	-0.22855493
13	0x3d6cdb1a	0.05782614
14	0x3dcca929	0.09993202
15	0x3e2c3ff3	0.1682127
16	0x3d7a0043	0.061035406
17	0xbd230fd6	-0.039810024
18	0x3dbc7380	0.092017174
19	0xbe14feb1	-0.14550282
20	0xbc4a4857	-0.012346349
21	0xbe00cae4	-0.12577397
22	0xbd918309	-0.07105071
23	0x3df691e0	0.12039542
24	0xbcefa87e	-0.029255148

filter.1.conv5.convR.weight f4 [1, 1, 5, 5, 1]
0	0xbd6c9fc9	-0.05776957
1	0xbdde413f	-0.108522885
2	0xbdf70f6d	-0.12063489
3	0xbdbd0498	-0.09229392
4	0xbe1a2a06	-0.15055093
5	0x3dcb7ed3	0.09936299
6	0xbd54a55b	-0.051915508
7	0xbe1a6c33	-0.15080337
8	0x3d9dd9ee	0.077075824
9	0xbce00794	-0.027347364
10	0x3d549c9b	0.051907163
11	0x3dbe3434	0.09287301
12	0x3e1f2a88	0.15543568
13	0xbdcfaeaf	-0.1014074
14	0xbd3ba6e9	-0.045813475
15	0xbe1a09f4	-0.1504286
16	0x3e178f72	0.14800814
17	0x3d3337be	0.04375433
18	0xbd720838	-0.05908987
19	0x3c9ed19d	0.01938706
20	0x3e269c6e	0.1627061
21	0x3d390192	0.045167513
22	0x3d9c0a3d	0.0761914
23	0x3e1bfa15	0.15232117
24	0xbd21f4e9	-0.039540205

filter.1.conv5.convI.weight f4 [1, 1, 5, 5, 1]
0	0x3d7f8147	0.062379148
1	0xbe2e09a5	-0.16995867
2	0x3d4a4046	0.049377702
3	0xbc6d5bfd	-0.014487264
4	0x3c59b0b9	0.013286763
5	0x3d445433	0.04793186
6	0x3e5fd167	0.21857224
7	0x3d8fcc0d	0.070213415
8	0xbe1cb286	-0.15302476
9	0x3e84f342	0.2596684
10	0x3e264eee	0.16241047
11	0x3e15cfe5	0.14630087
12	0x3dd386a3	0.10328414
13	0x3d6f2c64	0.058391944
14	0xbcaec072	-0.021332
15	0x3dd96690	0.10615265
16	0xbe28b40a	-0.1647493
17	0xbe1d22ca	-0.15345302
18	0xbc2212ac	-0.009892147
19	0xbdeb56c1	-0.11491156
20	0x3e17b744	0.14816004
21	0x3e306e84	0.17229658
22	0x3d630ae8	0.055430323
23	0x3dcb3c3a	0.09923597
24	0xbe321c51	-0.17393614

filter.1.conv6.convR.weight f4 [1, 1, 5, 5, 1]
0	0x3d708008	0.05871585
1	0xbdb5a159	-0.08868665
2	0xbde72ee4	-0.112882406
3	0x3d7b1ed7	0.061308708
4	0x3de5c31e	0.11218856
5	0xbd00f919	-0.031487558
6	0xbcbe8be1	-0.023260059
7	0xbcc9e287	-0.02464415
8	0xbe367198	-0.1781677
9	0x3e11100e	0.1416628
10	0x3a4bca30	0.0007773964
11	0xbe2fb98b	-0.17160623
12	0xbe124ec3	-0.14287858
13	0x3d8a8977	0.067645006
14	0xbe3f16b0	-0.18660998
15	0x3dde3458	0.108498275
16	0xbe4c7e79	-0.1997012
17	0xbd54d5fc	-0.051961884
18	0x3c8110df	0.015755115
19	0xbdf892eb	-0.121373974
20	0xbe17af50	-0.1481297
21	0xbd1c9b2a	-0.038233913
22	0x3c883aab	0.016629538
23	0xbce86d1e	-0.028372344
24	0x3e076560	0.13222265

filter.1.conv6.convI.weight f4 [1, 1, 5, 5, 1]
0	0xbd6a1c31	-0.05715579
1	0x3e079e25	0.13243921
2	0xbdfde44e	-0.12397061
3	0xbe1ec593	-0.15505056
4	0x3d1878dc	0.037224635
5	0x3d2674fe	0.040638916
6	0x3e8ef70b	0.27922854
7	0x3e8fc27e	0.28078073
8	0x3e03749c	0.12837452
9	0x3dd12705	0.102125205
10	0x3d574a0f	0.052560862
11	0x3d49cfca	0.04927043
12	0xbde3285b	-0.110916816
13	0xbd15e65c	-0.03659664
14	0xbe3f8d17	-0.18706165
15	0x3e13cf39	0.14434518
16	0xbc3f22ad	-0.011665982
17	0xbd58c441	-0.052921537
18	0x3d263bda	0.040584423
19	0x3e0f7c96	0.1401237
20	0x3c8313d8	0.016000673
21	0x3dfb8ad7	0.12282341
22	0x3d54311b	0.051804643
23	0xbe27ff8f	-0.16406082
24	0xbe324b37	-0.17411505

filter.2.conv1.convR.weight f4 [1, 1, 5, 5, 1]
0	0xbde562bc	-0.11200473
1	0x3dcaa8f1	0.09895504
2	0xbe27275f	-0.16323613
3	0xbdbf38b4	-0.09336987
4	0x3e343452	0.17598084
5	0x3db5d297	0.088780575
6	0x3d213b7f	0.03936338
7	0x3ddd9f5b	0.1082141
8	0xbd879724	-0.06620625
9	0xbdd3d9f2	-0.10344304
10	0x3dacb6fc	0.08433339
11	0x3d5b1098	0.053482622
12	0xbd3652f8	-0.04451272
13	0x3e28c6cd	0.16482086
14	0xbdc884f6	-0.09790985
15	0xbd2a8064	-0.04162635
16	0x3e0fd9b2	0.14047888
17	0x3d7853e9	0.060626898
18	0xbe2a8074	-0.16650563
19	0x3d5dcb2f	0.05414885
20	0xbd72a49d	-0.05923902
21	0x3d8f04aa	0.069833115
22	0x3dec8a22	0.11549784
23	0xbe194b13	-0.14970045
24	0xbd521be3	-0.051296126

filter.2.conv1.convI.weight f4 [1, 1, 5, 5, 1]
0	0xbe0758f0	-0.1321752
1	0xbcde8381	-0.027162315
2	0x3c593b30	0.01325874
3	0xbb118483	-0.0022204227
4	0x3d11a3d1	0.035556618
5	0x3ddefd38	0.108881414
6	0x3dd2137a	0.10257621
7	0xbd4a38e8	-0.049370676
8	0xbb04148f	-0.0020153855
9	0xbe4d6042	-0.2005625
10	0xbb59adc2	-0.003321514
11	0x3d03bdc5	0.0321634
12	0x3d9bfed3	0.07616963
13	0x3d6a144c	0.057148263
14	0x3d0e0d6b	0.034680765
15	0xbd470d21	-0.048596505
16	0x3e0b77ae	0.13619873
17	0xbd20f507	-0.039296176
18	0x3dff48d7	0.12465065
19	0x3dbe2ab6	0.0928549
20	0xbd548689	-0.051886115
21	0xbddda81e	-0.108230814
22	0x3e187b08	0.14890683
23	0xbca74a13	-0.020421064
24	0xbdfef806	-0.124496505

filter.2.conv2.convR.weight f4 [1, 1, 5, 5, 1]
0	0xbd445e6d	-0.047941614
1	0x3dbda525	0.092600144
2	0xbe37bdab	-0.17943446
3	0xbac9899d	-0.0015376095
4	0xbe6314e6	-0.22175941
5	0xbe35a6d3	-0.1773942
6	0xbe10e4d8	-0.14149797
7	0x3e2cf0d0	0.16888738
8	0xbe11e26f	-0.14246534
9	0xbe246e72	-0.16057757
10	0x3d2bf4b9	0.041981433
11	0x3d0b480d	0.03400426
12	0x3d22caec	0.039744303
13	0x3ddf3344	0.1089845
14	0x3e4c4163	0.19946818
15	0xbdb513d8	-0.088416755
16	0xbe20c5ed	-0.15700503
17	0xbbd419fb	-0.0064728237
18	0x3df9e7af	0.12202393
19	0xbba45e78	-0.0050161444
20	0x3dfa2fcc	0.12216148
21	0xb983361c	-0.00025026582
22	0x3e2d5c8d	0.16929837
23	0x3e695b84	0.22788817
24	0x3de004bc	0.10938403

filter.2.conv2.convI.weight f4 [1, 1, 5, 5, 1]
0	0x3c88273d	0.016620273
1	0xbd57fda9	-0.052732144
2	0xbe3c9b39	-0.18418588
3	0x3dee1fec	0.11627182
4	0x3c862089	0.016372936
5	0xbdba0812	-0.090835705
6	0xbe59f65b	-0.21285383
7	0x3d2e79ea	0.042596735
8	0xbe589247	-0.2114955
9	0xbc78878e	-0.0151690375
10	0xbe1421a7	-0.14465962
11	0xbba7bcf5	-0.005118961
12	0x3beff80e	0.0073232716
13	0x3dac4d13	0.08413138
14	0xbdacec0d	-0.084434606
15	0x3c24c98a	0.010057816
16	0xbdd2ea3e	-0.102985844
17	0x3d107f41	0.03527761
18	0x3d5743db	0.052554946
19	0x3e4d4224	0.20044762
20	0x3e5a54f7	0.21321474
21	0xbcda5c20	-0.026655257
22	0xbd869951	-0.065722115
23	0x3c15185f	0.009100049
24	0xbdf72827	-0.12068205

filter.2.conv3.convR.weight f4 [1, 1, 5, 5, 1]
0	0xbd5e2533	-0.054234695
1	0xbd89a0bb	-0.0672011
2	0x3e588482	0.21144298
3	0x3df05eba	0.11736818
4	0xbcd26a85	-0.025685558
5	0xbe0a07f0	-0.1347959
6	0x3e089ed7	0.13341843
7	0xbdaddfad	-0.084899284
8	0xbe1d411e	-0.15356871
9	0xbe249118	-0.16070974
10	0x3ddff98e	0.10936271
11	0x3d8763f4	0.066108614
12	0x3c515c82	0.012778403
13	0xbe3d2054	-0.18469363
14	0x3d5b0629	0.05347267
15	0xbe083bf1	-0.13304116
16	0x3d399cad	0.045315433
17	0x3ce2bd45	0.027678141
18	0xbe0b637e	-0.13612172
19	0xbcbf4f8e	-0.023353364
20	0xbdcff8ee	-0.101549014
21	0x3e58b624	0.21163231
22	0xbd2ae537	-0.041722503
23	0x3dfdfdc1	0.12401915
24	0xbe1db2eb	-0.15400283

filter.2.conv3.convI.weight f4 [1, 1, 5, 5, 1]
0	0xbe3ed9c4	-0.18637758
1	0xbd90d874	-0.07072535
2	0x3cd0859e	0.025454339
3	0xbd300df8	-0.04298207
4	0x3d6976b8	0.056997985
5	0x3e1494bc	0.14509863
6	0xbe4be997	-0.19913326
7	0x3e009a49	0.12558855
8	0xbdfbade3	-0.12289026
9	0xbdc8495d	-0.09779618
10	0x3bd87ee4	0.0066069234
11	0x3e347afd	0.17625041
12	0x3e370a32	0.17874983
13	0x3d8976ea	0.06712134
14	0xbac431a3	-0.0014968406
15	0xbd4c44cc	-0.049870297
16	0xbe141060	-0.14459372
17	0x3d5a13f1	0.053241674
18	0xbceff4e6	-0.029291581
19	0xbd85ccbf	-0.06533193
20	0xbcd5a278	-0.026078448
21	0x3d3896cc	0.045065686
22	0x3e1aad40	0.15105152
23	0x3e2d6bc4	0.1693564
24	0x3d633385	0.055469055

filter.2.conv4.convR.weight f4 [1, 1, 5, 5, 1]
0	0xbda48e29	-0.080349274
1	0x3df6dabb	0.12053438
2	0x3d10eb4f	0.035380658
3	0x3e15f872	0.14645556
4	0x3df41b13	0.119192265
5	0xbdc186c6	-0.09449534
6	0x3e24a11d	0.16077085
7	0xbe32847e	-0.17433354
8	0xbe194599	-0.14967956
9	0xbdcf1478	-0.10111326
10	0xbc804eb3	-0.015662527
11	0xbe15a50f	-0.14613746
12	0x3d597de9	0.053098593
13	0xbe5d2354	-0.21595508
14	0x3d46515b	0.04841743
15	0x3e251667	0.16121827
16	0x3dc86e67	0.097866826
17	0x3b34d716	0.0027594022
18	0xbdfeeed1	-0.12447894
19	0xbe83ea2b	-0.25764593
20	0x3d9c992b	0.07646402
21	0xbe03e7fb	-0.12881462
22	0x3d9d313c	0.07675406
23	0xbc8ccb99	-0.017186927
24	0x3e75238b	0.2393934

filter.2.conv4.convI.weight f4 [1, 1, 5, 5, 1]
0	0xbd783b5b	-0.06060348
1	0xbd4b8ba1	-0.049693707
2	0x3e4dba0c	0.20090503
3	0xbdb1aac4	-0.08675149
4	0xbe2bcbe9	-0.16777004
5	0xbe522a90	-0.20524049
6	0xbe0c78cd	-0.13717957
7	0x3e92aa5a	0.28645593
8	0x3e819781	0.253109
9	0x3d7d1cee	0.061795168
10	0x3dcf70ec	0.1012896
11	0x3e5d2b79	0.21598615
12	0x3d88270a	0.06648071
13	0x3df272e3	0.11838319
14	0x3d7eb710	0.0621863
15	0xbd93961e	-0.07206367
16	0xbe4717ab	-0.19442622
17	0xbe800cc9	-0.25009754
18	0xbe8e6880	-0.27814102
19	0xbe19e57f	-0.15028952
20	0x3d41fa58	0.047357887
21	0xbe32aefd	-0.17449565
22	0xbe05e902	-0.13077167
23	0xbdad0392	-0.084479466
24	0x3dd03020	0.10165429

filter.2.conv5.convR.weight f4 [1, 1, 5, 5, 1]
0	0x3e18d46e	0.14924785
1	0xbb4dc92a	-0.003140042
2	0x3daa0456	0.08301608
3	0x3e434ddd	0.19072671
4	0xbcc89f8e	-0.024490144
5	0x3de935d8	0.11387223
6	0xbe2bc611	-0.16774775
7	0xbe276bb5	-0.1634968
8	0xbe014b82	-0.1262646
9	0x3dadfcf1	0.0849551
10	0xbe4a2cd3	-0.19743662
11	0x3e13b972	0.1442621
12	0x3a2bdcf4	0.0006556057
13	0xbdc4f861	-0.09617687
14	0x3e3c9b76	0.18418679
15	0xbdace55b	-0.084421836
16	0x3d67e4ab	0.05661456
17	0xbd12f8c5	-0.035881776
18	0x3dc9aadc	0.09847042
19	0xbe5f1ccd	-0.2178833
20	0x3e4c7751	0.1996739
21	0x3df7c598	0.12098235
22	0x3d81733f	0.063208096
23	0x3dffa358	0.12482327
24	0x3e029c12	0.12754849

filter.2.conv5.convI.weight f4 [1, 1, 5, 5, 1]
0	0x3d3fdbe1	0.046840552
1	0x3d3a5470	0.045490682
2	0x3dea5e7f	0.11443805
3	0x3d7738ec	0.06035702
4	0xbe1e3564	-0.15450054
5	0x3dd3d267	0.103428654
6	0xbd77f1c4	-0.0605333
7	0x3db3329c	0.08749887
8	0xbc0fd151	-0.008777932
9	0x3def7f95	0.11694256
10	0xbdf9c81b	-0.1219637
11	0xbe55ed87	-0.2089139
12	0xbded32b2	-0.11581935
13	0x3e035789	0.12826361
14	0xbda56ded	-0.08077607
15	0x3da34e18	0.079738796
16	0xbdb7d5d1	-0.08976329
17	0xbe2063c5	-0.15663059
18	0xbdded498	-0.10880393
19	0x3d0cde52	0.03439171
20	0xbb5d1855	-0.0033736427
21	0xbe1f3974	-0.1554926
22	0xbcddc8b6	-0.027073245
23	0x3e1231fe	0.14276883
24	0xbd4116c9	-0.04714087

filter.2.conv6.convR.weight f4 [1, 1, 5, 5, 1]
0	0xbd66374d	-0.056205083
1	0x3da47df7	0.080318384
2	0x3def2db1	0.11678637
3	0xbd863d90	-0.06554711
4	0xbda0ea4e	-0.0785719
5	0x3daa95ce	0.08329354
6	0xbe304c82	-0.17216685
7	0x3dc5ed80	0.0966444
8	0xbdb37227	-0.08762007
9	0x3ce2a290	0.027665406
10	0x3e4212b6	0.1895245
11	0x3d8119d7	0.06303757
12	0xbe510bb5	-0.20414622
13	0xbd92b540	-0.07163477
14	0x3dcf81b0	0.10132158
15	0xbe10c58b	-0.14137857
16	0x3e35640a	0.17713943
17	0xbe2905fe	-0.16506192
18	0xbd855370	-0.06510055
19	0x3da248ac	0.07924017
20	0xbe094b08	-0.13407528
21	0xbe1976e8	-0.14986765
22	0xbc8f77c2	-0.01751316
23	0xbe0358cc	-0.12826842
24	0xbbd76599	-0.0065733907

filter.2.conv6.convI.weight f4 [1, 1, 5, 5, 1]
0	0x3d8a9f0d	0.06768618
1	0xbe1e4b18	-0.15458333
2	0x3cfdd16f	0.030983655
3	0xbd0698fb	-0.032860737
4	0xbba8931a	-0.005144489
5	0x3d995886	0.07487588
6	0x3d84f008	0.06491095
7	0x3e80d23b	0.25160393
8	0x3e1e2052	0.15442017
9	0xbd758fce	-0.059951596
10	0x3d86c10b	0.06579789
11	0xbdb80e20	-0.08987069
12	0xbde5aa4b	-0.112141214
13	0xbdac3cd6	-0.08410041
14	0x3e7d11ba	0.24713793
15	0xbe06cfe6	-0.13165244
16	0x3e047325	0.12934549
17	0xbe0ebb27	-0.1393858
18	0x3e38691f	0.1800885
19	0xbe1c3dea	-0.15257993
20	0x3d160851	0.036629025
21	0xbe45561d	-0.19271131
22	0xbd943fcc	-0.07238731
23	0xbd419cd6	-0.04726871
24	0xbd1f49f3	-0.038888883

filter.3.conv1.convR.weight f4 [1, 1, 3, 3, 1]
0	0x3cee85b9	0.029116498
1	0xbbbd4ee3	-0.0057772263
2	0x3e18e21d	0.14930005
3	0xbd830482	-0.06397344
4	0xbd56eda9	-0.052472744
5	0x3e54297a	0.20718947
6	0x3e50f437	0.2040566
7	0x3e16860f	0.14699577
8	0x3df001e8	0.117191136

filter.3.conv1.convI.weight f4 [1, 1, 3, 3, 1]
0	0xbe86f07d	-0.26355353
1	0x3e96c73c	0.2944888
2	0x3e023a73	0.12717609
3	0xbe14d6a6	-0.14535007
4	0xbb8d9765	-0.004321026
5	0xbdc7d174	-0.09756747
6	0xbd9a8375	-0.07544605
7	0xbe01df9a	-0.12682953
8	0x3e9b555f	0.3033857

filter.3.conv2.convR.weight f4 [1, 1, 3, 3, 1]
0	0x3b3c0465	0.0028689143
1	0x3d9fae3f	0.07796907
2	0x3e22411c	0.1584515
3	0x3e0dd88e	0.1385214
4	0x3e908094	0.28223097
5	0x3da3c74b	0.079969965
6	0xbeb74bbb	-0.35799965
7	0x3e8ef1c9	0.27918842
8	0xbd175966	-0.03695049

filter.3.conv2.convI.weight f4 [1, 1, 3, 3, 1]
0	0x3e244f74	0.16045934
1	0xbe15bfb5	-0.14623912
2	0xbd9317f7	-0.07182305
3	0x3d0fe0ec	0.03512661
4	0xbe2374a3	-0.15962462
5	0xbe93fe4c	-0.2890495
6	0xbd481c8f	-0.04885536
7	0x3e7ae531	0.24501492
8	0xbd248662	-0.04016722

filter.3.conv3.convR.weight f4 [1, 1, 3, 3, 1]
0	0x3cbd91f1	0.02314088
1	0xbe431619	-0.19051398
2	0x3d18c9b0	0.03730172
3	0xbe3c6ea1	-0.18401577
4	0x3e381469	0.17976536
5	0x3ea77d92	0.3271299
6	0x3e8858db	0.2663029
7	0xbe12f6fe	-0.14352033
8	0xbebddd05	-0.37082687

filter.3.conv3.convI.weight f4 [1, 1, 3, 3, 1]
0	0x3e4a050c	0.19728488
1	0x3e12be70	0.14330459
2	0xbe890a6d	-0.26765767
3	0x3e576420	0.21034288
4	0xbe8d06cc	-0.27544248
5	0x3d7156ac	0.058920547
6	0x3e21153b	0.15730755
7	0xbe5da02a	-0.21643129
8	0xbe5fe518	-0.21864736

filter.3.conv4.convR.weight f4 [1, 1, 3, 3, 1]
0	0xbe1d6de3	-0.1537395
1	0x3e2dfda4	0.16991287
2	0x3db837db	0.089950286
3	0xbd426980	-0.047463894
4	0x3c83e071	0.016098233
5	0xbdebe143	-0.11517575
6	0xbd84f80e	-0.06492625
7	0xbe5d36a5	-0.21602876
8	0x3ea21896	0.31659383

filter.3.conv4.convI.weight f4 [1, 1, 3, 3, 1]
0	0x3e3afbc5	0.18260105
1	0x3e46c594	0.19411308
2	0x3e7ac7c6	0.2449027
3	0xbda9ae7e	-0.08285235
4	0xbea79d1e	-0.32737058
5	0xbe3704bf	-0.17872904
6	0xbe8cdadc	-0.27510726
7	0xbe470b61	-0.19437934
8	0xbea6c357	-0.32570907

filter.3.conv5.convR.weight f4 [1, 1, 3, 3, 1]
0	0xbcc76a18	-0.024342582
1	0x3e5d690e	0.21622106
2	0xbd0e7a41	-0.03478456
3	0x3e52bce6	0.20579872
4	0x3e6e3ead	0.23266096
5	0x3eadb997	0.33930656
6	0xbc09b356	-0.008404573
7	0x3e68b902	0.22726825
8	0xbe583c17	-0.21116672

filter.3.conv5.convI.weight f4 [1, 1, 3, 3, 1]
0	0x3def6b32	0.11690368
1	0xbe1646b8	-0.14675415
2	0x3e9c589a	0.30536348
3	0x3d8a5faa	0.06756528
4	0xbda7d762	-0.08195378
5	0x3e918713	0.28423366
6	0x3e942661	0.2893553
7	0x3e5e4764	0.21706921
8	0x3e14b174	0.14520818

filter.3.conv6.convR.weight f4 [1, 1, 3, 3, 1]
0	0x3caede0f	0.02134612
1	0x3dad4061	0.08459545
2	0x3e945342	0.2896977
3	0xbe17b8db	-0.1481661
4	0x3eade395	0.33962694
5	0xbdbb00a9	-0.09130985
6	0x3d0f8a37	0.03504392
7	0xbec5c25a	-0.3862484
8	0xbea9885a	-0.3311184

filter.3.conv6.convI.weight f4 [1, 1, 3, 3, 1]
0	0xbe0fe20b	-0.14051072
1	0x3e4298e1	0.19003631
2	0xbd2377ab	-0.039909046
3	0x3e99ae2e	0.300157
4	0x3ddab5eb	0.10679229
5	0x3b9f0f31	0.004854106
6	0x3da79b5f	0.081839316
7	0xbd8a46a6	-0.06751756
8	0x3e0216c5	0.12703998

filter.4.conv1.convR.weight f4 [1, 1, 3, 3, 1]
0	0x3c825184	0.01590801
1	0xbe885ef9	-0.26634958
2	0x3e53b8c1	0.20675947
3	0xbe701f44	-0.23449427
4	0x3db34f56	0.087553665
5	0xbeb768b7	-0.3582208
6	0x3cfe1123	0.03101403
7	0xbd201af8	-0.03908822
8	0x3dbb3ac6	0.091420695

filter.4.conv1.convI.weight f4 [1, 1, 3, 3, 1]
0	0xbdffd105	-0.12491039
1	0xbcd5c640	-0.02609551
2	0xbcedc525	-0.02902467
3	0xbebdd651	-0.37077573
4	0x3db04c14	0.08608261
5	0xbd994547	-0.07483917
6	0x3e167aef	0.14695333
7	0x3d817566	0.0632122
8	0xbe4a3e56	-0.19750342

filter.4.conv2.convR.weight f4 [1, 1, 3, 3, 1]
0	0xbe503948	-0.20334351
1	0x3e8f3588	0.2797053
2	0x3e38158c	0.1797697
3	0xbbe7628a	-0.0070613073
4	0xbd809521	-0.06278444
5	0x3e8f266e	0.27959007
6	0xbb175fa6	-0.0023097782
7	0xbd772ed3	-0.06034739
8	0x3e0aab7e	0.13541982

filter.4.conv2.convI.weight f4 [1, 1, 3, 3, 1]
0	0x3d0515be	0.032491438
1	0x3e973432	0.2953201
2	0xbe41b724	-0.18917519
3	0x3e5da77a	0.21645918
4	0xbe24d6a7	-0.16097508
5	0xbd0a3d37	-0.033749785
6	0x3e30541f	0.1721959
7	0x3dafc152	0.08581795
8	0x3e74c289	0.23902334

filter.4.conv3.convR.weight f4 [1, 1, 3, 3, 1]
0	0x3e5401cd	0.20703812
1	0xbe9225f6	-0.28544587
2	0x3a0799d8	0.0005172766
3	0xbe1b7081	-0.15179636
4	0xbe15b9c4	-0.14621645
5	0x3e2ce135	0.16882785
6	0xbe96cc09	-0.2945254
7	0x3e2557e9	0.16146816
8	0x3d8ff931	0.07029951

filter.4.conv3.convI.weight f4 [1, 1, 3, 3, 1]
0	0x3e2af093	0.16693334
1	0x3e80020c	0.25001562
2	0xbe57e7c3	-0.21084504
3	0x3e465336	0.1936768
4	0xbe688f30	-0.22710872
5	0xbe2a8fb6	-0.16656384
6	0x3e54dc5a	0.20787182
7	0x3e261559	0.16219081
8	0x3de1d615	0.11027161

filter.4.conv4.convR.weight f4 [1, 1, 3, 3, 1]
0	0x3d2a2517	0.041539278
1	0xbe0b6b7d	-0.13615222
2	0xbd8db738	-0.06919712
3	0x3dec0f39	0.11526341
4	0x3b8c1152	0.0042745257
5	0x3e8a261e	0.26982206
6	0xbd984085	-0.07434181
7	0xbe6a9870	-0.22909713
8	0x3d2c4b27	0.04206386

filter.4.conv4.convI.weight f4 [1, 1, 3, 3, 1]
0	0x3d7c201e	0.061554067
1	0xbe9753ec	-0.29556215
2	0xbe834855	-0.25641122
3	0x3ced06c8	0.028933898
4	0xbde56138	-0.11200184
5	0x3ecf1456	0.40445203
6	0x3edebdb8	0.4350412
7	0xbe5e07ea	-0.21682706
8	0x3ea6c1ee	0.32569832

filter.4.conv5.convR.weight f4 [1, 1, 3, 3, 1]
0	0x3e512f43	0.20428185
1	0xbe832f61	-0.25622085
2	0x3e38049c	0.17970508
3	0xbe3dc8bc	-0.18533605
4	0xbe6b93f7	-0.23005663
5	0x3dc38b6d	0.09548078
6	0x3df2136a	0.11820109
7	0xbcbc0fb9	-0.022956716
8	0x3e1daf5b	0.15398924

filter.4.conv5.convI.weight f4 [1, 1, 3, 3, 1]
0	0xbe0ba512	-0.13637188
1	0x3a6d560b	0.0009053654
2	0x3e07a279	0.13245572
3	0xbec35ef4	-0.3815838
4	0xbe2dc74b	-0.16970555
5	0xbec0508d	-0.37561455
6	0x3e95f9d3	0.29292163
7	0xbe2d8c5c	-0.16948074
8	0x3da03854	0.07823244

filter.4.conv6.convR.weight f4 [1, 1, 3, 3, 1]
0	0xbdc445bc	-0.09583613
1	0xbe73f557	-0.23824058
2	0x3d0d247c	0.034458622
3	0xbf4370b1	-0.7634383
4	0xbeb0c449	-0.34524754
5	0x3cd79892	0.026317868
6	0xbe038681	-0.12844278
7	0x3d6b0347	0.057376172
8	0x3e4931cf	0.19647907

filter.4.conv6.convI.weight f4 [1, 1, 3, 3, 1]
0	0x3e5c998c	0.21542948
1	0xbe31ef27	-0.17376386
2	0x3cefc187	0.029267086
3	0x3e10af93	0.14129476
4	0xbe53f448	-0.20698655
5	0xbd4eb769	-0.050467882
6	0xbc22550b	-0.009907971
7	0x3e95b594	0.29240096
8	0xbe0c2a02	-0.136879

filter.5.conv1.convR.weight f4 [1, 1, 3, 3, 1]
0	0x3e8d004b	0.27539286
1	0x3d6581b3	0.056031894
2	0xbe119539	-0.1421708
3	0xbcb26f54	-0.021781601
4	0xbf0ce8aa	-0.5504252
5	0xbdce68e3	-0.10078599
6	0xbb40ef7c	-0.0029439619
7	0xbd546f7b	-0.05186413
8	0xbe641fc4	-0.22277743

filter.5.conv1.convI.weight f4 [1, 1, 3, 3, 1]
0	0xbe5f7e81	-0.21825601
1	0x3e96f01b	0.2948006
2	0x3ce50338	0.027955636
3	0xbea53ed3	-0.32274494
4	0xbe7b383b	-0.24533169
5	0x3e01cd50	0.12675977
6	0x3e7510e7	0.23932229
7	0xbe2e01cf	-0.16992877
8	0x3cedd75c	0.029033355

filter.5.conv2.convR.weight f4 [1, 1, 3, 3, 1]
0	0xbe42dba7	-0.19029103
1	0x3e7caeed	0.24676104
2	0xbe1b600f	-0.15173362
3	0xbd3b3d11	-0.045712534
4	0x3d469d64	0.048489943
5	0x3e52211d	0.20520444
6	0xbe5e266a	-0.21694341
7	0x3e631bf0	0.22178626
8	0x3e110f1c	0.1416592

filter.5.conv2.convI.weight f4 [1, 1, 3, 3, 1]
0	0xbb3a0d3f	-0.0028389243
1	0xbce9cae6	-0.028539132
2	0x3e72a598	0.23695982
3	0xbe89cdc4	-0.269148
4	0xbe4860e4	-0.19568211
5	0xbdc17baf	-0.09447419
6	0xbe684386	-0.22682008
7	0xbdf34c28	-0.1187976
8	0xbe58b7d1	-0.2116387

filter.5.conv3.convR.weight f4 [1, 1, 3, 3, 1]
0	0x3bab40d8	0.005226236
1	0x3e99ebca	0.30062705
2	0xbb272b30	-0.002550792
3	0xbe267803	-0.16256718
4	0x3b6c77ba	0.0036082105
5	0xbcdd95b2	-0.02704892
6	0x3cb179c8	0.021664515
7	0x3e4c0be7	0.19926415
8	0x3cb8bdde	0.022551473

filter.5.conv3.convI.weight f4 [1, 1, 3, 3, 1]
0	0xbd621ae0	-0.05520141
1	0xbe9c22b1	-0.30495217
2	0xbebc9b14	-0.36837065
3	0xbe4199ba	-0.18906298
4	0xbd9e6b12	-0.07735266
5	0xbdd3852e	-0.103281364
6	0xbcc3dcb0	-0.023908943
7	0xbeba6008	-0.3640139
8	0xbe0a7f04	-0.13525015

filter.5.conv4.convR.weight f4 [1, 1, 3, 3, 1]
0	0x3e2d0644	0.16896921
1	0x3e800416	0.25003117
2	0x3ddba0be	0.107240185
3	0x3e3ded12	0.18547466
4	0xbe716d5b	-0.23576872
5	0xbe43c376	-0.19117531
6	0xbe89c602	-0.2690888
7	0x3dfd1bc3	0.12358811
8	0xbe026c6f	-0.12736677

filter.5.conv4.convI.weight f4 [1, 1, 3, 3, 1]
0	0x3d4392ba	0.04774735
1	0xbe602641	-0.21889593
2	0x3d7ce62b	0.061742943
3	0x3d9ccdc2	0.07656433
4	0xbdd0d09e	-0.101960406
5	0x3efcf423	0.49405012
6	0xbe52c182	-0.2058163
7	0xbdef3e49	-0.11681802
8	0x3d8d4f4d	0.06899891

filter.5.conv5.convR.weight f4 [1, 1, 3, 3, 1]
0	0x3b1ce844	0.0023942152
1	0xbe0b2bc6	-0.13590917
2	0x3e4898a4	0.19589478
3	0x3e64fce9	0.22362103
4	0xbd6e9f8e	-0.058257632
5	0xbe4c90f7	-0.19977175
6	0xbe2ef436	-0.17085347
7	0x3d268685	0.04065563
8	0x3e3d4fec	0.18487519

filter.5.conv5.convI.weight f4 [1, 1, 3, 3, 1]
0	0xbc01a5e2	-0.007913085
1	0x3e3ecee9	0.18633617
2	0xbe688d8b	-0.22710244
3	0xbdf023ef	-0.11725604
4	0xbd9dad97	-0.07699125
5	0xbdaedf50	-0.08538687
6	0xbe1f6e2b	-0.1556937
7	0x3e0cce06	0.13750467
8	0x3ea95fe4	0.3308097

filter.5.conv6.convR.weight f4 [1, 1, 3, 3, 1]
0	0xbd407783	-0.046988975
1	0x3eb4c7d2	0.353087
2	0xbd888f9a	-0.06668015
3	0x3e0b8ace	0.13627169
4	0xbdab3119	-0.08358974
5	0xbe33edfc	-0.17571253
6	0x3d556b63	0.052104365
7	0x3dd7d3fb	0.10538479
8	0xbdab9032	-0.083771124

filter.5.conv6.convI.weight f4 [1, 1, 3, 3, 1]
0	0xbe2b3f69	-0.16723408
1	0xbe852205	-0.26002517
2	0xbe282417	-0.16420017
3	0xbe41e9c9	-0.18936838
4	0x3d3dae0f	0.046308573
5	0x3ced87c6	0.028995406
6	0xbd0c475d	-0.034247745
7	0x3dfe73e3	0.124244474
8	0xbe46a2e3	-0.19398074

filter.6.conv1.convR.weight f4 [1, 1, 3, 3, 1]
0	0xbe5011db	-0.20319311
1	0x3e2ff688	0.17183888
2	0x3d0749b1	0.033029262
3	0xbec8d8c6	-0.39227885
4	0xbee262e6	-0.4421608
5	0x3b7b323e	0.0038329507
6	0x3e49646c	0.19667214
7	0xbb47b315	-0.0030471731
8	0x3d2683b5	0.04065295

filter.6.conv1.convI.weight f4 [1, 1, 3, 3, 1]
0	0x3e145af7	0.14487825
1	0x3e25eca0	0.16203547
2	0xbe9792f2	-0.29604298
3	0xbe1ad4ff	-0.15120314
4	0xbee7c771	-0.4526935
5	0xbe78eabd	-0.24308296
6	0xbe7258e9	-0.23666729
7	0xbea0c622	-0.31401163
8	0x3e863e06	0.26219195

filter.6.conv2.convR.weight f4 [1, 1, 3, 3, 1]
0	0x3e0b89be	0.13626763
1	0xbe820d8a	-0.25400954
2	0xbd69e307	-0.057101276
3	0x3e559b12	0.20859936
4	0x3e7a0f55	0.24419911
5	0x3e96cb01	0.29451755
6	0x3ea29a5b	0.3175839
7	0xbe5887ee	-0.21145603
8	0xbd8599db	-0.06523486

filter.6.conv2.convI.weight f4 [1, 1, 3, 3, 1]
0	0x3e99afc2	0.30016905
1	0x3d32c836	0.043647967
2	0xbd924538	-0.07142109
3	0x3decab9f	0.115561716
4	0x3e208d46	0.15678892
5	0x3e2c736e	0.16840908
6	0xbd8e6210	-0.06952298
7	0xbdc1a364	-0.094549924
8	0x3ddea918	0.10872096

filter.6.conv3.convR.weight f4 [1, 1, 3, 3, 1]
0	0x3e00002b	0.12500064
1	0x3e5bb719	0.21456565
2	0x3e8e4ec4	0.27794468
3	0xbe08dac5	-0.13364704
4	0x3e1dea0e	0.15421316
5	0x3de983b1	0.11402071
6	0x3dea31c0	0.1143527
7	0x3e953c63	0.29147634
8	0x3efce3c7	0.4939253

filter.6.conv3.convI.weight f4 [1, 1, 3, 3, 1]
0	0x3d3f1f56	0.046660744
1	0x3e37513d	0.17902084
2	0xbe7cb697	-0.24679027
3	0x3e62f723	0.22164588
4	0xbe0e214f	-0.13879894
5	0x3ebb61cc	0.3659805
6	0x3e356e7d	0.17717929
7	0x3dc05c52	0.09392609
8	0x3e5fe64b	0.21865194

filter.6.conv4.convR.weight f4 [1, 1, 3, 3, 1]
0	0xbe7b85fb	-0.24562828
1	0x3ad68921	0.0016367772
2	0x3e336ca6	0.17521915
3	0x3e21ebf8	0.15812671
4	0xbe80aa59	-0.25129965
5	0x3d0b32db	0.033984046
6	0x3d0bcb11	0.034129206
7	0x3be082a4	0.006851511
8	0xbcbd2212	-0.023087535

filter.6.conv4.convI.weight f4 [1, 1, 3, 3, 1]
0	0xbcdc0689	-0.026858585
1	0xbe9567e8	-0.29180837
2	0x3e726713	0.23672132
3	0xbda4e0cd	-0.0805069
4	0xbe03a9e7	-0.12857781
5	0xbd7da320	-0.061923146
6	0x3e58ad26	0.21159801
7	0x3c039efe	0.008033512
8	0x3c89e93b	0.016834846

filter.6.conv5.convR.weight f4 [1, 1, 3, 3, 1]
0	0x3e00681d	0.12539716
1	0xbe5d3e34	-0.2160576
2	0x3e2a1c1a	0.16612282
3	0xbec767ec	-0.38946474
4	0xbd8e7c50	-0.069573045
5	0x3e3eff23	0.18652014
6	0x3e24bd6b	0.16087882
7	0x3d68e7a6	0.056861542
8	0xbd686076	-0.056732617

filter.6.conv5.convI.weight f4 [1, 1, 3, 3, 1]
0	0xbe91651f	-0.28397462
1	0xbc86814b	-0.016419074
2	0x3d435496	0.04768809
3	0xbde5e2c4	-0.11224893
4	0x3df1f412	0.11814131
5	0x3d3fb8f0	0.04680723
6	0x3e30fcc0	0.17283916
7	0xbd8f77e0	-0.07005286
8	0xbe221704	-0.15829092

filter.6.conv6.convR.weight f4 [1, 1, 3, 3, 1]
0	0x3db4d8d1	0.08830417
1	0x3e1041b8	0.1408757
2	0x3e392a44	0.1808253
3	0xbe3e47c9	-0.18582071
4	0x3e64ca92	0.223429
5	0xbb4a3ea8	-0.00308601
6	0xbd75f20a	-0.06004528
7	0x3deee852	0.11665405
8	0xbe59ba76	-0.21262535

filter.6.conv6.convI.weight f4 [1, 1, 3, 3, 1]
0	0x3e29ea91	0.16593386
1	0x3e9218a8	0.28534436
2	0xbe4d528a	-0.20051017
3	0xbdca280f	-0.09870922
4	0xbd4320c2	-0.047638662
5	0xbdd4aba3	-0.103842996
6	0x3dd271d6	0.10275619
7	0xbced85b3	-0.028994417
8	0x3d29824e	0.041384034

filter.7.conv1.convR.weight f4 [1, 1, 3, 3, 1]
0	0xbe455f6e	-0.19274685
1	0x3eac98d5	0.33710352
2	0xbbe73cac	-0.007056793
3	0xbe23d46e	-0.15999004
4	0x3e36e89d	0.17862172
5	0xbd875617	-0.06608217
6	0x3e1502bb	0.14551823
7	0x3d6cf2fd	0.05784892
8	0xbe776787	-0.24160586

filter.7.conv1.convI.weight f4 [1, 1, 3, 3, 1]
0	0xbde2a393	-0.110663556
1	0xbd2fe9d2	-0.042947598
2	0xbde2ad52	-0.110682145
3	0x3e87ba97	0.26509544
4	0x3e9bf545	0.30460563
5	0xbdd88e6d	-0.105740406
6	0xbe863ae1	-0.26216796
7	0x3ca0253e	0.019549008
8	0xbcaae93a	-0.020863164

filter.7.conv2.convR.weight f4 [1, 1, 3, 3, 1]
0	0xbe4bd727	-0.19906293
1	0xbe0b98d4	-0.13632518
2	0x3ea3680a	0.31915313
3	0x3e9a69d5	0.30158868
4	0xbe944723	-0.28960523
5	0xbe989319	-0.29799727
6	0xbe1be6ff	-0.15224837
7	0x3e3fe0ed	0.18738146
8	0xbe521c4d	-0.20518608

filter.7.conv2.convI.weight f4 [1, 1, 3, 3, 1]
0	0xbdc634a2	-0.09678008
1	0x3dd8061c	0.1054804
2	0xbd2f49e8	-0.042795092
3	0x3e907f18	0.28221965
4	0x3e9790a9	0.29602554
5	0x3e7e57a7	0.24838124
6	0xbd8bb99f	-0.06822514
7	0xbd4009d0	-0.046884358
8	0x3d8d8d78	0.06911749

filter.7.conv3.convR.weight f4 [1, 1, 3, 3, 1]
0	0xbe4e66e2	-0.20156434
1	0x3e00c8e4	0.12576634
2	0x3d828efe	0.0637493
3	0xbc8f6a90	-0.017506868
4	0x3dea41c3	0.11438324
5	0xbe42f7dd	-0.19039865
6	0x3e1b7671	0.151819
7	0xbe50fbb8	-0.20408523
8	0x3dff92f3	0.124792

filter.7.conv3.convI.weight f4 [1, 1, 3, 3, 1]
0	0x3cbc890c	0.023014568
1	0x3dbd80b1	0.092530616
2	0xbdfc29b4	-0.12312642
3	0x3ddb73f7	0.10715478
4	0x3e96ae1e	0.29429716
5	0xbe52d366	-0.20588455
6	0xbe44a376	-0.1920298
7	0x3e011de0	0.12609053
8	0x3e132f52	0.1437352

filter.7.conv4.convR.weight f4 [1, 1, 3, 3, 1]
0	0x3d30296a	0.043008246
1	0xbc237545	-0.00997669
2	0x3d6a5485	0.05720951
3	0x3e7101ab	0.23535793
4	0x3ed493e7	0.4151909
5	0x3ea2c398	0.3178985
6	0xbc7c3201	-0.015392781
7	0x3e44e6ec	0.19228715
8	0xbdc51067	-0.09622269

filter.7.conv4.convI.weight f4 [1, 1, 3, 3, 1]
0	0x3d8d8a1a	0.069111064
1	0x3d756fad	0.059920955
2	0xbd85f967	-0.0654171
3	0xbe1260ad	-0.14294691
4	0xbb78c306	-0.003795804
5	0x3d6d9a66	0.058008574
6	0x3e2d808b	0.16943567
7	0xbe323504	-0.17403036
8	0x3d46bc13	0.048519205

filter.7.conv5.convR.weight f4 [1, 1, 3, 3, 1]
0	0xbc0fb4c7	-0.008771128
1	0x3e53669f	0.20644616
2	0xbda8a74d	-0.08235035
3	0x3da576d6	0.08079307
4	0xbdb60b40	-0.088888645
5	0x3e6d9b8a	0.23203865
6	0x3d714de5	0.058912177
7	0x3ca284bc	0.019838683
8	0xbb93674c	-0.004498398

filter.7.conv5.convI.weight f4 [1, 1, 3, 3, 1]
0	0xbaeeaf57	-0.0018210214
1	0x3df1a4ce	0.11799012
2	0xbe61beb9	-0.22045411
3	0xbe00fab5	-0.12595637
4	0xbebf1593	-0.37321147
5	0xbcbdfef7	-0.023192866
6	0x3b69c9ab	0.0035673182
7	0xbd2e446f	-0.042545732
8	0xbcd63834	-0.026149847

filter.7.conv6.convR.weight f4 [1, 1, 3, 3, 1]
0	0x3d30dade	0.043177478
1	0xbda2e792	-0.07954325
2	0x3dbb7c19	0.09154529
3	0x3d830ff9	0.06399531
4	0xbcfe0167	-0.031006528
5	0xbd3a5eb4	-0.045500472
6	0xbc3e9ac5	-0.01163358
7	0xbdc315b9	-0.09525628
8	0x3d32da49	0.043665204

filter.7.conv6.convI.weight f4 [1, 1, 3, 3, 1]
0	0xbbbb27db	-0.0057115383
1	0xbd8a8a43	-0.067646526
2	0x3d99c60b	0.07508477
3	0xbd0f9485	-0.03505375
4	0x3cf732ba	0.030175555
5	0xbd90f3f2	-0.07077779
6	0xbcdcc4d5	-0.026949326
7	0xbcc93b38	-0.02456437
8	0x3d69d965	0.05709209
